{
  "nodes": [
    {
      "op": "null", 
      "name": "data", 
      "inputs": []
    }, 
    {
      "op": "null", 
      "name": "embed_weight", 
      "attrs": {
        "input_dim": "10000", 
        "output_dim": "200"
      }, 
      "inputs": []
    }, 
    {
      "op": "Embedding", 
      "name": "embed", 
      "attrs": {
        "input_dim": "10000", 
        "output_dim": "200"
      }, 
      "inputs": [[0, 0, 0], [1, 0, 0]]
    }, 
    {
      "op": "SliceChannel", 
      "name": "split1", 
      "attrs": {
        "axis": "1", 
        "num_outputs": "60", 
        "squeeze_axis": "1"
      }, 
      "inputs": [[2, 0, 0]]
    }, 
    {
      "op": "null", 
      "name": "lstm_l0_i2h_weight", 
      "inputs": []
    }, 
    {
      "op": "null", 
      "name": "lstm_l0_i2h_bias", 
      "attrs": {"__init__": "[\"lstmbias\", {\"forget_bias\": 1.0}]"}, 
      "inputs": []
    }, 
    {
      "op": "FullyConnected", 
      "name": "lstm_l0_t0_i2h", 
      "attrs": {"num_hidden": "800"}, 
      "inputs": [[3, 0, 0], [4, 0, 0], [5, 0, 0]]
    }, 
    {
      "op": "_zeros", 
      "name": "lstm_l0_begin_state_0", 
      "attrs": {
        "__layout__": "NC", 
        "dtype": "float32", 
        "shape": "(0, 200)"
      }, 
      "inputs": []
    }, 
    {
      "op": "null", 
      "name": "lstm_l0_h2h_weight", 
      "inputs": []
    }, 
    {
      "op": "null", 
      "name": "lstm_l0_h2h_bias", 
      "inputs": []
    }, 
    {
      "op": "FullyConnected", 
      "name": "lstm_l0_t0_h2h", 
      "attrs": {"num_hidden": "800"}, 
      "inputs": [[7, 0, 0], [8, 0, 0], [9, 0, 0]]
    }, 
    {
      "op": "elemwise_add", 
      "name": "_plus120", 
      "inputs": [[6, 0, 0], [10, 0, 0]]
    }, 
    {
      "op": "SliceChannel", 
      "name": "lstm_l0_t0_slice", 
      "attrs": {"num_outputs": "4"}, 
      "inputs": [[11, 0, 0]]
    }, 
    {
      "op": "Activation", 
      "name": "lstm_l0_t0_o", 
      "attrs": {"act_type": "sigmoid"}, 
      "inputs": [[12, 3, 0]]
    }, 
    {
      "op": "Activation", 
      "name": "lstm_l0_t0_f", 
      "attrs": {"act_type": "sigmoid"}, 
      "inputs": [[12, 1, 0]]
    }, 
    {
      "op": "_zeros", 
      "name": "lstm_l0_begin_state_1", 
      "attrs": {
        "__layout__": "NC", 
        "dtype": "float32", 
        "shape": "(0, 200)"
      }, 
      "inputs": []
    }, 
    {
      "op": "elemwise_mul", 
      "name": "_mul240", 
      "inputs": [[14, 0, 0], [15, 0, 0]]
    }, 
    {
      "op": "Activation", 
      "name": "lstm_l0_t0_i", 
      "attrs": {"act_type": "sigmoid"}, 
      "inputs": [[12, 0, 0]]
    }, 
    {
      "op": "Activation", 
      "name": "lstm_l0_t0_c", 
      "attrs": {"act_type": "tanh"}, 
      "inputs": [[12, 2, 0]]
    }, 
    {
      "op": "elemwise_mul", 
      "name": "_mul241", 
      "inputs": [[17, 0, 0], [18, 0, 0]]
    }, 
    {
      "op": "elemwise_add", 
      "name": "lstm_l0_t0_state", 
      "inputs": [[16, 0, 0], [19, 0, 0]]
    }, 
    {
      "op": "Activation", 
      "name": "activation120", 
      "attrs": {"act_type": "tanh"}, 
      "inputs": [[20, 0, 0]]
    }, 
    {
      "op": "elemwise_mul", 
      "name": "lstm_l0_t0_out", 
      "inputs": [[13, 0, 0], [21, 0, 0]]
    }, 
    {
      "op": "null", 
      "name": "lstm_l1_i2h_weight", 
      "inputs": []
    }, 
    {
      "op": "null", 
      "name": "lstm_l1_i2h_bias", 
      "attrs": {"__init__": "[\"lstmbias\", {\"forget_bias\": 1.0}]"}, 
      "inputs": []
    }, 
    {
      "op": "FullyConnected", 
      "name": "lstm_l1_t0_i2h", 
      "attrs": {"num_hidden": "800"}, 
      "inputs": [[22, 0, 0], [23, 0, 0], [24, 0, 0]]
    }, 
    {
      "op": "_zeros", 
      "name": "lstm_l1_begin_state_0", 
      "attrs": {
        "__layout__": "NC", 
        "dtype": "float32", 
        "shape": "(0, 200)"
      }, 
      "inputs": []
    }, 
    {
      "op": "null", 
      "name": "lstm_l1_h2h_weight", 
      "inputs": []
    }, 
    {
      "op": "null", 
      "name": "lstm_l1_h2h_bias", 
      "inputs": []
    }, 
    {
      "op": "FullyConnected", 
      "name": "lstm_l1_t0_h2h", 
      "attrs": {"num_hidden": "800"}, 
      "inputs": [[26, 0, 0], [27, 0, 0], [28, 0, 0]]
    }, 
    {
      "op": "elemwise_add", 
      "name": "_plus180", 
      "inputs": [[25, 0, 0], [29, 0, 0]]
    }, 
    {
      "op": "SliceChannel", 
      "name": "lstm_l1_t0_slice", 
      "attrs": {"num_outputs": "4"}, 
      "inputs": [[30, 0, 0]]
    }, 
    {
      "op": "Activation", 
      "name": "lstm_l1_t0_o", 
      "attrs": {"act_type": "sigmoid"}, 
      "inputs": [[31, 3, 0]]
    }, 
    {
      "op": "Activation", 
      "name": "lstm_l1_t0_f", 
      "attrs": {"act_type": "sigmoid"}, 
      "inputs": [[31, 1, 0]]
    }, 
    {
      "op": "_zeros", 
      "name": "lstm_l1_begin_state_1", 
      "attrs": {
        "__layout__": "NC", 
        "dtype": "float32", 
        "shape": "(0, 200)"
      }, 
      "inputs": []
    }, 
    {
      "op": "elemwise_mul", 
      "name": "_mul360", 
      "inputs": [[33, 0, 0], [34, 0, 0]]
    }, 
    {
      "op": "Activation", 
      "name": "lstm_l1_t0_i", 
      "attrs": {"act_type": "sigmoid"}, 
      "inputs": [[31, 0, 0]]
    }, 
    {
      "op": "Activation", 
      "name": "lstm_l1_t0_c", 
      "attrs": {"act_type": "tanh"}, 
      "inputs": [[31, 2, 0]]
    }, 
    {
      "op": "elemwise_mul", 
      "name": "_mul361", 
      "inputs": [[36, 0, 0], [37, 0, 0]]
    }, 
    {
      "op": "elemwise_add", 
      "name": "lstm_l1_t0_state", 
      "inputs": [[35, 0, 0], [38, 0, 0]]
    }, 
    {
      "op": "Activation", 
      "name": "activation180", 
      "attrs": {"act_type": "tanh"}, 
      "inputs": [[39, 0, 0]]
    }, 
    {
      "op": "elemwise_mul", 
      "name": "lstm_l1_t0_out", 
      "inputs": [[32, 0, 0], [40, 0, 0]]
    }, 
    {
      "op": "expand_dims", 
      "name": "expand_dims60", 
      "attrs": {"axis": "1"}, 
      "inputs": [[41, 0, 0]]
    }, 
    {
      "op": "FullyConnected", 
      "name": "lstm_l0_t1_i2h", 
      "attrs": {"num_hidden": "800"}, 
      "inputs": [[3, 1, 0], [4, 0, 0], [5, 0, 0]]
    }, 
    {
      "op": "FullyConnected", 
      "name": "lstm_l0_t1_h2h", 
      "attrs": {"num_hidden": "800"}, 
      "inputs": [[22, 0, 0], [8, 0, 0], [9, 0, 0]]
    }, 
    {
      "op": "elemwise_add", 
      "name": "_plus121", 
      "inputs": [[43, 0, 0], [44, 0, 0]]
    }, 
    {
      "op": "SliceChannel", 
      "name": "lstm_l0_t1_slice", 
      "attrs": {"num_outputs": "4"}, 
      "inputs": [[45, 0, 0]]
    }, 
    {
      "op": "Activation", 
      "name": "lstm_l0_t1_o", 
      "attrs": {"act_type": "sigmoid"}, 
      "inputs": [[46, 3, 0]]
    }, 
    {
      "op": "Activation", 
      "name": "lstm_l0_t1_f", 
      "attrs": {"act_type": "sigmoid"}, 
      "inputs": [[46, 1, 0]]
    }, 
    {
      "op": "elemwise_mul", 
      "name": "_mul242", 
      "inputs": [[48, 0, 0], [20, 0, 0]]
    }, 
    {
      "op": "Activation", 
      "name": "lstm_l0_t1_i", 
      "attrs": {"act_type": "sigmoid"}, 
      "inputs": [[46, 0, 0]]
    }, 
    {
      "op": "Activation", 
      "name": "lstm_l0_t1_c", 
      "attrs": {"act_type": "tanh"}, 
      "inputs": [[46, 2, 0]]
    }, 
    {
      "op": "elemwise_mul", 
      "name": "_mul243", 
      "inputs": [[50, 0, 0], [51, 0, 0]]
    }, 
    {
      "op": "elemwise_add", 
      "name": "lstm_l0_t1_state", 
      "inputs": [[49, 0, 0], [52, 0, 0]]
    }, 
    {
      "op": "Activation", 
      "name": "activation121", 
      "attrs": {"act_type": "tanh"}, 
      "inputs": [[53, 0, 0]]
    }, 
    {
      "op": "elemwise_mul", 
      "name": "lstm_l0_t1_out", 
      "inputs": [[47, 0, 0], [54, 0, 0]]
    }, 
    {
      "op": "FullyConnected", 
      "name": "lstm_l1_t1_i2h", 
      "attrs": {"num_hidden": "800"}, 
      "inputs": [[55, 0, 0], [23, 0, 0], [24, 0, 0]]
    }, 
    {
      "op": "FullyConnected", 
      "name": "lstm_l1_t1_h2h", 
      "attrs": {"num_hidden": "800"}, 
      "inputs": [[41, 0, 0], [27, 0, 0], [28, 0, 0]]
    }, 
    {
      "op": "elemwise_add", 
      "name": "_plus181", 
      "inputs": [[56, 0, 0], [57, 0, 0]]
    }, 
    {
      "op": "SliceChannel", 
      "name": "lstm_l1_t1_slice", 
      "attrs": {"num_outputs": "4"}, 
      "inputs": [[58, 0, 0]]
    }, 
    {
      "op": "Activation", 
      "name": "lstm_l1_t1_o", 
      "attrs": {"act_type": "sigmoid"}, 
      "inputs": [[59, 3, 0]]
    }, 
    {
      "op": "Activation", 
      "name": "lstm_l1_t1_f", 
      "attrs": {"act_type": "sigmoid"}, 
      "inputs": [[59, 1, 0]]
    }, 
    {
      "op": "elemwise_mul", 
      "name": "_mul362", 
      "inputs": [[61, 0, 0], [39, 0, 0]]
    }, 
    {
      "op": "Activation", 
      "name": "lstm_l1_t1_i", 
      "attrs": {"act_type": "sigmoid"}, 
      "inputs": [[59, 0, 0]]
    }, 
    {
      "op": "Activation", 
      "name": "lstm_l1_t1_c", 
      "attrs": {"act_type": "tanh"}, 
      "inputs": [[59, 2, 0]]
    }, 
    {
      "op": "elemwise_mul", 
      "name": "_mul363", 
      "inputs": [[63, 0, 0], [64, 0, 0]]
    }, 
    {
      "op": "elemwise_add", 
      "name": "lstm_l1_t1_state", 
      "inputs": [[62, 0, 0], [65, 0, 0]]
    }, 
    {
      "op": "Activation", 
      "name": "activation181", 
      "attrs": {"act_type": "tanh"}, 
      "inputs": [[66, 0, 0]]
    }, 
    {
      "op": "elemwise_mul", 
      "name": "lstm_l1_t1_out", 
      "inputs": [[60, 0, 0], [67, 0, 0]]
    }, 
    {
      "op": "expand_dims", 
      "name": "expand_dims61", 
      "attrs": {"axis": "1"}, 
      "inputs": [[68, 0, 0]]
    }, 
    {
      "op": "FullyConnected", 
      "name": "lstm_l0_t2_i2h", 
      "attrs": {"num_hidden": "800"}, 
      "inputs": [[3, 2, 0], [4, 0, 0], [5, 0, 0]]
    }, 
    {
      "op": "FullyConnected", 
      "name": "lstm_l0_t2_h2h", 
      "attrs": {"num_hidden": "800"}, 
      "inputs": [[55, 0, 0], [8, 0, 0], [9, 0, 0]]
    }, 
    {
      "op": "elemwise_add", 
      "name": "_plus122", 
      "inputs": [[70, 0, 0], [71, 0, 0]]
    }, 
    {
      "op": "SliceChannel", 
      "name": "lstm_l0_t2_slice", 
      "attrs": {"num_outputs": "4"}, 
      "inputs": [[72, 0, 0]]
    }, 
    {
      "op": "Activation", 
      "name": "lstm_l0_t2_o", 
      "attrs": {"act_type": "sigmoid"}, 
      "inputs": [[73, 3, 0]]
    }, 
    {
      "op": "Activation", 
      "name": "lstm_l0_t2_f", 
      "attrs": {"act_type": "sigmoid"}, 
      "inputs": [[73, 1, 0]]
    }, 
    {
      "op": "elemwise_mul", 
      "name": "_mul244", 
      "inputs": [[75, 0, 0], [53, 0, 0]]
    }, 
    {
      "op": "Activation", 
      "name": "lstm_l0_t2_i", 
      "attrs": {"act_type": "sigmoid"}, 
      "inputs": [[73, 0, 0]]
    }, 
    {
      "op": "Activation", 
      "name": "lstm_l0_t2_c", 
      "attrs": {"act_type": "tanh"}, 
      "inputs": [[73, 2, 0]]
    }, 
    {
      "op": "elemwise_mul", 
      "name": "_mul245", 
      "inputs": [[77, 0, 0], [78, 0, 0]]
    }, 
    {
      "op": "elemwise_add", 
      "name": "lstm_l0_t2_state", 
      "inputs": [[76, 0, 0], [79, 0, 0]]
    }, 
    {
      "op": "Activation", 
      "name": "activation122", 
      "attrs": {"act_type": "tanh"}, 
      "inputs": [[80, 0, 0]]
    }, 
    {
      "op": "elemwise_mul", 
      "name": "lstm_l0_t2_out", 
      "inputs": [[74, 0, 0], [81, 0, 0]]
    }, 
    {
      "op": "FullyConnected", 
      "name": "lstm_l1_t2_i2h", 
      "attrs": {"num_hidden": "800"}, 
      "inputs": [[82, 0, 0], [23, 0, 0], [24, 0, 0]]
    }, 
    {
      "op": "FullyConnected", 
      "name": "lstm_l1_t2_h2h", 
      "attrs": {"num_hidden": "800"}, 
      "inputs": [[68, 0, 0], [27, 0, 0], [28, 0, 0]]
    }, 
    {
      "op": "elemwise_add", 
      "name": "_plus182", 
      "inputs": [[83, 0, 0], [84, 0, 0]]
    }, 
    {
      "op": "SliceChannel", 
      "name": "lstm_l1_t2_slice", 
      "attrs": {"num_outputs": "4"}, 
      "inputs": [[85, 0, 0]]
    }, 
    {
      "op": "Activation", 
      "name": "lstm_l1_t2_o", 
      "attrs": {"act_type": "sigmoid"}, 
      "inputs": [[86, 3, 0]]
    }, 
    {
      "op": "Activation", 
      "name": "lstm_l1_t2_f", 
      "attrs": {"act_type": "sigmoid"}, 
      "inputs": [[86, 1, 0]]
    }, 
    {
      "op": "elemwise_mul", 
      "name": "_mul364", 
      "inputs": [[88, 0, 0], [66, 0, 0]]
    }, 
    {
      "op": "Activation", 
      "name": "lstm_l1_t2_i", 
      "attrs": {"act_type": "sigmoid"}, 
      "inputs": [[86, 0, 0]]
    }, 
    {
      "op": "Activation", 
      "name": "lstm_l1_t2_c", 
      "attrs": {"act_type": "tanh"}, 
      "inputs": [[86, 2, 0]]
    }, 
    {
      "op": "elemwise_mul", 
      "name": "_mul365", 
      "inputs": [[90, 0, 0], [91, 0, 0]]
    }, 
    {
      "op": "elemwise_add", 
      "name": "lstm_l1_t2_state", 
      "inputs": [[89, 0, 0], [92, 0, 0]]
    }, 
    {
      "op": "Activation", 
      "name": "activation182", 
      "attrs": {"act_type": "tanh"}, 
      "inputs": [[93, 0, 0]]
    }, 
    {
      "op": "elemwise_mul", 
      "name": "lstm_l1_t2_out", 
      "inputs": [[87, 0, 0], [94, 0, 0]]
    }, 
    {
      "op": "expand_dims", 
      "name": "expand_dims62", 
      "attrs": {"axis": "1"}, 
      "inputs": [[95, 0, 0]]
    }, 
    {
      "op": "FullyConnected", 
      "name": "lstm_l0_t3_i2h", 
      "attrs": {"num_hidden": "800"}, 
      "inputs": [[3, 3, 0], [4, 0, 0], [5, 0, 0]]
    }, 
    {
      "op": "FullyConnected", 
      "name": "lstm_l0_t3_h2h", 
      "attrs": {"num_hidden": "800"}, 
      "inputs": [[82, 0, 0], [8, 0, 0], [9, 0, 0]]
    }, 
    {
      "op": "elemwise_add", 
      "name": "_plus123", 
      "inputs": [[97, 0, 0], [98, 0, 0]]
    }, 
    {
      "op": "SliceChannel", 
      "name": "lstm_l0_t3_slice", 
      "attrs": {"num_outputs": "4"}, 
      "inputs": [[99, 0, 0]]
    }, 
    {
      "op": "Activation", 
      "name": "lstm_l0_t3_o", 
      "attrs": {"act_type": "sigmoid"}, 
      "inputs": [[100, 3, 0]]
    }, 
    {
      "op": "Activation", 
      "name": "lstm_l0_t3_f", 
      "attrs": {"act_type": "sigmoid"}, 
      "inputs": [[100, 1, 0]]
    }, 
    {
      "op": "elemwise_mul", 
      "name": "_mul246", 
      "inputs": [[102, 0, 0], [80, 0, 0]]
    }, 
    {
      "op": "Activation", 
      "name": "lstm_l0_t3_i", 
      "attrs": {"act_type": "sigmoid"}, 
      "inputs": [[100, 0, 0]]
    }, 
    {
      "op": "Activation", 
      "name": "lstm_l0_t3_c", 
      "attrs": {"act_type": "tanh"}, 
      "inputs": [[100, 2, 0]]
    }, 
    {
      "op": "elemwise_mul", 
      "name": "_mul247", 
      "inputs": [[104, 0, 0], [105, 0, 0]]
    }, 
    {
      "op": "elemwise_add", 
      "name": "lstm_l0_t3_state", 
      "inputs": [[103, 0, 0], [106, 0, 0]]
    }, 
    {
      "op": "Activation", 
      "name": "activation123", 
      "attrs": {"act_type": "tanh"}, 
      "inputs": [[107, 0, 0]]
    }, 
    {
      "op": "elemwise_mul", 
      "name": "lstm_l0_t3_out", 
      "inputs": [[101, 0, 0], [108, 0, 0]]
    }, 
    {
      "op": "FullyConnected", 
      "name": "lstm_l1_t3_i2h", 
      "attrs": {"num_hidden": "800"}, 
      "inputs": [[109, 0, 0], [23, 0, 0], [24, 0, 0]]
    }, 
    {
      "op": "FullyConnected", 
      "name": "lstm_l1_t3_h2h", 
      "attrs": {"num_hidden": "800"}, 
      "inputs": [[95, 0, 0], [27, 0, 0], [28, 0, 0]]
    }, 
    {
      "op": "elemwise_add", 
      "name": "_plus183", 
      "inputs": [[110, 0, 0], [111, 0, 0]]
    }, 
    {
      "op": "SliceChannel", 
      "name": "lstm_l1_t3_slice", 
      "attrs": {"num_outputs": "4"}, 
      "inputs": [[112, 0, 0]]
    }, 
    {
      "op": "Activation", 
      "name": "lstm_l1_t3_o", 
      "attrs": {"act_type": "sigmoid"}, 
      "inputs": [[113, 3, 0]]
    }, 
    {
      "op": "Activation", 
      "name": "lstm_l1_t3_f", 
      "attrs": {"act_type": "sigmoid"}, 
      "inputs": [[113, 1, 0]]
    }, 
    {
      "op": "elemwise_mul", 
      "name": "_mul366", 
      "inputs": [[115, 0, 0], [93, 0, 0]]
    }, 
    {
      "op": "Activation", 
      "name": "lstm_l1_t3_i", 
      "attrs": {"act_type": "sigmoid"}, 
      "inputs": [[113, 0, 0]]
    }, 
    {
      "op": "Activation", 
      "name": "lstm_l1_t3_c", 
      "attrs": {"act_type": "tanh"}, 
      "inputs": [[113, 2, 0]]
    }, 
    {
      "op": "elemwise_mul", 
      "name": "_mul367", 
      "inputs": [[117, 0, 0], [118, 0, 0]]
    }, 
    {
      "op": "elemwise_add", 
      "name": "lstm_l1_t3_state", 
      "inputs": [[116, 0, 0], [119, 0, 0]]
    }, 
    {
      "op": "Activation", 
      "name": "activation183", 
      "attrs": {"act_type": "tanh"}, 
      "inputs": [[120, 0, 0]]
    }, 
    {
      "op": "elemwise_mul", 
      "name": "lstm_l1_t3_out", 
      "inputs": [[114, 0, 0], [121, 0, 0]]
    }, 
    {
      "op": "expand_dims", 
      "name": "expand_dims63", 
      "attrs": {"axis": "1"}, 
      "inputs": [[122, 0, 0]]
    }, 
    {
      "op": "FullyConnected", 
      "name": "lstm_l0_t4_i2h", 
      "attrs": {"num_hidden": "800"}, 
      "inputs": [[3, 4, 0], [4, 0, 0], [5, 0, 0]]
    }, 
    {
      "op": "FullyConnected", 
      "name": "lstm_l0_t4_h2h", 
      "attrs": {"num_hidden": "800"}, 
      "inputs": [[109, 0, 0], [8, 0, 0], [9, 0, 0]]
    }, 
    {
      "op": "elemwise_add", 
      "name": "_plus124", 
      "inputs": [[124, 0, 0], [125, 0, 0]]
    }, 
    {
      "op": "SliceChannel", 
      "name": "lstm_l0_t4_slice", 
      "attrs": {"num_outputs": "4"}, 
      "inputs": [[126, 0, 0]]
    }, 
    {
      "op": "Activation", 
      "name": "lstm_l0_t4_o", 
      "attrs": {"act_type": "sigmoid"}, 
      "inputs": [[127, 3, 0]]
    }, 
    {
      "op": "Activation", 
      "name": "lstm_l0_t4_f", 
      "attrs": {"act_type": "sigmoid"}, 
      "inputs": [[127, 1, 0]]
    }, 
    {
      "op": "elemwise_mul", 
      "name": "_mul248", 
      "inputs": [[129, 0, 0], [107, 0, 0]]
    }, 
    {
      "op": "Activation", 
      "name": "lstm_l0_t4_i", 
      "attrs": {"act_type": "sigmoid"}, 
      "inputs": [[127, 0, 0]]
    }, 
    {
      "op": "Activation", 
      "name": "lstm_l0_t4_c", 
      "attrs": {"act_type": "tanh"}, 
      "inputs": [[127, 2, 0]]
    }, 
    {
      "op": "elemwise_mul", 
      "name": "_mul249", 
      "inputs": [[131, 0, 0], [132, 0, 0]]
    }, 
    {
      "op": "elemwise_add", 
      "name": "lstm_l0_t4_state", 
      "inputs": [[130, 0, 0], [133, 0, 0]]
    }, 
    {
      "op": "Activation", 
      "name": "activation124", 
      "attrs": {"act_type": "tanh"}, 
      "inputs": [[134, 0, 0]]
    }, 
    {
      "op": "elemwise_mul", 
      "name": "lstm_l0_t4_out", 
      "inputs": [[128, 0, 0], [135, 0, 0]]
    }, 
    {
      "op": "FullyConnected", 
      "name": "lstm_l1_t4_i2h", 
      "attrs": {"num_hidden": "800"}, 
      "inputs": [[136, 0, 0], [23, 0, 0], [24, 0, 0]]
    }, 
    {
      "op": "FullyConnected", 
      "name": "lstm_l1_t4_h2h", 
      "attrs": {"num_hidden": "800"}, 
      "inputs": [[122, 0, 0], [27, 0, 0], [28, 0, 0]]
    }, 
    {
      "op": "elemwise_add", 
      "name": "_plus184", 
      "inputs": [[137, 0, 0], [138, 0, 0]]
    }, 
    {
      "op": "SliceChannel", 
      "name": "lstm_l1_t4_slice", 
      "attrs": {"num_outputs": "4"}, 
      "inputs": [[139, 0, 0]]
    }, 
    {
      "op": "Activation", 
      "name": "lstm_l1_t4_o", 
      "attrs": {"act_type": "sigmoid"}, 
      "inputs": [[140, 3, 0]]
    }, 
    {
      "op": "Activation", 
      "name": "lstm_l1_t4_f", 
      "attrs": {"act_type": "sigmoid"}, 
      "inputs": [[140, 1, 0]]
    }, 
    {
      "op": "elemwise_mul", 
      "name": "_mul368", 
      "inputs": [[142, 0, 0], [120, 0, 0]]
    }, 
    {
      "op": "Activation", 
      "name": "lstm_l1_t4_i", 
      "attrs": {"act_type": "sigmoid"}, 
      "inputs": [[140, 0, 0]]
    }, 
    {
      "op": "Activation", 
      "name": "lstm_l1_t4_c", 
      "attrs": {"act_type": "tanh"}, 
      "inputs": [[140, 2, 0]]
    }, 
    {
      "op": "elemwise_mul", 
      "name": "_mul369", 
      "inputs": [[144, 0, 0], [145, 0, 0]]
    }, 
    {
      "op": "elemwise_add", 
      "name": "lstm_l1_t4_state", 
      "inputs": [[143, 0, 0], [146, 0, 0]]
    }, 
    {
      "op": "Activation", 
      "name": "activation184", 
      "attrs": {"act_type": "tanh"}, 
      "inputs": [[147, 0, 0]]
    }, 
    {
      "op": "elemwise_mul", 
      "name": "lstm_l1_t4_out", 
      "inputs": [[141, 0, 0], [148, 0, 0]]
    }, 
    {
      "op": "expand_dims", 
      "name": "expand_dims64", 
      "attrs": {"axis": "1"}, 
      "inputs": [[149, 0, 0]]
    }, 
    {
      "op": "FullyConnected", 
      "name": "lstm_l0_t5_i2h", 
      "attrs": {"num_hidden": "800"}, 
      "inputs": [[3, 5, 0], [4, 0, 0], [5, 0, 0]]
    }, 
    {
      "op": "FullyConnected", 
      "name": "lstm_l0_t5_h2h", 
      "attrs": {"num_hidden": "800"}, 
      "inputs": [[136, 0, 0], [8, 0, 0], [9, 0, 0]]
    }, 
    {
      "op": "elemwise_add", 
      "name": "_plus125", 
      "inputs": [[151, 0, 0], [152, 0, 0]]
    }, 
    {
      "op": "SliceChannel", 
      "name": "lstm_l0_t5_slice", 
      "attrs": {"num_outputs": "4"}, 
      "inputs": [[153, 0, 0]]
    }, 
    {
      "op": "Activation", 
      "name": "lstm_l0_t5_o", 
      "attrs": {"act_type": "sigmoid"}, 
      "inputs": [[154, 3, 0]]
    }, 
    {
      "op": "Activation", 
      "name": "lstm_l0_t5_f", 
      "attrs": {"act_type": "sigmoid"}, 
      "inputs": [[154, 1, 0]]
    }, 
    {
      "op": "elemwise_mul", 
      "name": "_mul250", 
      "inputs": [[156, 0, 0], [134, 0, 0]]
    }, 
    {
      "op": "Activation", 
      "name": "lstm_l0_t5_i", 
      "attrs": {"act_type": "sigmoid"}, 
      "inputs": [[154, 0, 0]]
    }, 
    {
      "op": "Activation", 
      "name": "lstm_l0_t5_c", 
      "attrs": {"act_type": "tanh"}, 
      "inputs": [[154, 2, 0]]
    }, 
    {
      "op": "elemwise_mul", 
      "name": "_mul251", 
      "inputs": [[158, 0, 0], [159, 0, 0]]
    }, 
    {
      "op": "elemwise_add", 
      "name": "lstm_l0_t5_state", 
      "inputs": [[157, 0, 0], [160, 0, 0]]
    }, 
    {
      "op": "Activation", 
      "name": "activation125", 
      "attrs": {"act_type": "tanh"}, 
      "inputs": [[161, 0, 0]]
    }, 
    {
      "op": "elemwise_mul", 
      "name": "lstm_l0_t5_out", 
      "inputs": [[155, 0, 0], [162, 0, 0]]
    }, 
    {
      "op": "FullyConnected", 
      "name": "lstm_l1_t5_i2h", 
      "attrs": {"num_hidden": "800"}, 
      "inputs": [[163, 0, 0], [23, 0, 0], [24, 0, 0]]
    }, 
    {
      "op": "FullyConnected", 
      "name": "lstm_l1_t5_h2h", 
      "attrs": {"num_hidden": "800"}, 
      "inputs": [[149, 0, 0], [27, 0, 0], [28, 0, 0]]
    }, 
    {
      "op": "elemwise_add", 
      "name": "_plus185", 
      "inputs": [[164, 0, 0], [165, 0, 0]]
    }, 
    {
      "op": "SliceChannel", 
      "name": "lstm_l1_t5_slice", 
      "attrs": {"num_outputs": "4"}, 
      "inputs": [[166, 0, 0]]
    }, 
    {
      "op": "Activation", 
      "name": "lstm_l1_t5_o", 
      "attrs": {"act_type": "sigmoid"}, 
      "inputs": [[167, 3, 0]]
    }, 
    {
      "op": "Activation", 
      "name": "lstm_l1_t5_f", 
      "attrs": {"act_type": "sigmoid"}, 
      "inputs": [[167, 1, 0]]
    }, 
    {
      "op": "elemwise_mul", 
      "name": "_mul370", 
      "inputs": [[169, 0, 0], [147, 0, 0]]
    }, 
    {
      "op": "Activation", 
      "name": "lstm_l1_t5_i", 
      "attrs": {"act_type": "sigmoid"}, 
      "inputs": [[167, 0, 0]]
    }, 
    {
      "op": "Activation", 
      "name": "lstm_l1_t5_c", 
      "attrs": {"act_type": "tanh"}, 
      "inputs": [[167, 2, 0]]
    }, 
    {
      "op": "elemwise_mul", 
      "name": "_mul371", 
      "inputs": [[171, 0, 0], [172, 0, 0]]
    }, 
    {
      "op": "elemwise_add", 
      "name": "lstm_l1_t5_state", 
      "inputs": [[170, 0, 0], [173, 0, 0]]
    }, 
    {
      "op": "Activation", 
      "name": "activation185", 
      "attrs": {"act_type": "tanh"}, 
      "inputs": [[174, 0, 0]]
    }, 
    {
      "op": "elemwise_mul", 
      "name": "lstm_l1_t5_out", 
      "inputs": [[168, 0, 0], [175, 0, 0]]
    }, 
    {
      "op": "expand_dims", 
      "name": "expand_dims65", 
      "attrs": {"axis": "1"}, 
      "inputs": [[176, 0, 0]]
    }, 
    {
      "op": "FullyConnected", 
      "name": "lstm_l0_t6_i2h", 
      "attrs": {"num_hidden": "800"}, 
      "inputs": [[3, 6, 0], [4, 0, 0], [5, 0, 0]]
    }, 
    {
      "op": "FullyConnected", 
      "name": "lstm_l0_t6_h2h", 
      "attrs": {"num_hidden": "800"}, 
      "inputs": [[163, 0, 0], [8, 0, 0], [9, 0, 0]]
    }, 
    {
      "op": "elemwise_add", 
      "name": "_plus126", 
      "inputs": [[178, 0, 0], [179, 0, 0]]
    }, 
    {
      "op": "SliceChannel", 
      "name": "lstm_l0_t6_slice", 
      "attrs": {"num_outputs": "4"}, 
      "inputs": [[180, 0, 0]]
    }, 
    {
      "op": "Activation", 
      "name": "lstm_l0_t6_o", 
      "attrs": {"act_type": "sigmoid"}, 
      "inputs": [[181, 3, 0]]
    }, 
    {
      "op": "Activation", 
      "name": "lstm_l0_t6_f", 
      "attrs": {"act_type": "sigmoid"}, 
      "inputs": [[181, 1, 0]]
    }, 
    {
      "op": "elemwise_mul", 
      "name": "_mul252", 
      "inputs": [[183, 0, 0], [161, 0, 0]]
    }, 
    {
      "op": "Activation", 
      "name": "lstm_l0_t6_i", 
      "attrs": {"act_type": "sigmoid"}, 
      "inputs": [[181, 0, 0]]
    }, 
    {
      "op": "Activation", 
      "name": "lstm_l0_t6_c", 
      "attrs": {"act_type": "tanh"}, 
      "inputs": [[181, 2, 0]]
    }, 
    {
      "op": "elemwise_mul", 
      "name": "_mul253", 
      "inputs": [[185, 0, 0], [186, 0, 0]]
    }, 
    {
      "op": "elemwise_add", 
      "name": "lstm_l0_t6_state", 
      "inputs": [[184, 0, 0], [187, 0, 0]]
    }, 
    {
      "op": "Activation", 
      "name": "activation126", 
      "attrs": {"act_type": "tanh"}, 
      "inputs": [[188, 0, 0]]
    }, 
    {
      "op": "elemwise_mul", 
      "name": "lstm_l0_t6_out", 
      "inputs": [[182, 0, 0], [189, 0, 0]]
    }, 
    {
      "op": "FullyConnected", 
      "name": "lstm_l1_t6_i2h", 
      "attrs": {"num_hidden": "800"}, 
      "inputs": [[190, 0, 0], [23, 0, 0], [24, 0, 0]]
    }, 
    {
      "op": "FullyConnected", 
      "name": "lstm_l1_t6_h2h", 
      "attrs": {"num_hidden": "800"}, 
      "inputs": [[176, 0, 0], [27, 0, 0], [28, 0, 0]]
    }, 
    {
      "op": "elemwise_add", 
      "name": "_plus186", 
      "inputs": [[191, 0, 0], [192, 0, 0]]
    }, 
    {
      "op": "SliceChannel", 
      "name": "lstm_l1_t6_slice", 
      "attrs": {"num_outputs": "4"}, 
      "inputs": [[193, 0, 0]]
    }, 
    {
      "op": "Activation", 
      "name": "lstm_l1_t6_o", 
      "attrs": {"act_type": "sigmoid"}, 
      "inputs": [[194, 3, 0]]
    }, 
    {
      "op": "Activation", 
      "name": "lstm_l1_t6_f", 
      "attrs": {"act_type": "sigmoid"}, 
      "inputs": [[194, 1, 0]]
    }, 
    {
      "op": "elemwise_mul", 
      "name": "_mul372", 
      "inputs": [[196, 0, 0], [174, 0, 0]]
    }, 
    {
      "op": "Activation", 
      "name": "lstm_l1_t6_i", 
      "attrs": {"act_type": "sigmoid"}, 
      "inputs": [[194, 0, 0]]
    }, 
    {
      "op": "Activation", 
      "name": "lstm_l1_t6_c", 
      "attrs": {"act_type": "tanh"}, 
      "inputs": [[194, 2, 0]]
    }, 
    {
      "op": "elemwise_mul", 
      "name": "_mul373", 
      "inputs": [[198, 0, 0], [199, 0, 0]]
    }, 
    {
      "op": "elemwise_add", 
      "name": "lstm_l1_t6_state", 
      "inputs": [[197, 0, 0], [200, 0, 0]]
    }, 
    {
      "op": "Activation", 
      "name": "activation186", 
      "attrs": {"act_type": "tanh"}, 
      "inputs": [[201, 0, 0]]
    }, 
    {
      "op": "elemwise_mul", 
      "name": "lstm_l1_t6_out", 
      "inputs": [[195, 0, 0], [202, 0, 0]]
    }, 
    {
      "op": "expand_dims", 
      "name": "expand_dims66", 
      "attrs": {"axis": "1"}, 
      "inputs": [[203, 0, 0]]
    }, 
    {
      "op": "FullyConnected", 
      "name": "lstm_l0_t7_i2h", 
      "attrs": {"num_hidden": "800"}, 
      "inputs": [[3, 7, 0], [4, 0, 0], [5, 0, 0]]
    }, 
    {
      "op": "FullyConnected", 
      "name": "lstm_l0_t7_h2h", 
      "attrs": {"num_hidden": "800"}, 
      "inputs": [[190, 0, 0], [8, 0, 0], [9, 0, 0]]
    }, 
    {
      "op": "elemwise_add", 
      "name": "_plus127", 
      "inputs": [[205, 0, 0], [206, 0, 0]]
    }, 
    {
      "op": "SliceChannel", 
      "name": "lstm_l0_t7_slice", 
      "attrs": {"num_outputs": "4"}, 
      "inputs": [[207, 0, 0]]
    }, 
    {
      "op": "Activation", 
      "name": "lstm_l0_t7_o", 
      "attrs": {"act_type": "sigmoid"}, 
      "inputs": [[208, 3, 0]]
    }, 
    {
      "op": "Activation", 
      "name": "lstm_l0_t7_f", 
      "attrs": {"act_type": "sigmoid"}, 
      "inputs": [[208, 1, 0]]
    }, 
    {
      "op": "elemwise_mul", 
      "name": "_mul254", 
      "inputs": [[210, 0, 0], [188, 0, 0]]
    }, 
    {
      "op": "Activation", 
      "name": "lstm_l0_t7_i", 
      "attrs": {"act_type": "sigmoid"}, 
      "inputs": [[208, 0, 0]]
    }, 
    {
      "op": "Activation", 
      "name": "lstm_l0_t7_c", 
      "attrs": {"act_type": "tanh"}, 
      "inputs": [[208, 2, 0]]
    }, 
    {
      "op": "elemwise_mul", 
      "name": "_mul255", 
      "inputs": [[212, 0, 0], [213, 0, 0]]
    }, 
    {
      "op": "elemwise_add", 
      "name": "lstm_l0_t7_state", 
      "inputs": [[211, 0, 0], [214, 0, 0]]
    }, 
    {
      "op": "Activation", 
      "name": "activation127", 
      "attrs": {"act_type": "tanh"}, 
      "inputs": [[215, 0, 0]]
    }, 
    {
      "op": "elemwise_mul", 
      "name": "lstm_l0_t7_out", 
      "inputs": [[209, 0, 0], [216, 0, 0]]
    }, 
    {
      "op": "FullyConnected", 
      "name": "lstm_l1_t7_i2h", 
      "attrs": {"num_hidden": "800"}, 
      "inputs": [[217, 0, 0], [23, 0, 0], [24, 0, 0]]
    }, 
    {
      "op": "FullyConnected", 
      "name": "lstm_l1_t7_h2h", 
      "attrs": {"num_hidden": "800"}, 
      "inputs": [[203, 0, 0], [27, 0, 0], [28, 0, 0]]
    }, 
    {
      "op": "elemwise_add", 
      "name": "_plus187", 
      "inputs": [[218, 0, 0], [219, 0, 0]]
    }, 
    {
      "op": "SliceChannel", 
      "name": "lstm_l1_t7_slice", 
      "attrs": {"num_outputs": "4"}, 
      "inputs": [[220, 0, 0]]
    }, 
    {
      "op": "Activation", 
      "name": "lstm_l1_t7_o", 
      "attrs": {"act_type": "sigmoid"}, 
      "inputs": [[221, 3, 0]]
    }, 
    {
      "op": "Activation", 
      "name": "lstm_l1_t7_f", 
      "attrs": {"act_type": "sigmoid"}, 
      "inputs": [[221, 1, 0]]
    }, 
    {
      "op": "elemwise_mul", 
      "name": "_mul374", 
      "inputs": [[223, 0, 0], [201, 0, 0]]
    }, 
    {
      "op": "Activation", 
      "name": "lstm_l1_t7_i", 
      "attrs": {"act_type": "sigmoid"}, 
      "inputs": [[221, 0, 0]]
    }, 
    {
      "op": "Activation", 
      "name": "lstm_l1_t7_c", 
      "attrs": {"act_type": "tanh"}, 
      "inputs": [[221, 2, 0]]
    }, 
    {
      "op": "elemwise_mul", 
      "name": "_mul375", 
      "inputs": [[225, 0, 0], [226, 0, 0]]
    }, 
    {
      "op": "elemwise_add", 
      "name": "lstm_l1_t7_state", 
      "inputs": [[224, 0, 0], [227, 0, 0]]
    }, 
    {
      "op": "Activation", 
      "name": "activation187", 
      "attrs": {"act_type": "tanh"}, 
      "inputs": [[228, 0, 0]]
    }, 
    {
      "op": "elemwise_mul", 
      "name": "lstm_l1_t7_out", 
      "inputs": [[222, 0, 0], [229, 0, 0]]
    }, 
    {
      "op": "expand_dims", 
      "name": "expand_dims67", 
      "attrs": {"axis": "1"}, 
      "inputs": [[230, 0, 0]]
    }, 
    {
      "op": "FullyConnected", 
      "name": "lstm_l0_t8_i2h", 
      "attrs": {"num_hidden": "800"}, 
      "inputs": [[3, 8, 0], [4, 0, 0], [5, 0, 0]]
    }, 
    {
      "op": "FullyConnected", 
      "name": "lstm_l0_t8_h2h", 
      "attrs": {"num_hidden": "800"}, 
      "inputs": [[217, 0, 0], [8, 0, 0], [9, 0, 0]]
    }, 
    {
      "op": "elemwise_add", 
      "name": "_plus128", 
      "inputs": [[232, 0, 0], [233, 0, 0]]
    }, 
    {
      "op": "SliceChannel", 
      "name": "lstm_l0_t8_slice", 
      "attrs": {"num_outputs": "4"}, 
      "inputs": [[234, 0, 0]]
    }, 
    {
      "op": "Activation", 
      "name": "lstm_l0_t8_o", 
      "attrs": {"act_type": "sigmoid"}, 
      "inputs": [[235, 3, 0]]
    }, 
    {
      "op": "Activation", 
      "name": "lstm_l0_t8_f", 
      "attrs": {"act_type": "sigmoid"}, 
      "inputs": [[235, 1, 0]]
    }, 
    {
      "op": "elemwise_mul", 
      "name": "_mul256", 
      "inputs": [[237, 0, 0], [215, 0, 0]]
    }, 
    {
      "op": "Activation", 
      "name": "lstm_l0_t8_i", 
      "attrs": {"act_type": "sigmoid"}, 
      "inputs": [[235, 0, 0]]
    }, 
    {
      "op": "Activation", 
      "name": "lstm_l0_t8_c", 
      "attrs": {"act_type": "tanh"}, 
      "inputs": [[235, 2, 0]]
    }, 
    {
      "op": "elemwise_mul", 
      "name": "_mul257", 
      "inputs": [[239, 0, 0], [240, 0, 0]]
    }, 
    {
      "op": "elemwise_add", 
      "name": "lstm_l0_t8_state", 
      "inputs": [[238, 0, 0], [241, 0, 0]]
    }, 
    {
      "op": "Activation", 
      "name": "activation128", 
      "attrs": {"act_type": "tanh"}, 
      "inputs": [[242, 0, 0]]
    }, 
    {
      "op": "elemwise_mul", 
      "name": "lstm_l0_t8_out", 
      "inputs": [[236, 0, 0], [243, 0, 0]]
    }, 
    {
      "op": "FullyConnected", 
      "name": "lstm_l1_t8_i2h", 
      "attrs": {"num_hidden": "800"}, 
      "inputs": [[244, 0, 0], [23, 0, 0], [24, 0, 0]]
    }, 
    {
      "op": "FullyConnected", 
      "name": "lstm_l1_t8_h2h", 
      "attrs": {"num_hidden": "800"}, 
      "inputs": [[230, 0, 0], [27, 0, 0], [28, 0, 0]]
    }, 
    {
      "op": "elemwise_add", 
      "name": "_plus188", 
      "inputs": [[245, 0, 0], [246, 0, 0]]
    }, 
    {
      "op": "SliceChannel", 
      "name": "lstm_l1_t8_slice", 
      "attrs": {"num_outputs": "4"}, 
      "inputs": [[247, 0, 0]]
    }, 
    {
      "op": "Activation", 
      "name": "lstm_l1_t8_o", 
      "attrs": {"act_type": "sigmoid"}, 
      "inputs": [[248, 3, 0]]
    }, 
    {
      "op": "Activation", 
      "name": "lstm_l1_t8_f", 
      "attrs": {"act_type": "sigmoid"}, 
      "inputs": [[248, 1, 0]]
    }, 
    {
      "op": "elemwise_mul", 
      "name": "_mul376", 
      "inputs": [[250, 0, 0], [228, 0, 0]]
    }, 
    {
      "op": "Activation", 
      "name": "lstm_l1_t8_i", 
      "attrs": {"act_type": "sigmoid"}, 
      "inputs": [[248, 0, 0]]
    }, 
    {
      "op": "Activation", 
      "name": "lstm_l1_t8_c", 
      "attrs": {"act_type": "tanh"}, 
      "inputs": [[248, 2, 0]]
    }, 
    {
      "op": "elemwise_mul", 
      "name": "_mul377", 
      "inputs": [[252, 0, 0], [253, 0, 0]]
    }, 
    {
      "op": "elemwise_add", 
      "name": "lstm_l1_t8_state", 
      "inputs": [[251, 0, 0], [254, 0, 0]]
    }, 
    {
      "op": "Activation", 
      "name": "activation188", 
      "attrs": {"act_type": "tanh"}, 
      "inputs": [[255, 0, 0]]
    }, 
    {
      "op": "elemwise_mul", 
      "name": "lstm_l1_t8_out", 
      "inputs": [[249, 0, 0], [256, 0, 0]]
    }, 
    {
      "op": "expand_dims", 
      "name": "expand_dims68", 
      "attrs": {"axis": "1"}, 
      "inputs": [[257, 0, 0]]
    }, 
    {
      "op": "FullyConnected", 
      "name": "lstm_l0_t9_i2h", 
      "attrs": {"num_hidden": "800"}, 
      "inputs": [[3, 9, 0], [4, 0, 0], [5, 0, 0]]
    }, 
    {
      "op": "FullyConnected", 
      "name": "lstm_l0_t9_h2h", 
      "attrs": {"num_hidden": "800"}, 
      "inputs": [[244, 0, 0], [8, 0, 0], [9, 0, 0]]
    }, 
    {
      "op": "elemwise_add", 
      "name": "_plus129", 
      "inputs": [[259, 0, 0], [260, 0, 0]]
    }, 
    {
      "op": "SliceChannel", 
      "name": "lstm_l0_t9_slice", 
      "attrs": {"num_outputs": "4"}, 
      "inputs": [[261, 0, 0]]
    }, 
    {
      "op": "Activation", 
      "name": "lstm_l0_t9_o", 
      "attrs": {"act_type": "sigmoid"}, 
      "inputs": [[262, 3, 0]]
    }, 
    {
      "op": "Activation", 
      "name": "lstm_l0_t9_f", 
      "attrs": {"act_type": "sigmoid"}, 
      "inputs": [[262, 1, 0]]
    }, 
    {
      "op": "elemwise_mul", 
      "name": "_mul258", 
      "inputs": [[264, 0, 0], [242, 0, 0]]
    }, 
    {
      "op": "Activation", 
      "name": "lstm_l0_t9_i", 
      "attrs": {"act_type": "sigmoid"}, 
      "inputs": [[262, 0, 0]]
    }, 
    {
      "op": "Activation", 
      "name": "lstm_l0_t9_c", 
      "attrs": {"act_type": "tanh"}, 
      "inputs": [[262, 2, 0]]
    }, 
    {
      "op": "elemwise_mul", 
      "name": "_mul259", 
      "inputs": [[266, 0, 0], [267, 0, 0]]
    }, 
    {
      "op": "elemwise_add", 
      "name": "lstm_l0_t9_state", 
      "inputs": [[265, 0, 0], [268, 0, 0]]
    }, 
    {
      "op": "Activation", 
      "name": "activation129", 
      "attrs": {"act_type": "tanh"}, 
      "inputs": [[269, 0, 0]]
    }, 
    {
      "op": "elemwise_mul", 
      "name": "lstm_l0_t9_out", 
      "inputs": [[263, 0, 0], [270, 0, 0]]
    }, 
    {
      "op": "FullyConnected", 
      "name": "lstm_l1_t9_i2h", 
      "attrs": {"num_hidden": "800"}, 
      "inputs": [[271, 0, 0], [23, 0, 0], [24, 0, 0]]
    }, 
    {
      "op": "FullyConnected", 
      "name": "lstm_l1_t9_h2h", 
      "attrs": {"num_hidden": "800"}, 
      "inputs": [[257, 0, 0], [27, 0, 0], [28, 0, 0]]
    }, 
    {
      "op": "elemwise_add", 
      "name": "_plus189", 
      "inputs": [[272, 0, 0], [273, 0, 0]]
    }, 
    {
      "op": "SliceChannel", 
      "name": "lstm_l1_t9_slice", 
      "attrs": {"num_outputs": "4"}, 
      "inputs": [[274, 0, 0]]
    }, 
    {
      "op": "Activation", 
      "name": "lstm_l1_t9_o", 
      "attrs": {"act_type": "sigmoid"}, 
      "inputs": [[275, 3, 0]]
    }, 
    {
      "op": "Activation", 
      "name": "lstm_l1_t9_f", 
      "attrs": {"act_type": "sigmoid"}, 
      "inputs": [[275, 1, 0]]
    }, 
    {
      "op": "elemwise_mul", 
      "name": "_mul378", 
      "inputs": [[277, 0, 0], [255, 0, 0]]
    }, 
    {
      "op": "Activation", 
      "name": "lstm_l1_t9_i", 
      "attrs": {"act_type": "sigmoid"}, 
      "inputs": [[275, 0, 0]]
    }, 
    {
      "op": "Activation", 
      "name": "lstm_l1_t9_c", 
      "attrs": {"act_type": "tanh"}, 
      "inputs": [[275, 2, 0]]
    }, 
    {
      "op": "elemwise_mul", 
      "name": "_mul379", 
      "inputs": [[279, 0, 0], [280, 0, 0]]
    }, 
    {
      "op": "elemwise_add", 
      "name": "lstm_l1_t9_state", 
      "inputs": [[278, 0, 0], [281, 0, 0]]
    }, 
    {
      "op": "Activation", 
      "name": "activation189", 
      "attrs": {"act_type": "tanh"}, 
      "inputs": [[282, 0, 0]]
    }, 
    {
      "op": "elemwise_mul", 
      "name": "lstm_l1_t9_out", 
      "inputs": [[276, 0, 0], [283, 0, 0]]
    }, 
    {
      "op": "expand_dims", 
      "name": "expand_dims69", 
      "attrs": {"axis": "1"}, 
      "inputs": [[284, 0, 0]]
    }, 
    {
      "op": "FullyConnected", 
      "name": "lstm_l0_t10_i2h", 
      "attrs": {"num_hidden": "800"}, 
      "inputs": [[3, 10, 0], [4, 0, 0], [5, 0, 0]]
    }, 
    {
      "op": "FullyConnected", 
      "name": "lstm_l0_t10_h2h", 
      "attrs": {"num_hidden": "800"}, 
      "inputs": [[271, 0, 0], [8, 0, 0], [9, 0, 0]]
    }, 
    {
      "op": "elemwise_add", 
      "name": "_plus130", 
      "inputs": [[286, 0, 0], [287, 0, 0]]
    }, 
    {
      "op": "SliceChannel", 
      "name": "lstm_l0_t10_slice", 
      "attrs": {"num_outputs": "4"}, 
      "inputs": [[288, 0, 0]]
    }, 
    {
      "op": "Activation", 
      "name": "lstm_l0_t10_o", 
      "attrs": {"act_type": "sigmoid"}, 
      "inputs": [[289, 3, 0]]
    }, 
    {
      "op": "Activation", 
      "name": "lstm_l0_t10_f", 
      "attrs": {"act_type": "sigmoid"}, 
      "inputs": [[289, 1, 0]]
    }, 
    {
      "op": "elemwise_mul", 
      "name": "_mul260", 
      "inputs": [[291, 0, 0], [269, 0, 0]]
    }, 
    {
      "op": "Activation", 
      "name": "lstm_l0_t10_i", 
      "attrs": {"act_type": "sigmoid"}, 
      "inputs": [[289, 0, 0]]
    }, 
    {
      "op": "Activation", 
      "name": "lstm_l0_t10_c", 
      "attrs": {"act_type": "tanh"}, 
      "inputs": [[289, 2, 0]]
    }, 
    {
      "op": "elemwise_mul", 
      "name": "_mul261", 
      "inputs": [[293, 0, 0], [294, 0, 0]]
    }, 
    {
      "op": "elemwise_add", 
      "name": "lstm_l0_t10_state", 
      "inputs": [[292, 0, 0], [295, 0, 0]]
    }, 
    {
      "op": "Activation", 
      "name": "activation130", 
      "attrs": {"act_type": "tanh"}, 
      "inputs": [[296, 0, 0]]
    }, 
    {
      "op": "elemwise_mul", 
      "name": "lstm_l0_t10_out", 
      "inputs": [[290, 0, 0], [297, 0, 0]]
    }, 
    {
      "op": "FullyConnected", 
      "name": "lstm_l1_t10_i2h", 
      "attrs": {"num_hidden": "800"}, 
      "inputs": [[298, 0, 0], [23, 0, 0], [24, 0, 0]]
    }, 
    {
      "op": "FullyConnected", 
      "name": "lstm_l1_t10_h2h", 
      "attrs": {"num_hidden": "800"}, 
      "inputs": [[284, 0, 0], [27, 0, 0], [28, 0, 0]]
    }, 
    {
      "op": "elemwise_add", 
      "name": "_plus190", 
      "inputs": [[299, 0, 0], [300, 0, 0]]
    }, 
    {
      "op": "SliceChannel", 
      "name": "lstm_l1_t10_slice", 
      "attrs": {"num_outputs": "4"}, 
      "inputs": [[301, 0, 0]]
    }, 
    {
      "op": "Activation", 
      "name": "lstm_l1_t10_o", 
      "attrs": {"act_type": "sigmoid"}, 
      "inputs": [[302, 3, 0]]
    }, 
    {
      "op": "Activation", 
      "name": "lstm_l1_t10_f", 
      "attrs": {"act_type": "sigmoid"}, 
      "inputs": [[302, 1, 0]]
    }, 
    {
      "op": "elemwise_mul", 
      "name": "_mul380", 
      "inputs": [[304, 0, 0], [282, 0, 0]]
    }, 
    {
      "op": "Activation", 
      "name": "lstm_l1_t10_i", 
      "attrs": {"act_type": "sigmoid"}, 
      "inputs": [[302, 0, 0]]
    }, 
    {
      "op": "Activation", 
      "name": "lstm_l1_t10_c", 
      "attrs": {"act_type": "tanh"}, 
      "inputs": [[302, 2, 0]]
    }, 
    {
      "op": "elemwise_mul", 
      "name": "_mul381", 
      "inputs": [[306, 0, 0], [307, 0, 0]]
    }, 
    {
      "op": "elemwise_add", 
      "name": "lstm_l1_t10_state", 
      "inputs": [[305, 0, 0], [308, 0, 0]]
    }, 
    {
      "op": "Activation", 
      "name": "activation190", 
      "attrs": {"act_type": "tanh"}, 
      "inputs": [[309, 0, 0]]
    }, 
    {
      "op": "elemwise_mul", 
      "name": "lstm_l1_t10_out", 
      "inputs": [[303, 0, 0], [310, 0, 0]]
    }, 
    {
      "op": "expand_dims", 
      "name": "expand_dims70", 
      "attrs": {"axis": "1"}, 
      "inputs": [[311, 0, 0]]
    }, 
    {
      "op": "FullyConnected", 
      "name": "lstm_l0_t11_i2h", 
      "attrs": {"num_hidden": "800"}, 
      "inputs": [[3, 11, 0], [4, 0, 0], [5, 0, 0]]
    }, 
    {
      "op": "FullyConnected", 
      "name": "lstm_l0_t11_h2h", 
      "attrs": {"num_hidden": "800"}, 
      "inputs": [[298, 0, 0], [8, 0, 0], [9, 0, 0]]
    }, 
    {
      "op": "elemwise_add", 
      "name": "_plus131", 
      "inputs": [[313, 0, 0], [314, 0, 0]]
    }, 
    {
      "op": "SliceChannel", 
      "name": "lstm_l0_t11_slice", 
      "attrs": {"num_outputs": "4"}, 
      "inputs": [[315, 0, 0]]
    }, 
    {
      "op": "Activation", 
      "name": "lstm_l0_t11_o", 
      "attrs": {"act_type": "sigmoid"}, 
      "inputs": [[316, 3, 0]]
    }, 
    {
      "op": "Activation", 
      "name": "lstm_l0_t11_f", 
      "attrs": {"act_type": "sigmoid"}, 
      "inputs": [[316, 1, 0]]
    }, 
    {
      "op": "elemwise_mul", 
      "name": "_mul262", 
      "inputs": [[318, 0, 0], [296, 0, 0]]
    }, 
    {
      "op": "Activation", 
      "name": "lstm_l0_t11_i", 
      "attrs": {"act_type": "sigmoid"}, 
      "inputs": [[316, 0, 0]]
    }, 
    {
      "op": "Activation", 
      "name": "lstm_l0_t11_c", 
      "attrs": {"act_type": "tanh"}, 
      "inputs": [[316, 2, 0]]
    }, 
    {
      "op": "elemwise_mul", 
      "name": "_mul263", 
      "inputs": [[320, 0, 0], [321, 0, 0]]
    }, 
    {
      "op": "elemwise_add", 
      "name": "lstm_l0_t11_state", 
      "inputs": [[319, 0, 0], [322, 0, 0]]
    }, 
    {
      "op": "Activation", 
      "name": "activation131", 
      "attrs": {"act_type": "tanh"}, 
      "inputs": [[323, 0, 0]]
    }, 
    {
      "op": "elemwise_mul", 
      "name": "lstm_l0_t11_out", 
      "inputs": [[317, 0, 0], [324, 0, 0]]
    }, 
    {
      "op": "FullyConnected", 
      "name": "lstm_l1_t11_i2h", 
      "attrs": {"num_hidden": "800"}, 
      "inputs": [[325, 0, 0], [23, 0, 0], [24, 0, 0]]
    }, 
    {
      "op": "FullyConnected", 
      "name": "lstm_l1_t11_h2h", 
      "attrs": {"num_hidden": "800"}, 
      "inputs": [[311, 0, 0], [27, 0, 0], [28, 0, 0]]
    }, 
    {
      "op": "elemwise_add", 
      "name": "_plus191", 
      "inputs": [[326, 0, 0], [327, 0, 0]]
    }, 
    {
      "op": "SliceChannel", 
      "name": "lstm_l1_t11_slice", 
      "attrs": {"num_outputs": "4"}, 
      "inputs": [[328, 0, 0]]
    }, 
    {
      "op": "Activation", 
      "name": "lstm_l1_t11_o", 
      "attrs": {"act_type": "sigmoid"}, 
      "inputs": [[329, 3, 0]]
    }, 
    {
      "op": "Activation", 
      "name": "lstm_l1_t11_f", 
      "attrs": {"act_type": "sigmoid"}, 
      "inputs": [[329, 1, 0]]
    }, 
    {
      "op": "elemwise_mul", 
      "name": "_mul382", 
      "inputs": [[331, 0, 0], [309, 0, 0]]
    }, 
    {
      "op": "Activation", 
      "name": "lstm_l1_t11_i", 
      "attrs": {"act_type": "sigmoid"}, 
      "inputs": [[329, 0, 0]]
    }, 
    {
      "op": "Activation", 
      "name": "lstm_l1_t11_c", 
      "attrs": {"act_type": "tanh"}, 
      "inputs": [[329, 2, 0]]
    }, 
    {
      "op": "elemwise_mul", 
      "name": "_mul383", 
      "inputs": [[333, 0, 0], [334, 0, 0]]
    }, 
    {
      "op": "elemwise_add", 
      "name": "lstm_l1_t11_state", 
      "inputs": [[332, 0, 0], [335, 0, 0]]
    }, 
    {
      "op": "Activation", 
      "name": "activation191", 
      "attrs": {"act_type": "tanh"}, 
      "inputs": [[336, 0, 0]]
    }, 
    {
      "op": "elemwise_mul", 
      "name": "lstm_l1_t11_out", 
      "inputs": [[330, 0, 0], [337, 0, 0]]
    }, 
    {
      "op": "expand_dims", 
      "name": "expand_dims71", 
      "attrs": {"axis": "1"}, 
      "inputs": [[338, 0, 0]]
    }, 
    {
      "op": "FullyConnected", 
      "name": "lstm_l0_t12_i2h", 
      "attrs": {"num_hidden": "800"}, 
      "inputs": [[3, 12, 0], [4, 0, 0], [5, 0, 0]]
    }, 
    {
      "op": "FullyConnected", 
      "name": "lstm_l0_t12_h2h", 
      "attrs": {"num_hidden": "800"}, 
      "inputs": [[325, 0, 0], [8, 0, 0], [9, 0, 0]]
    }, 
    {
      "op": "elemwise_add", 
      "name": "_plus132", 
      "inputs": [[340, 0, 0], [341, 0, 0]]
    }, 
    {
      "op": "SliceChannel", 
      "name": "lstm_l0_t12_slice", 
      "attrs": {"num_outputs": "4"}, 
      "inputs": [[342, 0, 0]]
    }, 
    {
      "op": "Activation", 
      "name": "lstm_l0_t12_o", 
      "attrs": {"act_type": "sigmoid"}, 
      "inputs": [[343, 3, 0]]
    }, 
    {
      "op": "Activation", 
      "name": "lstm_l0_t12_f", 
      "attrs": {"act_type": "sigmoid"}, 
      "inputs": [[343, 1, 0]]
    }, 
    {
      "op": "elemwise_mul", 
      "name": "_mul264", 
      "inputs": [[345, 0, 0], [323, 0, 0]]
    }, 
    {
      "op": "Activation", 
      "name": "lstm_l0_t12_i", 
      "attrs": {"act_type": "sigmoid"}, 
      "inputs": [[343, 0, 0]]
    }, 
    {
      "op": "Activation", 
      "name": "lstm_l0_t12_c", 
      "attrs": {"act_type": "tanh"}, 
      "inputs": [[343, 2, 0]]
    }, 
    {
      "op": "elemwise_mul", 
      "name": "_mul265", 
      "inputs": [[347, 0, 0], [348, 0, 0]]
    }, 
    {
      "op": "elemwise_add", 
      "name": "lstm_l0_t12_state", 
      "inputs": [[346, 0, 0], [349, 0, 0]]
    }, 
    {
      "op": "Activation", 
      "name": "activation132", 
      "attrs": {"act_type": "tanh"}, 
      "inputs": [[350, 0, 0]]
    }, 
    {
      "op": "elemwise_mul", 
      "name": "lstm_l0_t12_out", 
      "inputs": [[344, 0, 0], [351, 0, 0]]
    }, 
    {
      "op": "FullyConnected", 
      "name": "lstm_l1_t12_i2h", 
      "attrs": {"num_hidden": "800"}, 
      "inputs": [[352, 0, 0], [23, 0, 0], [24, 0, 0]]
    }, 
    {
      "op": "FullyConnected", 
      "name": "lstm_l1_t12_h2h", 
      "attrs": {"num_hidden": "800"}, 
      "inputs": [[338, 0, 0], [27, 0, 0], [28, 0, 0]]
    }, 
    {
      "op": "elemwise_add", 
      "name": "_plus192", 
      "inputs": [[353, 0, 0], [354, 0, 0]]
    }, 
    {
      "op": "SliceChannel", 
      "name": "lstm_l1_t12_slice", 
      "attrs": {"num_outputs": "4"}, 
      "inputs": [[355, 0, 0]]
    }, 
    {
      "op": "Activation", 
      "name": "lstm_l1_t12_o", 
      "attrs": {"act_type": "sigmoid"}, 
      "inputs": [[356, 3, 0]]
    }, 
    {
      "op": "Activation", 
      "name": "lstm_l1_t12_f", 
      "attrs": {"act_type": "sigmoid"}, 
      "inputs": [[356, 1, 0]]
    }, 
    {
      "op": "elemwise_mul", 
      "name": "_mul384", 
      "inputs": [[358, 0, 0], [336, 0, 0]]
    }, 
    {
      "op": "Activation", 
      "name": "lstm_l1_t12_i", 
      "attrs": {"act_type": "sigmoid"}, 
      "inputs": [[356, 0, 0]]
    }, 
    {
      "op": "Activation", 
      "name": "lstm_l1_t12_c", 
      "attrs": {"act_type": "tanh"}, 
      "inputs": [[356, 2, 0]]
    }, 
    {
      "op": "elemwise_mul", 
      "name": "_mul385", 
      "inputs": [[360, 0, 0], [361, 0, 0]]
    }, 
    {
      "op": "elemwise_add", 
      "name": "lstm_l1_t12_state", 
      "inputs": [[359, 0, 0], [362, 0, 0]]
    }, 
    {
      "op": "Activation", 
      "name": "activation192", 
      "attrs": {"act_type": "tanh"}, 
      "inputs": [[363, 0, 0]]
    }, 
    {
      "op": "elemwise_mul", 
      "name": "lstm_l1_t12_out", 
      "inputs": [[357, 0, 0], [364, 0, 0]]
    }, 
    {
      "op": "expand_dims", 
      "name": "expand_dims72", 
      "attrs": {"axis": "1"}, 
      "inputs": [[365, 0, 0]]
    }, 
    {
      "op": "FullyConnected", 
      "name": "lstm_l0_t13_i2h", 
      "attrs": {"num_hidden": "800"}, 
      "inputs": [[3, 13, 0], [4, 0, 0], [5, 0, 0]]
    }, 
    {
      "op": "FullyConnected", 
      "name": "lstm_l0_t13_h2h", 
      "attrs": {"num_hidden": "800"}, 
      "inputs": [[352, 0, 0], [8, 0, 0], [9, 0, 0]]
    }, 
    {
      "op": "elemwise_add", 
      "name": "_plus133", 
      "inputs": [[367, 0, 0], [368, 0, 0]]
    }, 
    {
      "op": "SliceChannel", 
      "name": "lstm_l0_t13_slice", 
      "attrs": {"num_outputs": "4"}, 
      "inputs": [[369, 0, 0]]
    }, 
    {
      "op": "Activation", 
      "name": "lstm_l0_t13_o", 
      "attrs": {"act_type": "sigmoid"}, 
      "inputs": [[370, 3, 0]]
    }, 
    {
      "op": "Activation", 
      "name": "lstm_l0_t13_f", 
      "attrs": {"act_type": "sigmoid"}, 
      "inputs": [[370, 1, 0]]
    }, 
    {
      "op": "elemwise_mul", 
      "name": "_mul266", 
      "inputs": [[372, 0, 0], [350, 0, 0]]
    }, 
    {
      "op": "Activation", 
      "name": "lstm_l0_t13_i", 
      "attrs": {"act_type": "sigmoid"}, 
      "inputs": [[370, 0, 0]]
    }, 
    {
      "op": "Activation", 
      "name": "lstm_l0_t13_c", 
      "attrs": {"act_type": "tanh"}, 
      "inputs": [[370, 2, 0]]
    }, 
    {
      "op": "elemwise_mul", 
      "name": "_mul267", 
      "inputs": [[374, 0, 0], [375, 0, 0]]
    }, 
    {
      "op": "elemwise_add", 
      "name": "lstm_l0_t13_state", 
      "inputs": [[373, 0, 0], [376, 0, 0]]
    }, 
    {
      "op": "Activation", 
      "name": "activation133", 
      "attrs": {"act_type": "tanh"}, 
      "inputs": [[377, 0, 0]]
    }, 
    {
      "op": "elemwise_mul", 
      "name": "lstm_l0_t13_out", 
      "inputs": [[371, 0, 0], [378, 0, 0]]
    }, 
    {
      "op": "FullyConnected", 
      "name": "lstm_l1_t13_i2h", 
      "attrs": {"num_hidden": "800"}, 
      "inputs": [[379, 0, 0], [23, 0, 0], [24, 0, 0]]
    }, 
    {
      "op": "FullyConnected", 
      "name": "lstm_l1_t13_h2h", 
      "attrs": {"num_hidden": "800"}, 
      "inputs": [[365, 0, 0], [27, 0, 0], [28, 0, 0]]
    }, 
    {
      "op": "elemwise_add", 
      "name": "_plus193", 
      "inputs": [[380, 0, 0], [381, 0, 0]]
    }, 
    {
      "op": "SliceChannel", 
      "name": "lstm_l1_t13_slice", 
      "attrs": {"num_outputs": "4"}, 
      "inputs": [[382, 0, 0]]
    }, 
    {
      "op": "Activation", 
      "name": "lstm_l1_t13_o", 
      "attrs": {"act_type": "sigmoid"}, 
      "inputs": [[383, 3, 0]]
    }, 
    {
      "op": "Activation", 
      "name": "lstm_l1_t13_f", 
      "attrs": {"act_type": "sigmoid"}, 
      "inputs": [[383, 1, 0]]
    }, 
    {
      "op": "elemwise_mul", 
      "name": "_mul386", 
      "inputs": [[385, 0, 0], [363, 0, 0]]
    }, 
    {
      "op": "Activation", 
      "name": "lstm_l1_t13_i", 
      "attrs": {"act_type": "sigmoid"}, 
      "inputs": [[383, 0, 0]]
    }, 
    {
      "op": "Activation", 
      "name": "lstm_l1_t13_c", 
      "attrs": {"act_type": "tanh"}, 
      "inputs": [[383, 2, 0]]
    }, 
    {
      "op": "elemwise_mul", 
      "name": "_mul387", 
      "inputs": [[387, 0, 0], [388, 0, 0]]
    }, 
    {
      "op": "elemwise_add", 
      "name": "lstm_l1_t13_state", 
      "inputs": [[386, 0, 0], [389, 0, 0]]
    }, 
    {
      "op": "Activation", 
      "name": "activation193", 
      "attrs": {"act_type": "tanh"}, 
      "inputs": [[390, 0, 0]]
    }, 
    {
      "op": "elemwise_mul", 
      "name": "lstm_l1_t13_out", 
      "inputs": [[384, 0, 0], [391, 0, 0]]
    }, 
    {
      "op": "expand_dims", 
      "name": "expand_dims73", 
      "attrs": {"axis": "1"}, 
      "inputs": [[392, 0, 0]]
    }, 
    {
      "op": "FullyConnected", 
      "name": "lstm_l0_t14_i2h", 
      "attrs": {"num_hidden": "800"}, 
      "inputs": [[3, 14, 0], [4, 0, 0], [5, 0, 0]]
    }, 
    {
      "op": "FullyConnected", 
      "name": "lstm_l0_t14_h2h", 
      "attrs": {"num_hidden": "800"}, 
      "inputs": [[379, 0, 0], [8, 0, 0], [9, 0, 0]]
    }, 
    {
      "op": "elemwise_add", 
      "name": "_plus134", 
      "inputs": [[394, 0, 0], [395, 0, 0]]
    }, 
    {
      "op": "SliceChannel", 
      "name": "lstm_l0_t14_slice", 
      "attrs": {"num_outputs": "4"}, 
      "inputs": [[396, 0, 0]]
    }, 
    {
      "op": "Activation", 
      "name": "lstm_l0_t14_o", 
      "attrs": {"act_type": "sigmoid"}, 
      "inputs": [[397, 3, 0]]
    }, 
    {
      "op": "Activation", 
      "name": "lstm_l0_t14_f", 
      "attrs": {"act_type": "sigmoid"}, 
      "inputs": [[397, 1, 0]]
    }, 
    {
      "op": "elemwise_mul", 
      "name": "_mul268", 
      "inputs": [[399, 0, 0], [377, 0, 0]]
    }, 
    {
      "op": "Activation", 
      "name": "lstm_l0_t14_i", 
      "attrs": {"act_type": "sigmoid"}, 
      "inputs": [[397, 0, 0]]
    }, 
    {
      "op": "Activation", 
      "name": "lstm_l0_t14_c", 
      "attrs": {"act_type": "tanh"}, 
      "inputs": [[397, 2, 0]]
    }, 
    {
      "op": "elemwise_mul", 
      "name": "_mul269", 
      "inputs": [[401, 0, 0], [402, 0, 0]]
    }, 
    {
      "op": "elemwise_add", 
      "name": "lstm_l0_t14_state", 
      "inputs": [[400, 0, 0], [403, 0, 0]]
    }, 
    {
      "op": "Activation", 
      "name": "activation134", 
      "attrs": {"act_type": "tanh"}, 
      "inputs": [[404, 0, 0]]
    }, 
    {
      "op": "elemwise_mul", 
      "name": "lstm_l0_t14_out", 
      "inputs": [[398, 0, 0], [405, 0, 0]]
    }, 
    {
      "op": "FullyConnected", 
      "name": "lstm_l1_t14_i2h", 
      "attrs": {"num_hidden": "800"}, 
      "inputs": [[406, 0, 0], [23, 0, 0], [24, 0, 0]]
    }, 
    {
      "op": "FullyConnected", 
      "name": "lstm_l1_t14_h2h", 
      "attrs": {"num_hidden": "800"}, 
      "inputs": [[392, 0, 0], [27, 0, 0], [28, 0, 0]]
    }, 
    {
      "op": "elemwise_add", 
      "name": "_plus194", 
      "inputs": [[407, 0, 0], [408, 0, 0]]
    }, 
    {
      "op": "SliceChannel", 
      "name": "lstm_l1_t14_slice", 
      "attrs": {"num_outputs": "4"}, 
      "inputs": [[409, 0, 0]]
    }, 
    {
      "op": "Activation", 
      "name": "lstm_l1_t14_o", 
      "attrs": {"act_type": "sigmoid"}, 
      "inputs": [[410, 3, 0]]
    }, 
    {
      "op": "Activation", 
      "name": "lstm_l1_t14_f", 
      "attrs": {"act_type": "sigmoid"}, 
      "inputs": [[410, 1, 0]]
    }, 
    {
      "op": "elemwise_mul", 
      "name": "_mul388", 
      "inputs": [[412, 0, 0], [390, 0, 0]]
    }, 
    {
      "op": "Activation", 
      "name": "lstm_l1_t14_i", 
      "attrs": {"act_type": "sigmoid"}, 
      "inputs": [[410, 0, 0]]
    }, 
    {
      "op": "Activation", 
      "name": "lstm_l1_t14_c", 
      "attrs": {"act_type": "tanh"}, 
      "inputs": [[410, 2, 0]]
    }, 
    {
      "op": "elemwise_mul", 
      "name": "_mul389", 
      "inputs": [[414, 0, 0], [415, 0, 0]]
    }, 
    {
      "op": "elemwise_add", 
      "name": "lstm_l1_t14_state", 
      "inputs": [[413, 0, 0], [416, 0, 0]]
    }, 
    {
      "op": "Activation", 
      "name": "activation194", 
      "attrs": {"act_type": "tanh"}, 
      "inputs": [[417, 0, 0]]
    }, 
    {
      "op": "elemwise_mul", 
      "name": "lstm_l1_t14_out", 
      "inputs": [[411, 0, 0], [418, 0, 0]]
    }, 
    {
      "op": "expand_dims", 
      "name": "expand_dims74", 
      "attrs": {"axis": "1"}, 
      "inputs": [[419, 0, 0]]
    }, 
    {
      "op": "FullyConnected", 
      "name": "lstm_l0_t15_i2h", 
      "attrs": {"num_hidden": "800"}, 
      "inputs": [[3, 15, 0], [4, 0, 0], [5, 0, 0]]
    }, 
    {
      "op": "FullyConnected", 
      "name": "lstm_l0_t15_h2h", 
      "attrs": {"num_hidden": "800"}, 
      "inputs": [[406, 0, 0], [8, 0, 0], [9, 0, 0]]
    }, 
    {
      "op": "elemwise_add", 
      "name": "_plus135", 
      "inputs": [[421, 0, 0], [422, 0, 0]]
    }, 
    {
      "op": "SliceChannel", 
      "name": "lstm_l0_t15_slice", 
      "attrs": {"num_outputs": "4"}, 
      "inputs": [[423, 0, 0]]
    }, 
    {
      "op": "Activation", 
      "name": "lstm_l0_t15_o", 
      "attrs": {"act_type": "sigmoid"}, 
      "inputs": [[424, 3, 0]]
    }, 
    {
      "op": "Activation", 
      "name": "lstm_l0_t15_f", 
      "attrs": {"act_type": "sigmoid"}, 
      "inputs": [[424, 1, 0]]
    }, 
    {
      "op": "elemwise_mul", 
      "name": "_mul270", 
      "inputs": [[426, 0, 0], [404, 0, 0]]
    }, 
    {
      "op": "Activation", 
      "name": "lstm_l0_t15_i", 
      "attrs": {"act_type": "sigmoid"}, 
      "inputs": [[424, 0, 0]]
    }, 
    {
      "op": "Activation", 
      "name": "lstm_l0_t15_c", 
      "attrs": {"act_type": "tanh"}, 
      "inputs": [[424, 2, 0]]
    }, 
    {
      "op": "elemwise_mul", 
      "name": "_mul271", 
      "inputs": [[428, 0, 0], [429, 0, 0]]
    }, 
    {
      "op": "elemwise_add", 
      "name": "lstm_l0_t15_state", 
      "inputs": [[427, 0, 0], [430, 0, 0]]
    }, 
    {
      "op": "Activation", 
      "name": "activation135", 
      "attrs": {"act_type": "tanh"}, 
      "inputs": [[431, 0, 0]]
    }, 
    {
      "op": "elemwise_mul", 
      "name": "lstm_l0_t15_out", 
      "inputs": [[425, 0, 0], [432, 0, 0]]
    }, 
    {
      "op": "FullyConnected", 
      "name": "lstm_l1_t15_i2h", 
      "attrs": {"num_hidden": "800"}, 
      "inputs": [[433, 0, 0], [23, 0, 0], [24, 0, 0]]
    }, 
    {
      "op": "FullyConnected", 
      "name": "lstm_l1_t15_h2h", 
      "attrs": {"num_hidden": "800"}, 
      "inputs": [[419, 0, 0], [27, 0, 0], [28, 0, 0]]
    }, 
    {
      "op": "elemwise_add", 
      "name": "_plus195", 
      "inputs": [[434, 0, 0], [435, 0, 0]]
    }, 
    {
      "op": "SliceChannel", 
      "name": "lstm_l1_t15_slice", 
      "attrs": {"num_outputs": "4"}, 
      "inputs": [[436, 0, 0]]
    }, 
    {
      "op": "Activation", 
      "name": "lstm_l1_t15_o", 
      "attrs": {"act_type": "sigmoid"}, 
      "inputs": [[437, 3, 0]]
    }, 
    {
      "op": "Activation", 
      "name": "lstm_l1_t15_f", 
      "attrs": {"act_type": "sigmoid"}, 
      "inputs": [[437, 1, 0]]
    }, 
    {
      "op": "elemwise_mul", 
      "name": "_mul390", 
      "inputs": [[439, 0, 0], [417, 0, 0]]
    }, 
    {
      "op": "Activation", 
      "name": "lstm_l1_t15_i", 
      "attrs": {"act_type": "sigmoid"}, 
      "inputs": [[437, 0, 0]]
    }, 
    {
      "op": "Activation", 
      "name": "lstm_l1_t15_c", 
      "attrs": {"act_type": "tanh"}, 
      "inputs": [[437, 2, 0]]
    }, 
    {
      "op": "elemwise_mul", 
      "name": "_mul391", 
      "inputs": [[441, 0, 0], [442, 0, 0]]
    }, 
    {
      "op": "elemwise_add", 
      "name": "lstm_l1_t15_state", 
      "inputs": [[440, 0, 0], [443, 0, 0]]
    }, 
    {
      "op": "Activation", 
      "name": "activation195", 
      "attrs": {"act_type": "tanh"}, 
      "inputs": [[444, 0, 0]]
    }, 
    {
      "op": "elemwise_mul", 
      "name": "lstm_l1_t15_out", 
      "inputs": [[438, 0, 0], [445, 0, 0]]
    }, 
    {
      "op": "expand_dims", 
      "name": "expand_dims75", 
      "attrs": {"axis": "1"}, 
      "inputs": [[446, 0, 0]]
    }, 
    {
      "op": "FullyConnected", 
      "name": "lstm_l0_t16_i2h", 
      "attrs": {"num_hidden": "800"}, 
      "inputs": [[3, 16, 0], [4, 0, 0], [5, 0, 0]]
    }, 
    {
      "op": "FullyConnected", 
      "name": "lstm_l0_t16_h2h", 
      "attrs": {"num_hidden": "800"}, 
      "inputs": [[433, 0, 0], [8, 0, 0], [9, 0, 0]]
    }, 
    {
      "op": "elemwise_add", 
      "name": "_plus136", 
      "inputs": [[448, 0, 0], [449, 0, 0]]
    }, 
    {
      "op": "SliceChannel", 
      "name": "lstm_l0_t16_slice", 
      "attrs": {"num_outputs": "4"}, 
      "inputs": [[450, 0, 0]]
    }, 
    {
      "op": "Activation", 
      "name": "lstm_l0_t16_o", 
      "attrs": {"act_type": "sigmoid"}, 
      "inputs": [[451, 3, 0]]
    }, 
    {
      "op": "Activation", 
      "name": "lstm_l0_t16_f", 
      "attrs": {"act_type": "sigmoid"}, 
      "inputs": [[451, 1, 0]]
    }, 
    {
      "op": "elemwise_mul", 
      "name": "_mul272", 
      "inputs": [[453, 0, 0], [431, 0, 0]]
    }, 
    {
      "op": "Activation", 
      "name": "lstm_l0_t16_i", 
      "attrs": {"act_type": "sigmoid"}, 
      "inputs": [[451, 0, 0]]
    }, 
    {
      "op": "Activation", 
      "name": "lstm_l0_t16_c", 
      "attrs": {"act_type": "tanh"}, 
      "inputs": [[451, 2, 0]]
    }, 
    {
      "op": "elemwise_mul", 
      "name": "_mul273", 
      "inputs": [[455, 0, 0], [456, 0, 0]]
    }, 
    {
      "op": "elemwise_add", 
      "name": "lstm_l0_t16_state", 
      "inputs": [[454, 0, 0], [457, 0, 0]]
    }, 
    {
      "op": "Activation", 
      "name": "activation136", 
      "attrs": {"act_type": "tanh"}, 
      "inputs": [[458, 0, 0]]
    }, 
    {
      "op": "elemwise_mul", 
      "name": "lstm_l0_t16_out", 
      "inputs": [[452, 0, 0], [459, 0, 0]]
    }, 
    {
      "op": "FullyConnected", 
      "name": "lstm_l1_t16_i2h", 
      "attrs": {"num_hidden": "800"}, 
      "inputs": [[460, 0, 0], [23, 0, 0], [24, 0, 0]]
    }, 
    {
      "op": "FullyConnected", 
      "name": "lstm_l1_t16_h2h", 
      "attrs": {"num_hidden": "800"}, 
      "inputs": [[446, 0, 0], [27, 0, 0], [28, 0, 0]]
    }, 
    {
      "op": "elemwise_add", 
      "name": "_plus196", 
      "inputs": [[461, 0, 0], [462, 0, 0]]
    }, 
    {
      "op": "SliceChannel", 
      "name": "lstm_l1_t16_slice", 
      "attrs": {"num_outputs": "4"}, 
      "inputs": [[463, 0, 0]]
    }, 
    {
      "op": "Activation", 
      "name": "lstm_l1_t16_o", 
      "attrs": {"act_type": "sigmoid"}, 
      "inputs": [[464, 3, 0]]
    }, 
    {
      "op": "Activation", 
      "name": "lstm_l1_t16_f", 
      "attrs": {"act_type": "sigmoid"}, 
      "inputs": [[464, 1, 0]]
    }, 
    {
      "op": "elemwise_mul", 
      "name": "_mul392", 
      "inputs": [[466, 0, 0], [444, 0, 0]]
    }, 
    {
      "op": "Activation", 
      "name": "lstm_l1_t16_i", 
      "attrs": {"act_type": "sigmoid"}, 
      "inputs": [[464, 0, 0]]
    }, 
    {
      "op": "Activation", 
      "name": "lstm_l1_t16_c", 
      "attrs": {"act_type": "tanh"}, 
      "inputs": [[464, 2, 0]]
    }, 
    {
      "op": "elemwise_mul", 
      "name": "_mul393", 
      "inputs": [[468, 0, 0], [469, 0, 0]]
    }, 
    {
      "op": "elemwise_add", 
      "name": "lstm_l1_t16_state", 
      "inputs": [[467, 0, 0], [470, 0, 0]]
    }, 
    {
      "op": "Activation", 
      "name": "activation196", 
      "attrs": {"act_type": "tanh"}, 
      "inputs": [[471, 0, 0]]
    }, 
    {
      "op": "elemwise_mul", 
      "name": "lstm_l1_t16_out", 
      "inputs": [[465, 0, 0], [472, 0, 0]]
    }, 
    {
      "op": "expand_dims", 
      "name": "expand_dims76", 
      "attrs": {"axis": "1"}, 
      "inputs": [[473, 0, 0]]
    }, 
    {
      "op": "FullyConnected", 
      "name": "lstm_l0_t17_i2h", 
      "attrs": {"num_hidden": "800"}, 
      "inputs": [[3, 17, 0], [4, 0, 0], [5, 0, 0]]
    }, 
    {
      "op": "FullyConnected", 
      "name": "lstm_l0_t17_h2h", 
      "attrs": {"num_hidden": "800"}, 
      "inputs": [[460, 0, 0], [8, 0, 0], [9, 0, 0]]
    }, 
    {
      "op": "elemwise_add", 
      "name": "_plus137", 
      "inputs": [[475, 0, 0], [476, 0, 0]]
    }, 
    {
      "op": "SliceChannel", 
      "name": "lstm_l0_t17_slice", 
      "attrs": {"num_outputs": "4"}, 
      "inputs": [[477, 0, 0]]
    }, 
    {
      "op": "Activation", 
      "name": "lstm_l0_t17_o", 
      "attrs": {"act_type": "sigmoid"}, 
      "inputs": [[478, 3, 0]]
    }, 
    {
      "op": "Activation", 
      "name": "lstm_l0_t17_f", 
      "attrs": {"act_type": "sigmoid"}, 
      "inputs": [[478, 1, 0]]
    }, 
    {
      "op": "elemwise_mul", 
      "name": "_mul274", 
      "inputs": [[480, 0, 0], [458, 0, 0]]
    }, 
    {
      "op": "Activation", 
      "name": "lstm_l0_t17_i", 
      "attrs": {"act_type": "sigmoid"}, 
      "inputs": [[478, 0, 0]]
    }, 
    {
      "op": "Activation", 
      "name": "lstm_l0_t17_c", 
      "attrs": {"act_type": "tanh"}, 
      "inputs": [[478, 2, 0]]
    }, 
    {
      "op": "elemwise_mul", 
      "name": "_mul275", 
      "inputs": [[482, 0, 0], [483, 0, 0]]
    }, 
    {
      "op": "elemwise_add", 
      "name": "lstm_l0_t17_state", 
      "inputs": [[481, 0, 0], [484, 0, 0]]
    }, 
    {
      "op": "Activation", 
      "name": "activation137", 
      "attrs": {"act_type": "tanh"}, 
      "inputs": [[485, 0, 0]]
    }, 
    {
      "op": "elemwise_mul", 
      "name": "lstm_l0_t17_out", 
      "inputs": [[479, 0, 0], [486, 0, 0]]
    }, 
    {
      "op": "FullyConnected", 
      "name": "lstm_l1_t17_i2h", 
      "attrs": {"num_hidden": "800"}, 
      "inputs": [[487, 0, 0], [23, 0, 0], [24, 0, 0]]
    }, 
    {
      "op": "FullyConnected", 
      "name": "lstm_l1_t17_h2h", 
      "attrs": {"num_hidden": "800"}, 
      "inputs": [[473, 0, 0], [27, 0, 0], [28, 0, 0]]
    }, 
    {
      "op": "elemwise_add", 
      "name": "_plus197", 
      "inputs": [[488, 0, 0], [489, 0, 0]]
    }, 
    {
      "op": "SliceChannel", 
      "name": "lstm_l1_t17_slice", 
      "attrs": {"num_outputs": "4"}, 
      "inputs": [[490, 0, 0]]
    }, 
    {
      "op": "Activation", 
      "name": "lstm_l1_t17_o", 
      "attrs": {"act_type": "sigmoid"}, 
      "inputs": [[491, 3, 0]]
    }, 
    {
      "op": "Activation", 
      "name": "lstm_l1_t17_f", 
      "attrs": {"act_type": "sigmoid"}, 
      "inputs": [[491, 1, 0]]
    }, 
    {
      "op": "elemwise_mul", 
      "name": "_mul394", 
      "inputs": [[493, 0, 0], [471, 0, 0]]
    }, 
    {
      "op": "Activation", 
      "name": "lstm_l1_t17_i", 
      "attrs": {"act_type": "sigmoid"}, 
      "inputs": [[491, 0, 0]]
    }, 
    {
      "op": "Activation", 
      "name": "lstm_l1_t17_c", 
      "attrs": {"act_type": "tanh"}, 
      "inputs": [[491, 2, 0]]
    }, 
    {
      "op": "elemwise_mul", 
      "name": "_mul395", 
      "inputs": [[495, 0, 0], [496, 0, 0]]
    }, 
    {
      "op": "elemwise_add", 
      "name": "lstm_l1_t17_state", 
      "inputs": [[494, 0, 0], [497, 0, 0]]
    }, 
    {
      "op": "Activation", 
      "name": "activation197", 
      "attrs": {"act_type": "tanh"}, 
      "inputs": [[498, 0, 0]]
    }, 
    {
      "op": "elemwise_mul", 
      "name": "lstm_l1_t17_out", 
      "inputs": [[492, 0, 0], [499, 0, 0]]
    }, 
    {
      "op": "expand_dims", 
      "name": "expand_dims77", 
      "attrs": {"axis": "1"}, 
      "inputs": [[500, 0, 0]]
    }, 
    {
      "op": "FullyConnected", 
      "name": "lstm_l0_t18_i2h", 
      "attrs": {"num_hidden": "800"}, 
      "inputs": [[3, 18, 0], [4, 0, 0], [5, 0, 0]]
    }, 
    {
      "op": "FullyConnected", 
      "name": "lstm_l0_t18_h2h", 
      "attrs": {"num_hidden": "800"}, 
      "inputs": [[487, 0, 0], [8, 0, 0], [9, 0, 0]]
    }, 
    {
      "op": "elemwise_add", 
      "name": "_plus138", 
      "inputs": [[502, 0, 0], [503, 0, 0]]
    }, 
    {
      "op": "SliceChannel", 
      "name": "lstm_l0_t18_slice", 
      "attrs": {"num_outputs": "4"}, 
      "inputs": [[504, 0, 0]]
    }, 
    {
      "op": "Activation", 
      "name": "lstm_l0_t18_o", 
      "attrs": {"act_type": "sigmoid"}, 
      "inputs": [[505, 3, 0]]
    }, 
    {
      "op": "Activation", 
      "name": "lstm_l0_t18_f", 
      "attrs": {"act_type": "sigmoid"}, 
      "inputs": [[505, 1, 0]]
    }, 
    {
      "op": "elemwise_mul", 
      "name": "_mul276", 
      "inputs": [[507, 0, 0], [485, 0, 0]]
    }, 
    {
      "op": "Activation", 
      "name": "lstm_l0_t18_i", 
      "attrs": {"act_type": "sigmoid"}, 
      "inputs": [[505, 0, 0]]
    }, 
    {
      "op": "Activation", 
      "name": "lstm_l0_t18_c", 
      "attrs": {"act_type": "tanh"}, 
      "inputs": [[505, 2, 0]]
    }, 
    {
      "op": "elemwise_mul", 
      "name": "_mul277", 
      "inputs": [[509, 0, 0], [510, 0, 0]]
    }, 
    {
      "op": "elemwise_add", 
      "name": "lstm_l0_t18_state", 
      "inputs": [[508, 0, 0], [511, 0, 0]]
    }, 
    {
      "op": "Activation", 
      "name": "activation138", 
      "attrs": {"act_type": "tanh"}, 
      "inputs": [[512, 0, 0]]
    }, 
    {
      "op": "elemwise_mul", 
      "name": "lstm_l0_t18_out", 
      "inputs": [[506, 0, 0], [513, 0, 0]]
    }, 
    {
      "op": "FullyConnected", 
      "name": "lstm_l1_t18_i2h", 
      "attrs": {"num_hidden": "800"}, 
      "inputs": [[514, 0, 0], [23, 0, 0], [24, 0, 0]]
    }, 
    {
      "op": "FullyConnected", 
      "name": "lstm_l1_t18_h2h", 
      "attrs": {"num_hidden": "800"}, 
      "inputs": [[500, 0, 0], [27, 0, 0], [28, 0, 0]]
    }, 
    {
      "op": "elemwise_add", 
      "name": "_plus198", 
      "inputs": [[515, 0, 0], [516, 0, 0]]
    }, 
    {
      "op": "SliceChannel", 
      "name": "lstm_l1_t18_slice", 
      "attrs": {"num_outputs": "4"}, 
      "inputs": [[517, 0, 0]]
    }, 
    {
      "op": "Activation", 
      "name": "lstm_l1_t18_o", 
      "attrs": {"act_type": "sigmoid"}, 
      "inputs": [[518, 3, 0]]
    }, 
    {
      "op": "Activation", 
      "name": "lstm_l1_t18_f", 
      "attrs": {"act_type": "sigmoid"}, 
      "inputs": [[518, 1, 0]]
    }, 
    {
      "op": "elemwise_mul", 
      "name": "_mul396", 
      "inputs": [[520, 0, 0], [498, 0, 0]]
    }, 
    {
      "op": "Activation", 
      "name": "lstm_l1_t18_i", 
      "attrs": {"act_type": "sigmoid"}, 
      "inputs": [[518, 0, 0]]
    }, 
    {
      "op": "Activation", 
      "name": "lstm_l1_t18_c", 
      "attrs": {"act_type": "tanh"}, 
      "inputs": [[518, 2, 0]]
    }, 
    {
      "op": "elemwise_mul", 
      "name": "_mul397", 
      "inputs": [[522, 0, 0], [523, 0, 0]]
    }, 
    {
      "op": "elemwise_add", 
      "name": "lstm_l1_t18_state", 
      "inputs": [[521, 0, 0], [524, 0, 0]]
    }, 
    {
      "op": "Activation", 
      "name": "activation198", 
      "attrs": {"act_type": "tanh"}, 
      "inputs": [[525, 0, 0]]
    }, 
    {
      "op": "elemwise_mul", 
      "name": "lstm_l1_t18_out", 
      "inputs": [[519, 0, 0], [526, 0, 0]]
    }, 
    {
      "op": "expand_dims", 
      "name": "expand_dims78", 
      "attrs": {"axis": "1"}, 
      "inputs": [[527, 0, 0]]
    }, 
    {
      "op": "FullyConnected", 
      "name": "lstm_l0_t19_i2h", 
      "attrs": {"num_hidden": "800"}, 
      "inputs": [[3, 19, 0], [4, 0, 0], [5, 0, 0]]
    }, 
    {
      "op": "FullyConnected", 
      "name": "lstm_l0_t19_h2h", 
      "attrs": {"num_hidden": "800"}, 
      "inputs": [[514, 0, 0], [8, 0, 0], [9, 0, 0]]
    }, 
    {
      "op": "elemwise_add", 
      "name": "_plus139", 
      "inputs": [[529, 0, 0], [530, 0, 0]]
    }, 
    {
      "op": "SliceChannel", 
      "name": "lstm_l0_t19_slice", 
      "attrs": {"num_outputs": "4"}, 
      "inputs": [[531, 0, 0]]
    }, 
    {
      "op": "Activation", 
      "name": "lstm_l0_t19_o", 
      "attrs": {"act_type": "sigmoid"}, 
      "inputs": [[532, 3, 0]]
    }, 
    {
      "op": "Activation", 
      "name": "lstm_l0_t19_f", 
      "attrs": {"act_type": "sigmoid"}, 
      "inputs": [[532, 1, 0]]
    }, 
    {
      "op": "elemwise_mul", 
      "name": "_mul278", 
      "inputs": [[534, 0, 0], [512, 0, 0]]
    }, 
    {
      "op": "Activation", 
      "name": "lstm_l0_t19_i", 
      "attrs": {"act_type": "sigmoid"}, 
      "inputs": [[532, 0, 0]]
    }, 
    {
      "op": "Activation", 
      "name": "lstm_l0_t19_c", 
      "attrs": {"act_type": "tanh"}, 
      "inputs": [[532, 2, 0]]
    }, 
    {
      "op": "elemwise_mul", 
      "name": "_mul279", 
      "inputs": [[536, 0, 0], [537, 0, 0]]
    }, 
    {
      "op": "elemwise_add", 
      "name": "lstm_l0_t19_state", 
      "inputs": [[535, 0, 0], [538, 0, 0]]
    }, 
    {
      "op": "Activation", 
      "name": "activation139", 
      "attrs": {"act_type": "tanh"}, 
      "inputs": [[539, 0, 0]]
    }, 
    {
      "op": "elemwise_mul", 
      "name": "lstm_l0_t19_out", 
      "inputs": [[533, 0, 0], [540, 0, 0]]
    }, 
    {
      "op": "FullyConnected", 
      "name": "lstm_l1_t19_i2h", 
      "attrs": {"num_hidden": "800"}, 
      "inputs": [[541, 0, 0], [23, 0, 0], [24, 0, 0]]
    }, 
    {
      "op": "FullyConnected", 
      "name": "lstm_l1_t19_h2h", 
      "attrs": {"num_hidden": "800"}, 
      "inputs": [[527, 0, 0], [27, 0, 0], [28, 0, 0]]
    }, 
    {
      "op": "elemwise_add", 
      "name": "_plus199", 
      "inputs": [[542, 0, 0], [543, 0, 0]]
    }, 
    {
      "op": "SliceChannel", 
      "name": "lstm_l1_t19_slice", 
      "attrs": {"num_outputs": "4"}, 
      "inputs": [[544, 0, 0]]
    }, 
    {
      "op": "Activation", 
      "name": "lstm_l1_t19_o", 
      "attrs": {"act_type": "sigmoid"}, 
      "inputs": [[545, 3, 0]]
    }, 
    {
      "op": "Activation", 
      "name": "lstm_l1_t19_f", 
      "attrs": {"act_type": "sigmoid"}, 
      "inputs": [[545, 1, 0]]
    }, 
    {
      "op": "elemwise_mul", 
      "name": "_mul398", 
      "inputs": [[547, 0, 0], [525, 0, 0]]
    }, 
    {
      "op": "Activation", 
      "name": "lstm_l1_t19_i", 
      "attrs": {"act_type": "sigmoid"}, 
      "inputs": [[545, 0, 0]]
    }, 
    {
      "op": "Activation", 
      "name": "lstm_l1_t19_c", 
      "attrs": {"act_type": "tanh"}, 
      "inputs": [[545, 2, 0]]
    }, 
    {
      "op": "elemwise_mul", 
      "name": "_mul399", 
      "inputs": [[549, 0, 0], [550, 0, 0]]
    }, 
    {
      "op": "elemwise_add", 
      "name": "lstm_l1_t19_state", 
      "inputs": [[548, 0, 0], [551, 0, 0]]
    }, 
    {
      "op": "Activation", 
      "name": "activation199", 
      "attrs": {"act_type": "tanh"}, 
      "inputs": [[552, 0, 0]]
    }, 
    {
      "op": "elemwise_mul", 
      "name": "lstm_l1_t19_out", 
      "inputs": [[546, 0, 0], [553, 0, 0]]
    }, 
    {
      "op": "expand_dims", 
      "name": "expand_dims79", 
      "attrs": {"axis": "1"}, 
      "inputs": [[554, 0, 0]]
    }, 
    {
      "op": "FullyConnected", 
      "name": "lstm_l0_t20_i2h", 
      "attrs": {"num_hidden": "800"}, 
      "inputs": [[3, 20, 0], [4, 0, 0], [5, 0, 0]]
    }, 
    {
      "op": "FullyConnected", 
      "name": "lstm_l0_t20_h2h", 
      "attrs": {"num_hidden": "800"}, 
      "inputs": [[541, 0, 0], [8, 0, 0], [9, 0, 0]]
    }, 
    {
      "op": "elemwise_add", 
      "name": "_plus140", 
      "inputs": [[556, 0, 0], [557, 0, 0]]
    }, 
    {
      "op": "SliceChannel", 
      "name": "lstm_l0_t20_slice", 
      "attrs": {"num_outputs": "4"}, 
      "inputs": [[558, 0, 0]]
    }, 
    {
      "op": "Activation", 
      "name": "lstm_l0_t20_o", 
      "attrs": {"act_type": "sigmoid"}, 
      "inputs": [[559, 3, 0]]
    }, 
    {
      "op": "Activation", 
      "name": "lstm_l0_t20_f", 
      "attrs": {"act_type": "sigmoid"}, 
      "inputs": [[559, 1, 0]]
    }, 
    {
      "op": "elemwise_mul", 
      "name": "_mul280", 
      "inputs": [[561, 0, 0], [539, 0, 0]]
    }, 
    {
      "op": "Activation", 
      "name": "lstm_l0_t20_i", 
      "attrs": {"act_type": "sigmoid"}, 
      "inputs": [[559, 0, 0]]
    }, 
    {
      "op": "Activation", 
      "name": "lstm_l0_t20_c", 
      "attrs": {"act_type": "tanh"}, 
      "inputs": [[559, 2, 0]]
    }, 
    {
      "op": "elemwise_mul", 
      "name": "_mul281", 
      "inputs": [[563, 0, 0], [564, 0, 0]]
    }, 
    {
      "op": "elemwise_add", 
      "name": "lstm_l0_t20_state", 
      "inputs": [[562, 0, 0], [565, 0, 0]]
    }, 
    {
      "op": "Activation", 
      "name": "activation140", 
      "attrs": {"act_type": "tanh"}, 
      "inputs": [[566, 0, 0]]
    }, 
    {
      "op": "elemwise_mul", 
      "name": "lstm_l0_t20_out", 
      "inputs": [[560, 0, 0], [567, 0, 0]]
    }, 
    {
      "op": "FullyConnected", 
      "name": "lstm_l1_t20_i2h", 
      "attrs": {"num_hidden": "800"}, 
      "inputs": [[568, 0, 0], [23, 0, 0], [24, 0, 0]]
    }, 
    {
      "op": "FullyConnected", 
      "name": "lstm_l1_t20_h2h", 
      "attrs": {"num_hidden": "800"}, 
      "inputs": [[554, 0, 0], [27, 0, 0], [28, 0, 0]]
    }, 
    {
      "op": "elemwise_add", 
      "name": "_plus200", 
      "inputs": [[569, 0, 0], [570, 0, 0]]
    }, 
    {
      "op": "SliceChannel", 
      "name": "lstm_l1_t20_slice", 
      "attrs": {"num_outputs": "4"}, 
      "inputs": [[571, 0, 0]]
    }, 
    {
      "op": "Activation", 
      "name": "lstm_l1_t20_o", 
      "attrs": {"act_type": "sigmoid"}, 
      "inputs": [[572, 3, 0]]
    }, 
    {
      "op": "Activation", 
      "name": "lstm_l1_t20_f", 
      "attrs": {"act_type": "sigmoid"}, 
      "inputs": [[572, 1, 0]]
    }, 
    {
      "op": "elemwise_mul", 
      "name": "_mul400", 
      "inputs": [[574, 0, 0], [552, 0, 0]]
    }, 
    {
      "op": "Activation", 
      "name": "lstm_l1_t20_i", 
      "attrs": {"act_type": "sigmoid"}, 
      "inputs": [[572, 0, 0]]
    }, 
    {
      "op": "Activation", 
      "name": "lstm_l1_t20_c", 
      "attrs": {"act_type": "tanh"}, 
      "inputs": [[572, 2, 0]]
    }, 
    {
      "op": "elemwise_mul", 
      "name": "_mul401", 
      "inputs": [[576, 0, 0], [577, 0, 0]]
    }, 
    {
      "op": "elemwise_add", 
      "name": "lstm_l1_t20_state", 
      "inputs": [[575, 0, 0], [578, 0, 0]]
    }, 
    {
      "op": "Activation", 
      "name": "activation200", 
      "attrs": {"act_type": "tanh"}, 
      "inputs": [[579, 0, 0]]
    }, 
    {
      "op": "elemwise_mul", 
      "name": "lstm_l1_t20_out", 
      "inputs": [[573, 0, 0], [580, 0, 0]]
    }, 
    {
      "op": "expand_dims", 
      "name": "expand_dims80", 
      "attrs": {"axis": "1"}, 
      "inputs": [[581, 0, 0]]
    }, 
    {
      "op": "FullyConnected", 
      "name": "lstm_l0_t21_i2h", 
      "attrs": {"num_hidden": "800"}, 
      "inputs": [[3, 21, 0], [4, 0, 0], [5, 0, 0]]
    }, 
    {
      "op": "FullyConnected", 
      "name": "lstm_l0_t21_h2h", 
      "attrs": {"num_hidden": "800"}, 
      "inputs": [[568, 0, 0], [8, 0, 0], [9, 0, 0]]
    }, 
    {
      "op": "elemwise_add", 
      "name": "_plus141", 
      "inputs": [[583, 0, 0], [584, 0, 0]]
    }, 
    {
      "op": "SliceChannel", 
      "name": "lstm_l0_t21_slice", 
      "attrs": {"num_outputs": "4"}, 
      "inputs": [[585, 0, 0]]
    }, 
    {
      "op": "Activation", 
      "name": "lstm_l0_t21_o", 
      "attrs": {"act_type": "sigmoid"}, 
      "inputs": [[586, 3, 0]]
    }, 
    {
      "op": "Activation", 
      "name": "lstm_l0_t21_f", 
      "attrs": {"act_type": "sigmoid"}, 
      "inputs": [[586, 1, 0]]
    }, 
    {
      "op": "elemwise_mul", 
      "name": "_mul282", 
      "inputs": [[588, 0, 0], [566, 0, 0]]
    }, 
    {
      "op": "Activation", 
      "name": "lstm_l0_t21_i", 
      "attrs": {"act_type": "sigmoid"}, 
      "inputs": [[586, 0, 0]]
    }, 
    {
      "op": "Activation", 
      "name": "lstm_l0_t21_c", 
      "attrs": {"act_type": "tanh"}, 
      "inputs": [[586, 2, 0]]
    }, 
    {
      "op": "elemwise_mul", 
      "name": "_mul283", 
      "inputs": [[590, 0, 0], [591, 0, 0]]
    }, 
    {
      "op": "elemwise_add", 
      "name": "lstm_l0_t21_state", 
      "inputs": [[589, 0, 0], [592, 0, 0]]
    }, 
    {
      "op": "Activation", 
      "name": "activation141", 
      "attrs": {"act_type": "tanh"}, 
      "inputs": [[593, 0, 0]]
    }, 
    {
      "op": "elemwise_mul", 
      "name": "lstm_l0_t21_out", 
      "inputs": [[587, 0, 0], [594, 0, 0]]
    }, 
    {
      "op": "FullyConnected", 
      "name": "lstm_l1_t21_i2h", 
      "attrs": {"num_hidden": "800"}, 
      "inputs": [[595, 0, 0], [23, 0, 0], [24, 0, 0]]
    }, 
    {
      "op": "FullyConnected", 
      "name": "lstm_l1_t21_h2h", 
      "attrs": {"num_hidden": "800"}, 
      "inputs": [[581, 0, 0], [27, 0, 0], [28, 0, 0]]
    }, 
    {
      "op": "elemwise_add", 
      "name": "_plus201", 
      "inputs": [[596, 0, 0], [597, 0, 0]]
    }, 
    {
      "op": "SliceChannel", 
      "name": "lstm_l1_t21_slice", 
      "attrs": {"num_outputs": "4"}, 
      "inputs": [[598, 0, 0]]
    }, 
    {
      "op": "Activation", 
      "name": "lstm_l1_t21_o", 
      "attrs": {"act_type": "sigmoid"}, 
      "inputs": [[599, 3, 0]]
    }, 
    {
      "op": "Activation", 
      "name": "lstm_l1_t21_f", 
      "attrs": {"act_type": "sigmoid"}, 
      "inputs": [[599, 1, 0]]
    }, 
    {
      "op": "elemwise_mul", 
      "name": "_mul402", 
      "inputs": [[601, 0, 0], [579, 0, 0]]
    }, 
    {
      "op": "Activation", 
      "name": "lstm_l1_t21_i", 
      "attrs": {"act_type": "sigmoid"}, 
      "inputs": [[599, 0, 0]]
    }, 
    {
      "op": "Activation", 
      "name": "lstm_l1_t21_c", 
      "attrs": {"act_type": "tanh"}, 
      "inputs": [[599, 2, 0]]
    }, 
    {
      "op": "elemwise_mul", 
      "name": "_mul403", 
      "inputs": [[603, 0, 0], [604, 0, 0]]
    }, 
    {
      "op": "elemwise_add", 
      "name": "lstm_l1_t21_state", 
      "inputs": [[602, 0, 0], [605, 0, 0]]
    }, 
    {
      "op": "Activation", 
      "name": "activation201", 
      "attrs": {"act_type": "tanh"}, 
      "inputs": [[606, 0, 0]]
    }, 
    {
      "op": "elemwise_mul", 
      "name": "lstm_l1_t21_out", 
      "inputs": [[600, 0, 0], [607, 0, 0]]
    }, 
    {
      "op": "expand_dims", 
      "name": "expand_dims81", 
      "attrs": {"axis": "1"}, 
      "inputs": [[608, 0, 0]]
    }, 
    {
      "op": "FullyConnected", 
      "name": "lstm_l0_t22_i2h", 
      "attrs": {"num_hidden": "800"}, 
      "inputs": [[3, 22, 0], [4, 0, 0], [5, 0, 0]]
    }, 
    {
      "op": "FullyConnected", 
      "name": "lstm_l0_t22_h2h", 
      "attrs": {"num_hidden": "800"}, 
      "inputs": [[595, 0, 0], [8, 0, 0], [9, 0, 0]]
    }, 
    {
      "op": "elemwise_add", 
      "name": "_plus142", 
      "inputs": [[610, 0, 0], [611, 0, 0]]
    }, 
    {
      "op": "SliceChannel", 
      "name": "lstm_l0_t22_slice", 
      "attrs": {"num_outputs": "4"}, 
      "inputs": [[612, 0, 0]]
    }, 
    {
      "op": "Activation", 
      "name": "lstm_l0_t22_o", 
      "attrs": {"act_type": "sigmoid"}, 
      "inputs": [[613, 3, 0]]
    }, 
    {
      "op": "Activation", 
      "name": "lstm_l0_t22_f", 
      "attrs": {"act_type": "sigmoid"}, 
      "inputs": [[613, 1, 0]]
    }, 
    {
      "op": "elemwise_mul", 
      "name": "_mul284", 
      "inputs": [[615, 0, 0], [593, 0, 0]]
    }, 
    {
      "op": "Activation", 
      "name": "lstm_l0_t22_i", 
      "attrs": {"act_type": "sigmoid"}, 
      "inputs": [[613, 0, 0]]
    }, 
    {
      "op": "Activation", 
      "name": "lstm_l0_t22_c", 
      "attrs": {"act_type": "tanh"}, 
      "inputs": [[613, 2, 0]]
    }, 
    {
      "op": "elemwise_mul", 
      "name": "_mul285", 
      "inputs": [[617, 0, 0], [618, 0, 0]]
    }, 
    {
      "op": "elemwise_add", 
      "name": "lstm_l0_t22_state", 
      "inputs": [[616, 0, 0], [619, 0, 0]]
    }, 
    {
      "op": "Activation", 
      "name": "activation142", 
      "attrs": {"act_type": "tanh"}, 
      "inputs": [[620, 0, 0]]
    }, 
    {
      "op": "elemwise_mul", 
      "name": "lstm_l0_t22_out", 
      "inputs": [[614, 0, 0], [621, 0, 0]]
    }, 
    {
      "op": "FullyConnected", 
      "name": "lstm_l1_t22_i2h", 
      "attrs": {"num_hidden": "800"}, 
      "inputs": [[622, 0, 0], [23, 0, 0], [24, 0, 0]]
    }, 
    {
      "op": "FullyConnected", 
      "name": "lstm_l1_t22_h2h", 
      "attrs": {"num_hidden": "800"}, 
      "inputs": [[608, 0, 0], [27, 0, 0], [28, 0, 0]]
    }, 
    {
      "op": "elemwise_add", 
      "name": "_plus202", 
      "inputs": [[623, 0, 0], [624, 0, 0]]
    }, 
    {
      "op": "SliceChannel", 
      "name": "lstm_l1_t22_slice", 
      "attrs": {"num_outputs": "4"}, 
      "inputs": [[625, 0, 0]]
    }, 
    {
      "op": "Activation", 
      "name": "lstm_l1_t22_o", 
      "attrs": {"act_type": "sigmoid"}, 
      "inputs": [[626, 3, 0]]
    }, 
    {
      "op": "Activation", 
      "name": "lstm_l1_t22_f", 
      "attrs": {"act_type": "sigmoid"}, 
      "inputs": [[626, 1, 0]]
    }, 
    {
      "op": "elemwise_mul", 
      "name": "_mul404", 
      "inputs": [[628, 0, 0], [606, 0, 0]]
    }, 
    {
      "op": "Activation", 
      "name": "lstm_l1_t22_i", 
      "attrs": {"act_type": "sigmoid"}, 
      "inputs": [[626, 0, 0]]
    }, 
    {
      "op": "Activation", 
      "name": "lstm_l1_t22_c", 
      "attrs": {"act_type": "tanh"}, 
      "inputs": [[626, 2, 0]]
    }, 
    {
      "op": "elemwise_mul", 
      "name": "_mul405", 
      "inputs": [[630, 0, 0], [631, 0, 0]]
    }, 
    {
      "op": "elemwise_add", 
      "name": "lstm_l1_t22_state", 
      "inputs": [[629, 0, 0], [632, 0, 0]]
    }, 
    {
      "op": "Activation", 
      "name": "activation202", 
      "attrs": {"act_type": "tanh"}, 
      "inputs": [[633, 0, 0]]
    }, 
    {
      "op": "elemwise_mul", 
      "name": "lstm_l1_t22_out", 
      "inputs": [[627, 0, 0], [634, 0, 0]]
    }, 
    {
      "op": "expand_dims", 
      "name": "expand_dims82", 
      "attrs": {"axis": "1"}, 
      "inputs": [[635, 0, 0]]
    }, 
    {
      "op": "FullyConnected", 
      "name": "lstm_l0_t23_i2h", 
      "attrs": {"num_hidden": "800"}, 
      "inputs": [[3, 23, 0], [4, 0, 0], [5, 0, 0]]
    }, 
    {
      "op": "FullyConnected", 
      "name": "lstm_l0_t23_h2h", 
      "attrs": {"num_hidden": "800"}, 
      "inputs": [[622, 0, 0], [8, 0, 0], [9, 0, 0]]
    }, 
    {
      "op": "elemwise_add", 
      "name": "_plus143", 
      "inputs": [[637, 0, 0], [638, 0, 0]]
    }, 
    {
      "op": "SliceChannel", 
      "name": "lstm_l0_t23_slice", 
      "attrs": {"num_outputs": "4"}, 
      "inputs": [[639, 0, 0]]
    }, 
    {
      "op": "Activation", 
      "name": "lstm_l0_t23_o", 
      "attrs": {"act_type": "sigmoid"}, 
      "inputs": [[640, 3, 0]]
    }, 
    {
      "op": "Activation", 
      "name": "lstm_l0_t23_f", 
      "attrs": {"act_type": "sigmoid"}, 
      "inputs": [[640, 1, 0]]
    }, 
    {
      "op": "elemwise_mul", 
      "name": "_mul286", 
      "inputs": [[642, 0, 0], [620, 0, 0]]
    }, 
    {
      "op": "Activation", 
      "name": "lstm_l0_t23_i", 
      "attrs": {"act_type": "sigmoid"}, 
      "inputs": [[640, 0, 0]]
    }, 
    {
      "op": "Activation", 
      "name": "lstm_l0_t23_c", 
      "attrs": {"act_type": "tanh"}, 
      "inputs": [[640, 2, 0]]
    }, 
    {
      "op": "elemwise_mul", 
      "name": "_mul287", 
      "inputs": [[644, 0, 0], [645, 0, 0]]
    }, 
    {
      "op": "elemwise_add", 
      "name": "lstm_l0_t23_state", 
      "inputs": [[643, 0, 0], [646, 0, 0]]
    }, 
    {
      "op": "Activation", 
      "name": "activation143", 
      "attrs": {"act_type": "tanh"}, 
      "inputs": [[647, 0, 0]]
    }, 
    {
      "op": "elemwise_mul", 
      "name": "lstm_l0_t23_out", 
      "inputs": [[641, 0, 0], [648, 0, 0]]
    }, 
    {
      "op": "FullyConnected", 
      "name": "lstm_l1_t23_i2h", 
      "attrs": {"num_hidden": "800"}, 
      "inputs": [[649, 0, 0], [23, 0, 0], [24, 0, 0]]
    }, 
    {
      "op": "FullyConnected", 
      "name": "lstm_l1_t23_h2h", 
      "attrs": {"num_hidden": "800"}, 
      "inputs": [[635, 0, 0], [27, 0, 0], [28, 0, 0]]
    }, 
    {
      "op": "elemwise_add", 
      "name": "_plus203", 
      "inputs": [[650, 0, 0], [651, 0, 0]]
    }, 
    {
      "op": "SliceChannel", 
      "name": "lstm_l1_t23_slice", 
      "attrs": {"num_outputs": "4"}, 
      "inputs": [[652, 0, 0]]
    }, 
    {
      "op": "Activation", 
      "name": "lstm_l1_t23_o", 
      "attrs": {"act_type": "sigmoid"}, 
      "inputs": [[653, 3, 0]]
    }, 
    {
      "op": "Activation", 
      "name": "lstm_l1_t23_f", 
      "attrs": {"act_type": "sigmoid"}, 
      "inputs": [[653, 1, 0]]
    }, 
    {
      "op": "elemwise_mul", 
      "name": "_mul406", 
      "inputs": [[655, 0, 0], [633, 0, 0]]
    }, 
    {
      "op": "Activation", 
      "name": "lstm_l1_t23_i", 
      "attrs": {"act_type": "sigmoid"}, 
      "inputs": [[653, 0, 0]]
    }, 
    {
      "op": "Activation", 
      "name": "lstm_l1_t23_c", 
      "attrs": {"act_type": "tanh"}, 
      "inputs": [[653, 2, 0]]
    }, 
    {
      "op": "elemwise_mul", 
      "name": "_mul407", 
      "inputs": [[657, 0, 0], [658, 0, 0]]
    }, 
    {
      "op": "elemwise_add", 
      "name": "lstm_l1_t23_state", 
      "inputs": [[656, 0, 0], [659, 0, 0]]
    }, 
    {
      "op": "Activation", 
      "name": "activation203", 
      "attrs": {"act_type": "tanh"}, 
      "inputs": [[660, 0, 0]]
    }, 
    {
      "op": "elemwise_mul", 
      "name": "lstm_l1_t23_out", 
      "inputs": [[654, 0, 0], [661, 0, 0]]
    }, 
    {
      "op": "expand_dims", 
      "name": "expand_dims83", 
      "attrs": {"axis": "1"}, 
      "inputs": [[662, 0, 0]]
    }, 
    {
      "op": "FullyConnected", 
      "name": "lstm_l0_t24_i2h", 
      "attrs": {"num_hidden": "800"}, 
      "inputs": [[3, 24, 0], [4, 0, 0], [5, 0, 0]]
    }, 
    {
      "op": "FullyConnected", 
      "name": "lstm_l0_t24_h2h", 
      "attrs": {"num_hidden": "800"}, 
      "inputs": [[649, 0, 0], [8, 0, 0], [9, 0, 0]]
    }, 
    {
      "op": "elemwise_add", 
      "name": "_plus144", 
      "inputs": [[664, 0, 0], [665, 0, 0]]
    }, 
    {
      "op": "SliceChannel", 
      "name": "lstm_l0_t24_slice", 
      "attrs": {"num_outputs": "4"}, 
      "inputs": [[666, 0, 0]]
    }, 
    {
      "op": "Activation", 
      "name": "lstm_l0_t24_o", 
      "attrs": {"act_type": "sigmoid"}, 
      "inputs": [[667, 3, 0]]
    }, 
    {
      "op": "Activation", 
      "name": "lstm_l0_t24_f", 
      "attrs": {"act_type": "sigmoid"}, 
      "inputs": [[667, 1, 0]]
    }, 
    {
      "op": "elemwise_mul", 
      "name": "_mul288", 
      "inputs": [[669, 0, 0], [647, 0, 0]]
    }, 
    {
      "op": "Activation", 
      "name": "lstm_l0_t24_i", 
      "attrs": {"act_type": "sigmoid"}, 
      "inputs": [[667, 0, 0]]
    }, 
    {
      "op": "Activation", 
      "name": "lstm_l0_t24_c", 
      "attrs": {"act_type": "tanh"}, 
      "inputs": [[667, 2, 0]]
    }, 
    {
      "op": "elemwise_mul", 
      "name": "_mul289", 
      "inputs": [[671, 0, 0], [672, 0, 0]]
    }, 
    {
      "op": "elemwise_add", 
      "name": "lstm_l0_t24_state", 
      "inputs": [[670, 0, 0], [673, 0, 0]]
    }, 
    {
      "op": "Activation", 
      "name": "activation144", 
      "attrs": {"act_type": "tanh"}, 
      "inputs": [[674, 0, 0]]
    }, 
    {
      "op": "elemwise_mul", 
      "name": "lstm_l0_t24_out", 
      "inputs": [[668, 0, 0], [675, 0, 0]]
    }, 
    {
      "op": "FullyConnected", 
      "name": "lstm_l1_t24_i2h", 
      "attrs": {"num_hidden": "800"}, 
      "inputs": [[676, 0, 0], [23, 0, 0], [24, 0, 0]]
    }, 
    {
      "op": "FullyConnected", 
      "name": "lstm_l1_t24_h2h", 
      "attrs": {"num_hidden": "800"}, 
      "inputs": [[662, 0, 0], [27, 0, 0], [28, 0, 0]]
    }, 
    {
      "op": "elemwise_add", 
      "name": "_plus204", 
      "inputs": [[677, 0, 0], [678, 0, 0]]
    }, 
    {
      "op": "SliceChannel", 
      "name": "lstm_l1_t24_slice", 
      "attrs": {"num_outputs": "4"}, 
      "inputs": [[679, 0, 0]]
    }, 
    {
      "op": "Activation", 
      "name": "lstm_l1_t24_o", 
      "attrs": {"act_type": "sigmoid"}, 
      "inputs": [[680, 3, 0]]
    }, 
    {
      "op": "Activation", 
      "name": "lstm_l1_t24_f", 
      "attrs": {"act_type": "sigmoid"}, 
      "inputs": [[680, 1, 0]]
    }, 
    {
      "op": "elemwise_mul", 
      "name": "_mul408", 
      "inputs": [[682, 0, 0], [660, 0, 0]]
    }, 
    {
      "op": "Activation", 
      "name": "lstm_l1_t24_i", 
      "attrs": {"act_type": "sigmoid"}, 
      "inputs": [[680, 0, 0]]
    }, 
    {
      "op": "Activation", 
      "name": "lstm_l1_t24_c", 
      "attrs": {"act_type": "tanh"}, 
      "inputs": [[680, 2, 0]]
    }, 
    {
      "op": "elemwise_mul", 
      "name": "_mul409", 
      "inputs": [[684, 0, 0], [685, 0, 0]]
    }, 
    {
      "op": "elemwise_add", 
      "name": "lstm_l1_t24_state", 
      "inputs": [[683, 0, 0], [686, 0, 0]]
    }, 
    {
      "op": "Activation", 
      "name": "activation204", 
      "attrs": {"act_type": "tanh"}, 
      "inputs": [[687, 0, 0]]
    }, 
    {
      "op": "elemwise_mul", 
      "name": "lstm_l1_t24_out", 
      "inputs": [[681, 0, 0], [688, 0, 0]]
    }, 
    {
      "op": "expand_dims", 
      "name": "expand_dims84", 
      "attrs": {"axis": "1"}, 
      "inputs": [[689, 0, 0]]
    }, 
    {
      "op": "FullyConnected", 
      "name": "lstm_l0_t25_i2h", 
      "attrs": {"num_hidden": "800"}, 
      "inputs": [[3, 25, 0], [4, 0, 0], [5, 0, 0]]
    }, 
    {
      "op": "FullyConnected", 
      "name": "lstm_l0_t25_h2h", 
      "attrs": {"num_hidden": "800"}, 
      "inputs": [[676, 0, 0], [8, 0, 0], [9, 0, 0]]
    }, 
    {
      "op": "elemwise_add", 
      "name": "_plus145", 
      "inputs": [[691, 0, 0], [692, 0, 0]]
    }, 
    {
      "op": "SliceChannel", 
      "name": "lstm_l0_t25_slice", 
      "attrs": {"num_outputs": "4"}, 
      "inputs": [[693, 0, 0]]
    }, 
    {
      "op": "Activation", 
      "name": "lstm_l0_t25_o", 
      "attrs": {"act_type": "sigmoid"}, 
      "inputs": [[694, 3, 0]]
    }, 
    {
      "op": "Activation", 
      "name": "lstm_l0_t25_f", 
      "attrs": {"act_type": "sigmoid"}, 
      "inputs": [[694, 1, 0]]
    }, 
    {
      "op": "elemwise_mul", 
      "name": "_mul290", 
      "inputs": [[696, 0, 0], [674, 0, 0]]
    }, 
    {
      "op": "Activation", 
      "name": "lstm_l0_t25_i", 
      "attrs": {"act_type": "sigmoid"}, 
      "inputs": [[694, 0, 0]]
    }, 
    {
      "op": "Activation", 
      "name": "lstm_l0_t25_c", 
      "attrs": {"act_type": "tanh"}, 
      "inputs": [[694, 2, 0]]
    }, 
    {
      "op": "elemwise_mul", 
      "name": "_mul291", 
      "inputs": [[698, 0, 0], [699, 0, 0]]
    }, 
    {
      "op": "elemwise_add", 
      "name": "lstm_l0_t25_state", 
      "inputs": [[697, 0, 0], [700, 0, 0]]
    }, 
    {
      "op": "Activation", 
      "name": "activation145", 
      "attrs": {"act_type": "tanh"}, 
      "inputs": [[701, 0, 0]]
    }, 
    {
      "op": "elemwise_mul", 
      "name": "lstm_l0_t25_out", 
      "inputs": [[695, 0, 0], [702, 0, 0]]
    }, 
    {
      "op": "FullyConnected", 
      "name": "lstm_l1_t25_i2h", 
      "attrs": {"num_hidden": "800"}, 
      "inputs": [[703, 0, 0], [23, 0, 0], [24, 0, 0]]
    }, 
    {
      "op": "FullyConnected", 
      "name": "lstm_l1_t25_h2h", 
      "attrs": {"num_hidden": "800"}, 
      "inputs": [[689, 0, 0], [27, 0, 0], [28, 0, 0]]
    }, 
    {
      "op": "elemwise_add", 
      "name": "_plus205", 
      "inputs": [[704, 0, 0], [705, 0, 0]]
    }, 
    {
      "op": "SliceChannel", 
      "name": "lstm_l1_t25_slice", 
      "attrs": {"num_outputs": "4"}, 
      "inputs": [[706, 0, 0]]
    }, 
    {
      "op": "Activation", 
      "name": "lstm_l1_t25_o", 
      "attrs": {"act_type": "sigmoid"}, 
      "inputs": [[707, 3, 0]]
    }, 
    {
      "op": "Activation", 
      "name": "lstm_l1_t25_f", 
      "attrs": {"act_type": "sigmoid"}, 
      "inputs": [[707, 1, 0]]
    }, 
    {
      "op": "elemwise_mul", 
      "name": "_mul410", 
      "inputs": [[709, 0, 0], [687, 0, 0]]
    }, 
    {
      "op": "Activation", 
      "name": "lstm_l1_t25_i", 
      "attrs": {"act_type": "sigmoid"}, 
      "inputs": [[707, 0, 0]]
    }, 
    {
      "op": "Activation", 
      "name": "lstm_l1_t25_c", 
      "attrs": {"act_type": "tanh"}, 
      "inputs": [[707, 2, 0]]
    }, 
    {
      "op": "elemwise_mul", 
      "name": "_mul411", 
      "inputs": [[711, 0, 0], [712, 0, 0]]
    }, 
    {
      "op": "elemwise_add", 
      "name": "lstm_l1_t25_state", 
      "inputs": [[710, 0, 0], [713, 0, 0]]
    }, 
    {
      "op": "Activation", 
      "name": "activation205", 
      "attrs": {"act_type": "tanh"}, 
      "inputs": [[714, 0, 0]]
    }, 
    {
      "op": "elemwise_mul", 
      "name": "lstm_l1_t25_out", 
      "inputs": [[708, 0, 0], [715, 0, 0]]
    }, 
    {
      "op": "expand_dims", 
      "name": "expand_dims85", 
      "attrs": {"axis": "1"}, 
      "inputs": [[716, 0, 0]]
    }, 
    {
      "op": "FullyConnected", 
      "name": "lstm_l0_t26_i2h", 
      "attrs": {"num_hidden": "800"}, 
      "inputs": [[3, 26, 0], [4, 0, 0], [5, 0, 0]]
    }, 
    {
      "op": "FullyConnected", 
      "name": "lstm_l0_t26_h2h", 
      "attrs": {"num_hidden": "800"}, 
      "inputs": [[703, 0, 0], [8, 0, 0], [9, 0, 0]]
    }, 
    {
      "op": "elemwise_add", 
      "name": "_plus146", 
      "inputs": [[718, 0, 0], [719, 0, 0]]
    }, 
    {
      "op": "SliceChannel", 
      "name": "lstm_l0_t26_slice", 
      "attrs": {"num_outputs": "4"}, 
      "inputs": [[720, 0, 0]]
    }, 
    {
      "op": "Activation", 
      "name": "lstm_l0_t26_o", 
      "attrs": {"act_type": "sigmoid"}, 
      "inputs": [[721, 3, 0]]
    }, 
    {
      "op": "Activation", 
      "name": "lstm_l0_t26_f", 
      "attrs": {"act_type": "sigmoid"}, 
      "inputs": [[721, 1, 0]]
    }, 
    {
      "op": "elemwise_mul", 
      "name": "_mul292", 
      "inputs": [[723, 0, 0], [701, 0, 0]]
    }, 
    {
      "op": "Activation", 
      "name": "lstm_l0_t26_i", 
      "attrs": {"act_type": "sigmoid"}, 
      "inputs": [[721, 0, 0]]
    }, 
    {
      "op": "Activation", 
      "name": "lstm_l0_t26_c", 
      "attrs": {"act_type": "tanh"}, 
      "inputs": [[721, 2, 0]]
    }, 
    {
      "op": "elemwise_mul", 
      "name": "_mul293", 
      "inputs": [[725, 0, 0], [726, 0, 0]]
    }, 
    {
      "op": "elemwise_add", 
      "name": "lstm_l0_t26_state", 
      "inputs": [[724, 0, 0], [727, 0, 0]]
    }, 
    {
      "op": "Activation", 
      "name": "activation146", 
      "attrs": {"act_type": "tanh"}, 
      "inputs": [[728, 0, 0]]
    }, 
    {
      "op": "elemwise_mul", 
      "name": "lstm_l0_t26_out", 
      "inputs": [[722, 0, 0], [729, 0, 0]]
    }, 
    {
      "op": "FullyConnected", 
      "name": "lstm_l1_t26_i2h", 
      "attrs": {"num_hidden": "800"}, 
      "inputs": [[730, 0, 0], [23, 0, 0], [24, 0, 0]]
    }, 
    {
      "op": "FullyConnected", 
      "name": "lstm_l1_t26_h2h", 
      "attrs": {"num_hidden": "800"}, 
      "inputs": [[716, 0, 0], [27, 0, 0], [28, 0, 0]]
    }, 
    {
      "op": "elemwise_add", 
      "name": "_plus206", 
      "inputs": [[731, 0, 0], [732, 0, 0]]
    }, 
    {
      "op": "SliceChannel", 
      "name": "lstm_l1_t26_slice", 
      "attrs": {"num_outputs": "4"}, 
      "inputs": [[733, 0, 0]]
    }, 
    {
      "op": "Activation", 
      "name": "lstm_l1_t26_o", 
      "attrs": {"act_type": "sigmoid"}, 
      "inputs": [[734, 3, 0]]
    }, 
    {
      "op": "Activation", 
      "name": "lstm_l1_t26_f", 
      "attrs": {"act_type": "sigmoid"}, 
      "inputs": [[734, 1, 0]]
    }, 
    {
      "op": "elemwise_mul", 
      "name": "_mul412", 
      "inputs": [[736, 0, 0], [714, 0, 0]]
    }, 
    {
      "op": "Activation", 
      "name": "lstm_l1_t26_i", 
      "attrs": {"act_type": "sigmoid"}, 
      "inputs": [[734, 0, 0]]
    }, 
    {
      "op": "Activation", 
      "name": "lstm_l1_t26_c", 
      "attrs": {"act_type": "tanh"}, 
      "inputs": [[734, 2, 0]]
    }, 
    {
      "op": "elemwise_mul", 
      "name": "_mul413", 
      "inputs": [[738, 0, 0], [739, 0, 0]]
    }, 
    {
      "op": "elemwise_add", 
      "name": "lstm_l1_t26_state", 
      "inputs": [[737, 0, 0], [740, 0, 0]]
    }, 
    {
      "op": "Activation", 
      "name": "activation206", 
      "attrs": {"act_type": "tanh"}, 
      "inputs": [[741, 0, 0]]
    }, 
    {
      "op": "elemwise_mul", 
      "name": "lstm_l1_t26_out", 
      "inputs": [[735, 0, 0], [742, 0, 0]]
    }, 
    {
      "op": "expand_dims", 
      "name": "expand_dims86", 
      "attrs": {"axis": "1"}, 
      "inputs": [[743, 0, 0]]
    }, 
    {
      "op": "FullyConnected", 
      "name": "lstm_l0_t27_i2h", 
      "attrs": {"num_hidden": "800"}, 
      "inputs": [[3, 27, 0], [4, 0, 0], [5, 0, 0]]
    }, 
    {
      "op": "FullyConnected", 
      "name": "lstm_l0_t27_h2h", 
      "attrs": {"num_hidden": "800"}, 
      "inputs": [[730, 0, 0], [8, 0, 0], [9, 0, 0]]
    }, 
    {
      "op": "elemwise_add", 
      "name": "_plus147", 
      "inputs": [[745, 0, 0], [746, 0, 0]]
    }, 
    {
      "op": "SliceChannel", 
      "name": "lstm_l0_t27_slice", 
      "attrs": {"num_outputs": "4"}, 
      "inputs": [[747, 0, 0]]
    }, 
    {
      "op": "Activation", 
      "name": "lstm_l0_t27_o", 
      "attrs": {"act_type": "sigmoid"}, 
      "inputs": [[748, 3, 0]]
    }, 
    {
      "op": "Activation", 
      "name": "lstm_l0_t27_f", 
      "attrs": {"act_type": "sigmoid"}, 
      "inputs": [[748, 1, 0]]
    }, 
    {
      "op": "elemwise_mul", 
      "name": "_mul294", 
      "inputs": [[750, 0, 0], [728, 0, 0]]
    }, 
    {
      "op": "Activation", 
      "name": "lstm_l0_t27_i", 
      "attrs": {"act_type": "sigmoid"}, 
      "inputs": [[748, 0, 0]]
    }, 
    {
      "op": "Activation", 
      "name": "lstm_l0_t27_c", 
      "attrs": {"act_type": "tanh"}, 
      "inputs": [[748, 2, 0]]
    }, 
    {
      "op": "elemwise_mul", 
      "name": "_mul295", 
      "inputs": [[752, 0, 0], [753, 0, 0]]
    }, 
    {
      "op": "elemwise_add", 
      "name": "lstm_l0_t27_state", 
      "inputs": [[751, 0, 0], [754, 0, 0]]
    }, 
    {
      "op": "Activation", 
      "name": "activation147", 
      "attrs": {"act_type": "tanh"}, 
      "inputs": [[755, 0, 0]]
    }, 
    {
      "op": "elemwise_mul", 
      "name": "lstm_l0_t27_out", 
      "inputs": [[749, 0, 0], [756, 0, 0]]
    }, 
    {
      "op": "FullyConnected", 
      "name": "lstm_l1_t27_i2h", 
      "attrs": {"num_hidden": "800"}, 
      "inputs": [[757, 0, 0], [23, 0, 0], [24, 0, 0]]
    }, 
    {
      "op": "FullyConnected", 
      "name": "lstm_l1_t27_h2h", 
      "attrs": {"num_hidden": "800"}, 
      "inputs": [[743, 0, 0], [27, 0, 0], [28, 0, 0]]
    }, 
    {
      "op": "elemwise_add", 
      "name": "_plus207", 
      "inputs": [[758, 0, 0], [759, 0, 0]]
    }, 
    {
      "op": "SliceChannel", 
      "name": "lstm_l1_t27_slice", 
      "attrs": {"num_outputs": "4"}, 
      "inputs": [[760, 0, 0]]
    }, 
    {
      "op": "Activation", 
      "name": "lstm_l1_t27_o", 
      "attrs": {"act_type": "sigmoid"}, 
      "inputs": [[761, 3, 0]]
    }, 
    {
      "op": "Activation", 
      "name": "lstm_l1_t27_f", 
      "attrs": {"act_type": "sigmoid"}, 
      "inputs": [[761, 1, 0]]
    }, 
    {
      "op": "elemwise_mul", 
      "name": "_mul414", 
      "inputs": [[763, 0, 0], [741, 0, 0]]
    }, 
    {
      "op": "Activation", 
      "name": "lstm_l1_t27_i", 
      "attrs": {"act_type": "sigmoid"}, 
      "inputs": [[761, 0, 0]]
    }, 
    {
      "op": "Activation", 
      "name": "lstm_l1_t27_c", 
      "attrs": {"act_type": "tanh"}, 
      "inputs": [[761, 2, 0]]
    }, 
    {
      "op": "elemwise_mul", 
      "name": "_mul415", 
      "inputs": [[765, 0, 0], [766, 0, 0]]
    }, 
    {
      "op": "elemwise_add", 
      "name": "lstm_l1_t27_state", 
      "inputs": [[764, 0, 0], [767, 0, 0]]
    }, 
    {
      "op": "Activation", 
      "name": "activation207", 
      "attrs": {"act_type": "tanh"}, 
      "inputs": [[768, 0, 0]]
    }, 
    {
      "op": "elemwise_mul", 
      "name": "lstm_l1_t27_out", 
      "inputs": [[762, 0, 0], [769, 0, 0]]
    }, 
    {
      "op": "expand_dims", 
      "name": "expand_dims87", 
      "attrs": {"axis": "1"}, 
      "inputs": [[770, 0, 0]]
    }, 
    {
      "op": "FullyConnected", 
      "name": "lstm_l0_t28_i2h", 
      "attrs": {"num_hidden": "800"}, 
      "inputs": [[3, 28, 0], [4, 0, 0], [5, 0, 0]]
    }, 
    {
      "op": "FullyConnected", 
      "name": "lstm_l0_t28_h2h", 
      "attrs": {"num_hidden": "800"}, 
      "inputs": [[757, 0, 0], [8, 0, 0], [9, 0, 0]]
    }, 
    {
      "op": "elemwise_add", 
      "name": "_plus148", 
      "inputs": [[772, 0, 0], [773, 0, 0]]
    }, 
    {
      "op": "SliceChannel", 
      "name": "lstm_l0_t28_slice", 
      "attrs": {"num_outputs": "4"}, 
      "inputs": [[774, 0, 0]]
    }, 
    {
      "op": "Activation", 
      "name": "lstm_l0_t28_o", 
      "attrs": {"act_type": "sigmoid"}, 
      "inputs": [[775, 3, 0]]
    }, 
    {
      "op": "Activation", 
      "name": "lstm_l0_t28_f", 
      "attrs": {"act_type": "sigmoid"}, 
      "inputs": [[775, 1, 0]]
    }, 
    {
      "op": "elemwise_mul", 
      "name": "_mul296", 
      "inputs": [[777, 0, 0], [755, 0, 0]]
    }, 
    {
      "op": "Activation", 
      "name": "lstm_l0_t28_i", 
      "attrs": {"act_type": "sigmoid"}, 
      "inputs": [[775, 0, 0]]
    }, 
    {
      "op": "Activation", 
      "name": "lstm_l0_t28_c", 
      "attrs": {"act_type": "tanh"}, 
      "inputs": [[775, 2, 0]]
    }, 
    {
      "op": "elemwise_mul", 
      "name": "_mul297", 
      "inputs": [[779, 0, 0], [780, 0, 0]]
    }, 
    {
      "op": "elemwise_add", 
      "name": "lstm_l0_t28_state", 
      "inputs": [[778, 0, 0], [781, 0, 0]]
    }, 
    {
      "op": "Activation", 
      "name": "activation148", 
      "attrs": {"act_type": "tanh"}, 
      "inputs": [[782, 0, 0]]
    }, 
    {
      "op": "elemwise_mul", 
      "name": "lstm_l0_t28_out", 
      "inputs": [[776, 0, 0], [783, 0, 0]]
    }, 
    {
      "op": "FullyConnected", 
      "name": "lstm_l1_t28_i2h", 
      "attrs": {"num_hidden": "800"}, 
      "inputs": [[784, 0, 0], [23, 0, 0], [24, 0, 0]]
    }, 
    {
      "op": "FullyConnected", 
      "name": "lstm_l1_t28_h2h", 
      "attrs": {"num_hidden": "800"}, 
      "inputs": [[770, 0, 0], [27, 0, 0], [28, 0, 0]]
    }, 
    {
      "op": "elemwise_add", 
      "name": "_plus208", 
      "inputs": [[785, 0, 0], [786, 0, 0]]
    }, 
    {
      "op": "SliceChannel", 
      "name": "lstm_l1_t28_slice", 
      "attrs": {"num_outputs": "4"}, 
      "inputs": [[787, 0, 0]]
    }, 
    {
      "op": "Activation", 
      "name": "lstm_l1_t28_o", 
      "attrs": {"act_type": "sigmoid"}, 
      "inputs": [[788, 3, 0]]
    }, 
    {
      "op": "Activation", 
      "name": "lstm_l1_t28_f", 
      "attrs": {"act_type": "sigmoid"}, 
      "inputs": [[788, 1, 0]]
    }, 
    {
      "op": "elemwise_mul", 
      "name": "_mul416", 
      "inputs": [[790, 0, 0], [768, 0, 0]]
    }, 
    {
      "op": "Activation", 
      "name": "lstm_l1_t28_i", 
      "attrs": {"act_type": "sigmoid"}, 
      "inputs": [[788, 0, 0]]
    }, 
    {
      "op": "Activation", 
      "name": "lstm_l1_t28_c", 
      "attrs": {"act_type": "tanh"}, 
      "inputs": [[788, 2, 0]]
    }, 
    {
      "op": "elemwise_mul", 
      "name": "_mul417", 
      "inputs": [[792, 0, 0], [793, 0, 0]]
    }, 
    {
      "op": "elemwise_add", 
      "name": "lstm_l1_t28_state", 
      "inputs": [[791, 0, 0], [794, 0, 0]]
    }, 
    {
      "op": "Activation", 
      "name": "activation208", 
      "attrs": {"act_type": "tanh"}, 
      "inputs": [[795, 0, 0]]
    }, 
    {
      "op": "elemwise_mul", 
      "name": "lstm_l1_t28_out", 
      "inputs": [[789, 0, 0], [796, 0, 0]]
    }, 
    {
      "op": "expand_dims", 
      "name": "expand_dims88", 
      "attrs": {"axis": "1"}, 
      "inputs": [[797, 0, 0]]
    }, 
    {
      "op": "FullyConnected", 
      "name": "lstm_l0_t29_i2h", 
      "attrs": {"num_hidden": "800"}, 
      "inputs": [[3, 29, 0], [4, 0, 0], [5, 0, 0]]
    }, 
    {
      "op": "FullyConnected", 
      "name": "lstm_l0_t29_h2h", 
      "attrs": {"num_hidden": "800"}, 
      "inputs": [[784, 0, 0], [8, 0, 0], [9, 0, 0]]
    }, 
    {
      "op": "elemwise_add", 
      "name": "_plus149", 
      "inputs": [[799, 0, 0], [800, 0, 0]]
    }, 
    {
      "op": "SliceChannel", 
      "name": "lstm_l0_t29_slice", 
      "attrs": {"num_outputs": "4"}, 
      "inputs": [[801, 0, 0]]
    }, 
    {
      "op": "Activation", 
      "name": "lstm_l0_t29_o", 
      "attrs": {"act_type": "sigmoid"}, 
      "inputs": [[802, 3, 0]]
    }, 
    {
      "op": "Activation", 
      "name": "lstm_l0_t29_f", 
      "attrs": {"act_type": "sigmoid"}, 
      "inputs": [[802, 1, 0]]
    }, 
    {
      "op": "elemwise_mul", 
      "name": "_mul298", 
      "inputs": [[804, 0, 0], [782, 0, 0]]
    }, 
    {
      "op": "Activation", 
      "name": "lstm_l0_t29_i", 
      "attrs": {"act_type": "sigmoid"}, 
      "inputs": [[802, 0, 0]]
    }, 
    {
      "op": "Activation", 
      "name": "lstm_l0_t29_c", 
      "attrs": {"act_type": "tanh"}, 
      "inputs": [[802, 2, 0]]
    }, 
    {
      "op": "elemwise_mul", 
      "name": "_mul299", 
      "inputs": [[806, 0, 0], [807, 0, 0]]
    }, 
    {
      "op": "elemwise_add", 
      "name": "lstm_l0_t29_state", 
      "inputs": [[805, 0, 0], [808, 0, 0]]
    }, 
    {
      "op": "Activation", 
      "name": "activation149", 
      "attrs": {"act_type": "tanh"}, 
      "inputs": [[809, 0, 0]]
    }, 
    {
      "op": "elemwise_mul", 
      "name": "lstm_l0_t29_out", 
      "inputs": [[803, 0, 0], [810, 0, 0]]
    }, 
    {
      "op": "FullyConnected", 
      "name": "lstm_l1_t29_i2h", 
      "attrs": {"num_hidden": "800"}, 
      "inputs": [[811, 0, 0], [23, 0, 0], [24, 0, 0]]
    }, 
    {
      "op": "FullyConnected", 
      "name": "lstm_l1_t29_h2h", 
      "attrs": {"num_hidden": "800"}, 
      "inputs": [[797, 0, 0], [27, 0, 0], [28, 0, 0]]
    }, 
    {
      "op": "elemwise_add", 
      "name": "_plus209", 
      "inputs": [[812, 0, 0], [813, 0, 0]]
    }, 
    {
      "op": "SliceChannel", 
      "name": "lstm_l1_t29_slice", 
      "attrs": {"num_outputs": "4"}, 
      "inputs": [[814, 0, 0]]
    }, 
    {
      "op": "Activation", 
      "name": "lstm_l1_t29_o", 
      "attrs": {"act_type": "sigmoid"}, 
      "inputs": [[815, 3, 0]]
    }, 
    {
      "op": "Activation", 
      "name": "lstm_l1_t29_f", 
      "attrs": {"act_type": "sigmoid"}, 
      "inputs": [[815, 1, 0]]
    }, 
    {
      "op": "elemwise_mul", 
      "name": "_mul418", 
      "inputs": [[817, 0, 0], [795, 0, 0]]
    }, 
    {
      "op": "Activation", 
      "name": "lstm_l1_t29_i", 
      "attrs": {"act_type": "sigmoid"}, 
      "inputs": [[815, 0, 0]]
    }, 
    {
      "op": "Activation", 
      "name": "lstm_l1_t29_c", 
      "attrs": {"act_type": "tanh"}, 
      "inputs": [[815, 2, 0]]
    }, 
    {
      "op": "elemwise_mul", 
      "name": "_mul419", 
      "inputs": [[819, 0, 0], [820, 0, 0]]
    }, 
    {
      "op": "elemwise_add", 
      "name": "lstm_l1_t29_state", 
      "inputs": [[818, 0, 0], [821, 0, 0]]
    }, 
    {
      "op": "Activation", 
      "name": "activation209", 
      "attrs": {"act_type": "tanh"}, 
      "inputs": [[822, 0, 0]]
    }, 
    {
      "op": "elemwise_mul", 
      "name": "lstm_l1_t29_out", 
      "inputs": [[816, 0, 0], [823, 0, 0]]
    }, 
    {
      "op": "expand_dims", 
      "name": "expand_dims89", 
      "attrs": {"axis": "1"}, 
      "inputs": [[824, 0, 0]]
    }, 
    {
      "op": "FullyConnected", 
      "name": "lstm_l0_t30_i2h", 
      "attrs": {"num_hidden": "800"}, 
      "inputs": [[3, 30, 0], [4, 0, 0], [5, 0, 0]]
    }, 
    {
      "op": "FullyConnected", 
      "name": "lstm_l0_t30_h2h", 
      "attrs": {"num_hidden": "800"}, 
      "inputs": [[811, 0, 0], [8, 0, 0], [9, 0, 0]]
    }, 
    {
      "op": "elemwise_add", 
      "name": "_plus150", 
      "inputs": [[826, 0, 0], [827, 0, 0]]
    }, 
    {
      "op": "SliceChannel", 
      "name": "lstm_l0_t30_slice", 
      "attrs": {"num_outputs": "4"}, 
      "inputs": [[828, 0, 0]]
    }, 
    {
      "op": "Activation", 
      "name": "lstm_l0_t30_o", 
      "attrs": {"act_type": "sigmoid"}, 
      "inputs": [[829, 3, 0]]
    }, 
    {
      "op": "Activation", 
      "name": "lstm_l0_t30_f", 
      "attrs": {"act_type": "sigmoid"}, 
      "inputs": [[829, 1, 0]]
    }, 
    {
      "op": "elemwise_mul", 
      "name": "_mul300", 
      "inputs": [[831, 0, 0], [809, 0, 0]]
    }, 
    {
      "op": "Activation", 
      "name": "lstm_l0_t30_i", 
      "attrs": {"act_type": "sigmoid"}, 
      "inputs": [[829, 0, 0]]
    }, 
    {
      "op": "Activation", 
      "name": "lstm_l0_t30_c", 
      "attrs": {"act_type": "tanh"}, 
      "inputs": [[829, 2, 0]]
    }, 
    {
      "op": "elemwise_mul", 
      "name": "_mul301", 
      "inputs": [[833, 0, 0], [834, 0, 0]]
    }, 
    {
      "op": "elemwise_add", 
      "name": "lstm_l0_t30_state", 
      "inputs": [[832, 0, 0], [835, 0, 0]]
    }, 
    {
      "op": "Activation", 
      "name": "activation150", 
      "attrs": {"act_type": "tanh"}, 
      "inputs": [[836, 0, 0]]
    }, 
    {
      "op": "elemwise_mul", 
      "name": "lstm_l0_t30_out", 
      "inputs": [[830, 0, 0], [837, 0, 0]]
    }, 
    {
      "op": "FullyConnected", 
      "name": "lstm_l1_t30_i2h", 
      "attrs": {"num_hidden": "800"}, 
      "inputs": [[838, 0, 0], [23, 0, 0], [24, 0, 0]]
    }, 
    {
      "op": "FullyConnected", 
      "name": "lstm_l1_t30_h2h", 
      "attrs": {"num_hidden": "800"}, 
      "inputs": [[824, 0, 0], [27, 0, 0], [28, 0, 0]]
    }, 
    {
      "op": "elemwise_add", 
      "name": "_plus210", 
      "inputs": [[839, 0, 0], [840, 0, 0]]
    }, 
    {
      "op": "SliceChannel", 
      "name": "lstm_l1_t30_slice", 
      "attrs": {"num_outputs": "4"}, 
      "inputs": [[841, 0, 0]]
    }, 
    {
      "op": "Activation", 
      "name": "lstm_l1_t30_o", 
      "attrs": {"act_type": "sigmoid"}, 
      "inputs": [[842, 3, 0]]
    }, 
    {
      "op": "Activation", 
      "name": "lstm_l1_t30_f", 
      "attrs": {"act_type": "sigmoid"}, 
      "inputs": [[842, 1, 0]]
    }, 
    {
      "op": "elemwise_mul", 
      "name": "_mul420", 
      "inputs": [[844, 0, 0], [822, 0, 0]]
    }, 
    {
      "op": "Activation", 
      "name": "lstm_l1_t30_i", 
      "attrs": {"act_type": "sigmoid"}, 
      "inputs": [[842, 0, 0]]
    }, 
    {
      "op": "Activation", 
      "name": "lstm_l1_t30_c", 
      "attrs": {"act_type": "tanh"}, 
      "inputs": [[842, 2, 0]]
    }, 
    {
      "op": "elemwise_mul", 
      "name": "_mul421", 
      "inputs": [[846, 0, 0], [847, 0, 0]]
    }, 
    {
      "op": "elemwise_add", 
      "name": "lstm_l1_t30_state", 
      "inputs": [[845, 0, 0], [848, 0, 0]]
    }, 
    {
      "op": "Activation", 
      "name": "activation210", 
      "attrs": {"act_type": "tanh"}, 
      "inputs": [[849, 0, 0]]
    }, 
    {
      "op": "elemwise_mul", 
      "name": "lstm_l1_t30_out", 
      "inputs": [[843, 0, 0], [850, 0, 0]]
    }, 
    {
      "op": "expand_dims", 
      "name": "expand_dims90", 
      "attrs": {"axis": "1"}, 
      "inputs": [[851, 0, 0]]
    }, 
    {
      "op": "FullyConnected", 
      "name": "lstm_l0_t31_i2h", 
      "attrs": {"num_hidden": "800"}, 
      "inputs": [[3, 31, 0], [4, 0, 0], [5, 0, 0]]
    }, 
    {
      "op": "FullyConnected", 
      "name": "lstm_l0_t31_h2h", 
      "attrs": {"num_hidden": "800"}, 
      "inputs": [[838, 0, 0], [8, 0, 0], [9, 0, 0]]
    }, 
    {
      "op": "elemwise_add", 
      "name": "_plus151", 
      "inputs": [[853, 0, 0], [854, 0, 0]]
    }, 
    {
      "op": "SliceChannel", 
      "name": "lstm_l0_t31_slice", 
      "attrs": {"num_outputs": "4"}, 
      "inputs": [[855, 0, 0]]
    }, 
    {
      "op": "Activation", 
      "name": "lstm_l0_t31_o", 
      "attrs": {"act_type": "sigmoid"}, 
      "inputs": [[856, 3, 0]]
    }, 
    {
      "op": "Activation", 
      "name": "lstm_l0_t31_f", 
      "attrs": {"act_type": "sigmoid"}, 
      "inputs": [[856, 1, 0]]
    }, 
    {
      "op": "elemwise_mul", 
      "name": "_mul302", 
      "inputs": [[858, 0, 0], [836, 0, 0]]
    }, 
    {
      "op": "Activation", 
      "name": "lstm_l0_t31_i", 
      "attrs": {"act_type": "sigmoid"}, 
      "inputs": [[856, 0, 0]]
    }, 
    {
      "op": "Activation", 
      "name": "lstm_l0_t31_c", 
      "attrs": {"act_type": "tanh"}, 
      "inputs": [[856, 2, 0]]
    }, 
    {
      "op": "elemwise_mul", 
      "name": "_mul303", 
      "inputs": [[860, 0, 0], [861, 0, 0]]
    }, 
    {
      "op": "elemwise_add", 
      "name": "lstm_l0_t31_state", 
      "inputs": [[859, 0, 0], [862, 0, 0]]
    }, 
    {
      "op": "Activation", 
      "name": "activation151", 
      "attrs": {"act_type": "tanh"}, 
      "inputs": [[863, 0, 0]]
    }, 
    {
      "op": "elemwise_mul", 
      "name": "lstm_l0_t31_out", 
      "inputs": [[857, 0, 0], [864, 0, 0]]
    }, 
    {
      "op": "FullyConnected", 
      "name": "lstm_l1_t31_i2h", 
      "attrs": {"num_hidden": "800"}, 
      "inputs": [[865, 0, 0], [23, 0, 0], [24, 0, 0]]
    }, 
    {
      "op": "FullyConnected", 
      "name": "lstm_l1_t31_h2h", 
      "attrs": {"num_hidden": "800"}, 
      "inputs": [[851, 0, 0], [27, 0, 0], [28, 0, 0]]
    }, 
    {
      "op": "elemwise_add", 
      "name": "_plus211", 
      "inputs": [[866, 0, 0], [867, 0, 0]]
    }, 
    {
      "op": "SliceChannel", 
      "name": "lstm_l1_t31_slice", 
      "attrs": {"num_outputs": "4"}, 
      "inputs": [[868, 0, 0]]
    }, 
    {
      "op": "Activation", 
      "name": "lstm_l1_t31_o", 
      "attrs": {"act_type": "sigmoid"}, 
      "inputs": [[869, 3, 0]]
    }, 
    {
      "op": "Activation", 
      "name": "lstm_l1_t31_f", 
      "attrs": {"act_type": "sigmoid"}, 
      "inputs": [[869, 1, 0]]
    }, 
    {
      "op": "elemwise_mul", 
      "name": "_mul422", 
      "inputs": [[871, 0, 0], [849, 0, 0]]
    }, 
    {
      "op": "Activation", 
      "name": "lstm_l1_t31_i", 
      "attrs": {"act_type": "sigmoid"}, 
      "inputs": [[869, 0, 0]]
    }, 
    {
      "op": "Activation", 
      "name": "lstm_l1_t31_c", 
      "attrs": {"act_type": "tanh"}, 
      "inputs": [[869, 2, 0]]
    }, 
    {
      "op": "elemwise_mul", 
      "name": "_mul423", 
      "inputs": [[873, 0, 0], [874, 0, 0]]
    }, 
    {
      "op": "elemwise_add", 
      "name": "lstm_l1_t31_state", 
      "inputs": [[872, 0, 0], [875, 0, 0]]
    }, 
    {
      "op": "Activation", 
      "name": "activation211", 
      "attrs": {"act_type": "tanh"}, 
      "inputs": [[876, 0, 0]]
    }, 
    {
      "op": "elemwise_mul", 
      "name": "lstm_l1_t31_out", 
      "inputs": [[870, 0, 0], [877, 0, 0]]
    }, 
    {
      "op": "expand_dims", 
      "name": "expand_dims91", 
      "attrs": {"axis": "1"}, 
      "inputs": [[878, 0, 0]]
    }, 
    {
      "op": "FullyConnected", 
      "name": "lstm_l0_t32_i2h", 
      "attrs": {"num_hidden": "800"}, 
      "inputs": [[3, 32, 0], [4, 0, 0], [5, 0, 0]]
    }, 
    {
      "op": "FullyConnected", 
      "name": "lstm_l0_t32_h2h", 
      "attrs": {"num_hidden": "800"}, 
      "inputs": [[865, 0, 0], [8, 0, 0], [9, 0, 0]]
    }, 
    {
      "op": "elemwise_add", 
      "name": "_plus152", 
      "inputs": [[880, 0, 0], [881, 0, 0]]
    }, 
    {
      "op": "SliceChannel", 
      "name": "lstm_l0_t32_slice", 
      "attrs": {"num_outputs": "4"}, 
      "inputs": [[882, 0, 0]]
    }, 
    {
      "op": "Activation", 
      "name": "lstm_l0_t32_o", 
      "attrs": {"act_type": "sigmoid"}, 
      "inputs": [[883, 3, 0]]
    }, 
    {
      "op": "Activation", 
      "name": "lstm_l0_t32_f", 
      "attrs": {"act_type": "sigmoid"}, 
      "inputs": [[883, 1, 0]]
    }, 
    {
      "op": "elemwise_mul", 
      "name": "_mul304", 
      "inputs": [[885, 0, 0], [863, 0, 0]]
    }, 
    {
      "op": "Activation", 
      "name": "lstm_l0_t32_i", 
      "attrs": {"act_type": "sigmoid"}, 
      "inputs": [[883, 0, 0]]
    }, 
    {
      "op": "Activation", 
      "name": "lstm_l0_t32_c", 
      "attrs": {"act_type": "tanh"}, 
      "inputs": [[883, 2, 0]]
    }, 
    {
      "op": "elemwise_mul", 
      "name": "_mul305", 
      "inputs": [[887, 0, 0], [888, 0, 0]]
    }, 
    {
      "op": "elemwise_add", 
      "name": "lstm_l0_t32_state", 
      "inputs": [[886, 0, 0], [889, 0, 0]]
    }, 
    {
      "op": "Activation", 
      "name": "activation152", 
      "attrs": {"act_type": "tanh"}, 
      "inputs": [[890, 0, 0]]
    }, 
    {
      "op": "elemwise_mul", 
      "name": "lstm_l0_t32_out", 
      "inputs": [[884, 0, 0], [891, 0, 0]]
    }, 
    {
      "op": "FullyConnected", 
      "name": "lstm_l1_t32_i2h", 
      "attrs": {"num_hidden": "800"}, 
      "inputs": [[892, 0, 0], [23, 0, 0], [24, 0, 0]]
    }, 
    {
      "op": "FullyConnected", 
      "name": "lstm_l1_t32_h2h", 
      "attrs": {"num_hidden": "800"}, 
      "inputs": [[878, 0, 0], [27, 0, 0], [28, 0, 0]]
    }, 
    {
      "op": "elemwise_add", 
      "name": "_plus212", 
      "inputs": [[893, 0, 0], [894, 0, 0]]
    }, 
    {
      "op": "SliceChannel", 
      "name": "lstm_l1_t32_slice", 
      "attrs": {"num_outputs": "4"}, 
      "inputs": [[895, 0, 0]]
    }, 
    {
      "op": "Activation", 
      "name": "lstm_l1_t32_o", 
      "attrs": {"act_type": "sigmoid"}, 
      "inputs": [[896, 3, 0]]
    }, 
    {
      "op": "Activation", 
      "name": "lstm_l1_t32_f", 
      "attrs": {"act_type": "sigmoid"}, 
      "inputs": [[896, 1, 0]]
    }, 
    {
      "op": "elemwise_mul", 
      "name": "_mul424", 
      "inputs": [[898, 0, 0], [876, 0, 0]]
    }, 
    {
      "op": "Activation", 
      "name": "lstm_l1_t32_i", 
      "attrs": {"act_type": "sigmoid"}, 
      "inputs": [[896, 0, 0]]
    }, 
    {
      "op": "Activation", 
      "name": "lstm_l1_t32_c", 
      "attrs": {"act_type": "tanh"}, 
      "inputs": [[896, 2, 0]]
    }, 
    {
      "op": "elemwise_mul", 
      "name": "_mul425", 
      "inputs": [[900, 0, 0], [901, 0, 0]]
    }, 
    {
      "op": "elemwise_add", 
      "name": "lstm_l1_t32_state", 
      "inputs": [[899, 0, 0], [902, 0, 0]]
    }, 
    {
      "op": "Activation", 
      "name": "activation212", 
      "attrs": {"act_type": "tanh"}, 
      "inputs": [[903, 0, 0]]
    }, 
    {
      "op": "elemwise_mul", 
      "name": "lstm_l1_t32_out", 
      "inputs": [[897, 0, 0], [904, 0, 0]]
    }, 
    {
      "op": "expand_dims", 
      "name": "expand_dims92", 
      "attrs": {"axis": "1"}, 
      "inputs": [[905, 0, 0]]
    }, 
    {
      "op": "FullyConnected", 
      "name": "lstm_l0_t33_i2h", 
      "attrs": {"num_hidden": "800"}, 
      "inputs": [[3, 33, 0], [4, 0, 0], [5, 0, 0]]
    }, 
    {
      "op": "FullyConnected", 
      "name": "lstm_l0_t33_h2h", 
      "attrs": {"num_hidden": "800"}, 
      "inputs": [[892, 0, 0], [8, 0, 0], [9, 0, 0]]
    }, 
    {
      "op": "elemwise_add", 
      "name": "_plus153", 
      "inputs": [[907, 0, 0], [908, 0, 0]]
    }, 
    {
      "op": "SliceChannel", 
      "name": "lstm_l0_t33_slice", 
      "attrs": {"num_outputs": "4"}, 
      "inputs": [[909, 0, 0]]
    }, 
    {
      "op": "Activation", 
      "name": "lstm_l0_t33_o", 
      "attrs": {"act_type": "sigmoid"}, 
      "inputs": [[910, 3, 0]]
    }, 
    {
      "op": "Activation", 
      "name": "lstm_l0_t33_f", 
      "attrs": {"act_type": "sigmoid"}, 
      "inputs": [[910, 1, 0]]
    }, 
    {
      "op": "elemwise_mul", 
      "name": "_mul306", 
      "inputs": [[912, 0, 0], [890, 0, 0]]
    }, 
    {
      "op": "Activation", 
      "name": "lstm_l0_t33_i", 
      "attrs": {"act_type": "sigmoid"}, 
      "inputs": [[910, 0, 0]]
    }, 
    {
      "op": "Activation", 
      "name": "lstm_l0_t33_c", 
      "attrs": {"act_type": "tanh"}, 
      "inputs": [[910, 2, 0]]
    }, 
    {
      "op": "elemwise_mul", 
      "name": "_mul307", 
      "inputs": [[914, 0, 0], [915, 0, 0]]
    }, 
    {
      "op": "elemwise_add", 
      "name": "lstm_l0_t33_state", 
      "inputs": [[913, 0, 0], [916, 0, 0]]
    }, 
    {
      "op": "Activation", 
      "name": "activation153", 
      "attrs": {"act_type": "tanh"}, 
      "inputs": [[917, 0, 0]]
    }, 
    {
      "op": "elemwise_mul", 
      "name": "lstm_l0_t33_out", 
      "inputs": [[911, 0, 0], [918, 0, 0]]
    }, 
    {
      "op": "FullyConnected", 
      "name": "lstm_l1_t33_i2h", 
      "attrs": {"num_hidden": "800"}, 
      "inputs": [[919, 0, 0], [23, 0, 0], [24, 0, 0]]
    }, 
    {
      "op": "FullyConnected", 
      "name": "lstm_l1_t33_h2h", 
      "attrs": {"num_hidden": "800"}, 
      "inputs": [[905, 0, 0], [27, 0, 0], [28, 0, 0]]
    }, 
    {
      "op": "elemwise_add", 
      "name": "_plus213", 
      "inputs": [[920, 0, 0], [921, 0, 0]]
    }, 
    {
      "op": "SliceChannel", 
      "name": "lstm_l1_t33_slice", 
      "attrs": {"num_outputs": "4"}, 
      "inputs": [[922, 0, 0]]
    }, 
    {
      "op": "Activation", 
      "name": "lstm_l1_t33_o", 
      "attrs": {"act_type": "sigmoid"}, 
      "inputs": [[923, 3, 0]]
    }, 
    {
      "op": "Activation", 
      "name": "lstm_l1_t33_f", 
      "attrs": {"act_type": "sigmoid"}, 
      "inputs": [[923, 1, 0]]
    }, 
    {
      "op": "elemwise_mul", 
      "name": "_mul426", 
      "inputs": [[925, 0, 0], [903, 0, 0]]
    }, 
    {
      "op": "Activation", 
      "name": "lstm_l1_t33_i", 
      "attrs": {"act_type": "sigmoid"}, 
      "inputs": [[923, 0, 0]]
    }, 
    {
      "op": "Activation", 
      "name": "lstm_l1_t33_c", 
      "attrs": {"act_type": "tanh"}, 
      "inputs": [[923, 2, 0]]
    }, 
    {
      "op": "elemwise_mul", 
      "name": "_mul427", 
      "inputs": [[927, 0, 0], [928, 0, 0]]
    }, 
    {
      "op": "elemwise_add", 
      "name": "lstm_l1_t33_state", 
      "inputs": [[926, 0, 0], [929, 0, 0]]
    }, 
    {
      "op": "Activation", 
      "name": "activation213", 
      "attrs": {"act_type": "tanh"}, 
      "inputs": [[930, 0, 0]]
    }, 
    {
      "op": "elemwise_mul", 
      "name": "lstm_l1_t33_out", 
      "inputs": [[924, 0, 0], [931, 0, 0]]
    }, 
    {
      "op": "expand_dims", 
      "name": "expand_dims93", 
      "attrs": {"axis": "1"}, 
      "inputs": [[932, 0, 0]]
    }, 
    {
      "op": "FullyConnected", 
      "name": "lstm_l0_t34_i2h", 
      "attrs": {"num_hidden": "800"}, 
      "inputs": [[3, 34, 0], [4, 0, 0], [5, 0, 0]]
    }, 
    {
      "op": "FullyConnected", 
      "name": "lstm_l0_t34_h2h", 
      "attrs": {"num_hidden": "800"}, 
      "inputs": [[919, 0, 0], [8, 0, 0], [9, 0, 0]]
    }, 
    {
      "op": "elemwise_add", 
      "name": "_plus154", 
      "inputs": [[934, 0, 0], [935, 0, 0]]
    }, 
    {
      "op": "SliceChannel", 
      "name": "lstm_l0_t34_slice", 
      "attrs": {"num_outputs": "4"}, 
      "inputs": [[936, 0, 0]]
    }, 
    {
      "op": "Activation", 
      "name": "lstm_l0_t34_o", 
      "attrs": {"act_type": "sigmoid"}, 
      "inputs": [[937, 3, 0]]
    }, 
    {
      "op": "Activation", 
      "name": "lstm_l0_t34_f", 
      "attrs": {"act_type": "sigmoid"}, 
      "inputs": [[937, 1, 0]]
    }, 
    {
      "op": "elemwise_mul", 
      "name": "_mul308", 
      "inputs": [[939, 0, 0], [917, 0, 0]]
    }, 
    {
      "op": "Activation", 
      "name": "lstm_l0_t34_i", 
      "attrs": {"act_type": "sigmoid"}, 
      "inputs": [[937, 0, 0]]
    }, 
    {
      "op": "Activation", 
      "name": "lstm_l0_t34_c", 
      "attrs": {"act_type": "tanh"}, 
      "inputs": [[937, 2, 0]]
    }, 
    {
      "op": "elemwise_mul", 
      "name": "_mul309", 
      "inputs": [[941, 0, 0], [942, 0, 0]]
    }, 
    {
      "op": "elemwise_add", 
      "name": "lstm_l0_t34_state", 
      "inputs": [[940, 0, 0], [943, 0, 0]]
    }, 
    {
      "op": "Activation", 
      "name": "activation154", 
      "attrs": {"act_type": "tanh"}, 
      "inputs": [[944, 0, 0]]
    }, 
    {
      "op": "elemwise_mul", 
      "name": "lstm_l0_t34_out", 
      "inputs": [[938, 0, 0], [945, 0, 0]]
    }, 
    {
      "op": "FullyConnected", 
      "name": "lstm_l1_t34_i2h", 
      "attrs": {"num_hidden": "800"}, 
      "inputs": [[946, 0, 0], [23, 0, 0], [24, 0, 0]]
    }, 
    {
      "op": "FullyConnected", 
      "name": "lstm_l1_t34_h2h", 
      "attrs": {"num_hidden": "800"}, 
      "inputs": [[932, 0, 0], [27, 0, 0], [28, 0, 0]]
    }, 
    {
      "op": "elemwise_add", 
      "name": "_plus214", 
      "inputs": [[947, 0, 0], [948, 0, 0]]
    }, 
    {
      "op": "SliceChannel", 
      "name": "lstm_l1_t34_slice", 
      "attrs": {"num_outputs": "4"}, 
      "inputs": [[949, 0, 0]]
    }, 
    {
      "op": "Activation", 
      "name": "lstm_l1_t34_o", 
      "attrs": {"act_type": "sigmoid"}, 
      "inputs": [[950, 3, 0]]
    }, 
    {
      "op": "Activation", 
      "name": "lstm_l1_t34_f", 
      "attrs": {"act_type": "sigmoid"}, 
      "inputs": [[950, 1, 0]]
    }, 
    {
      "op": "elemwise_mul", 
      "name": "_mul428", 
      "inputs": [[952, 0, 0], [930, 0, 0]]
    }, 
    {
      "op": "Activation", 
      "name": "lstm_l1_t34_i", 
      "attrs": {"act_type": "sigmoid"}, 
      "inputs": [[950, 0, 0]]
    }, 
    {
      "op": "Activation", 
      "name": "lstm_l1_t34_c", 
      "attrs": {"act_type": "tanh"}, 
      "inputs": [[950, 2, 0]]
    }, 
    {
      "op": "elemwise_mul", 
      "name": "_mul429", 
      "inputs": [[954, 0, 0], [955, 0, 0]]
    }, 
    {
      "op": "elemwise_add", 
      "name": "lstm_l1_t34_state", 
      "inputs": [[953, 0, 0], [956, 0, 0]]
    }, 
    {
      "op": "Activation", 
      "name": "activation214", 
      "attrs": {"act_type": "tanh"}, 
      "inputs": [[957, 0, 0]]
    }, 
    {
      "op": "elemwise_mul", 
      "name": "lstm_l1_t34_out", 
      "inputs": [[951, 0, 0], [958, 0, 0]]
    }, 
    {
      "op": "expand_dims", 
      "name": "expand_dims94", 
      "attrs": {"axis": "1"}, 
      "inputs": [[959, 0, 0]]
    }, 
    {
      "op": "FullyConnected", 
      "name": "lstm_l0_t35_i2h", 
      "attrs": {"num_hidden": "800"}, 
      "inputs": [[3, 35, 0], [4, 0, 0], [5, 0, 0]]
    }, 
    {
      "op": "FullyConnected", 
      "name": "lstm_l0_t35_h2h", 
      "attrs": {"num_hidden": "800"}, 
      "inputs": [[946, 0, 0], [8, 0, 0], [9, 0, 0]]
    }, 
    {
      "op": "elemwise_add", 
      "name": "_plus155", 
      "inputs": [[961, 0, 0], [962, 0, 0]]
    }, 
    {
      "op": "SliceChannel", 
      "name": "lstm_l0_t35_slice", 
      "attrs": {"num_outputs": "4"}, 
      "inputs": [[963, 0, 0]]
    }, 
    {
      "op": "Activation", 
      "name": "lstm_l0_t35_o", 
      "attrs": {"act_type": "sigmoid"}, 
      "inputs": [[964, 3, 0]]
    }, 
    {
      "op": "Activation", 
      "name": "lstm_l0_t35_f", 
      "attrs": {"act_type": "sigmoid"}, 
      "inputs": [[964, 1, 0]]
    }, 
    {
      "op": "elemwise_mul", 
      "name": "_mul310", 
      "inputs": [[966, 0, 0], [944, 0, 0]]
    }, 
    {
      "op": "Activation", 
      "name": "lstm_l0_t35_i", 
      "attrs": {"act_type": "sigmoid"}, 
      "inputs": [[964, 0, 0]]
    }, 
    {
      "op": "Activation", 
      "name": "lstm_l0_t35_c", 
      "attrs": {"act_type": "tanh"}, 
      "inputs": [[964, 2, 0]]
    }, 
    {
      "op": "elemwise_mul", 
      "name": "_mul311", 
      "inputs": [[968, 0, 0], [969, 0, 0]]
    }, 
    {
      "op": "elemwise_add", 
      "name": "lstm_l0_t35_state", 
      "inputs": [[967, 0, 0], [970, 0, 0]]
    }, 
    {
      "op": "Activation", 
      "name": "activation155", 
      "attrs": {"act_type": "tanh"}, 
      "inputs": [[971, 0, 0]]
    }, 
    {
      "op": "elemwise_mul", 
      "name": "lstm_l0_t35_out", 
      "inputs": [[965, 0, 0], [972, 0, 0]]
    }, 
    {
      "op": "FullyConnected", 
      "name": "lstm_l1_t35_i2h", 
      "attrs": {"num_hidden": "800"}, 
      "inputs": [[973, 0, 0], [23, 0, 0], [24, 0, 0]]
    }, 
    {
      "op": "FullyConnected", 
      "name": "lstm_l1_t35_h2h", 
      "attrs": {"num_hidden": "800"}, 
      "inputs": [[959, 0, 0], [27, 0, 0], [28, 0, 0]]
    }, 
    {
      "op": "elemwise_add", 
      "name": "_plus215", 
      "inputs": [[974, 0, 0], [975, 0, 0]]
    }, 
    {
      "op": "SliceChannel", 
      "name": "lstm_l1_t35_slice", 
      "attrs": {"num_outputs": "4"}, 
      "inputs": [[976, 0, 0]]
    }, 
    {
      "op": "Activation", 
      "name": "lstm_l1_t35_o", 
      "attrs": {"act_type": "sigmoid"}, 
      "inputs": [[977, 3, 0]]
    }, 
    {
      "op": "Activation", 
      "name": "lstm_l1_t35_f", 
      "attrs": {"act_type": "sigmoid"}, 
      "inputs": [[977, 1, 0]]
    }, 
    {
      "op": "elemwise_mul", 
      "name": "_mul430", 
      "inputs": [[979, 0, 0], [957, 0, 0]]
    }, 
    {
      "op": "Activation", 
      "name": "lstm_l1_t35_i", 
      "attrs": {"act_type": "sigmoid"}, 
      "inputs": [[977, 0, 0]]
    }, 
    {
      "op": "Activation", 
      "name": "lstm_l1_t35_c", 
      "attrs": {"act_type": "tanh"}, 
      "inputs": [[977, 2, 0]]
    }, 
    {
      "op": "elemwise_mul", 
      "name": "_mul431", 
      "inputs": [[981, 0, 0], [982, 0, 0]]
    }, 
    {
      "op": "elemwise_add", 
      "name": "lstm_l1_t35_state", 
      "inputs": [[980, 0, 0], [983, 0, 0]]
    }, 
    {
      "op": "Activation", 
      "name": "activation215", 
      "attrs": {"act_type": "tanh"}, 
      "inputs": [[984, 0, 0]]
    }, 
    {
      "op": "elemwise_mul", 
      "name": "lstm_l1_t35_out", 
      "inputs": [[978, 0, 0], [985, 0, 0]]
    }, 
    {
      "op": "expand_dims", 
      "name": "expand_dims95", 
      "attrs": {"axis": "1"}, 
      "inputs": [[986, 0, 0]]
    }, 
    {
      "op": "FullyConnected", 
      "name": "lstm_l0_t36_i2h", 
      "attrs": {"num_hidden": "800"}, 
      "inputs": [[3, 36, 0], [4, 0, 0], [5, 0, 0]]
    }, 
    {
      "op": "FullyConnected", 
      "name": "lstm_l0_t36_h2h", 
      "attrs": {"num_hidden": "800"}, 
      "inputs": [[973, 0, 0], [8, 0, 0], [9, 0, 0]]
    }, 
    {
      "op": "elemwise_add", 
      "name": "_plus156", 
      "inputs": [[988, 0, 0], [989, 0, 0]]
    }, 
    {
      "op": "SliceChannel", 
      "name": "lstm_l0_t36_slice", 
      "attrs": {"num_outputs": "4"}, 
      "inputs": [[990, 0, 0]]
    }, 
    {
      "op": "Activation", 
      "name": "lstm_l0_t36_o", 
      "attrs": {"act_type": "sigmoid"}, 
      "inputs": [[991, 3, 0]]
    }, 
    {
      "op": "Activation", 
      "name": "lstm_l0_t36_f", 
      "attrs": {"act_type": "sigmoid"}, 
      "inputs": [[991, 1, 0]]
    }, 
    {
      "op": "elemwise_mul", 
      "name": "_mul312", 
      "inputs": [[993, 0, 0], [971, 0, 0]]
    }, 
    {
      "op": "Activation", 
      "name": "lstm_l0_t36_i", 
      "attrs": {"act_type": "sigmoid"}, 
      "inputs": [[991, 0, 0]]
    }, 
    {
      "op": "Activation", 
      "name": "lstm_l0_t36_c", 
      "attrs": {"act_type": "tanh"}, 
      "inputs": [[991, 2, 0]]
    }, 
    {
      "op": "elemwise_mul", 
      "name": "_mul313", 
      "inputs": [[995, 0, 0], [996, 0, 0]]
    }, 
    {
      "op": "elemwise_add", 
      "name": "lstm_l0_t36_state", 
      "inputs": [[994, 0, 0], [997, 0, 0]]
    }, 
    {
      "op": "Activation", 
      "name": "activation156", 
      "attrs": {"act_type": "tanh"}, 
      "inputs": [[998, 0, 0]]
    }, 
    {
      "op": "elemwise_mul", 
      "name": "lstm_l0_t36_out", 
      "inputs": [[992, 0, 0], [999, 0, 0]]
    }, 
    {
      "op": "FullyConnected", 
      "name": "lstm_l1_t36_i2h", 
      "attrs": {"num_hidden": "800"}, 
      "inputs": [[1000, 0, 0], [23, 0, 0], [24, 0, 0]]
    }, 
    {
      "op": "FullyConnected", 
      "name": "lstm_l1_t36_h2h", 
      "attrs": {"num_hidden": "800"}, 
      "inputs": [[986, 0, 0], [27, 0, 0], [28, 0, 0]]
    }, 
    {
      "op": "elemwise_add", 
      "name": "_plus216", 
      "inputs": [[1001, 0, 0], [1002, 0, 0]]
    }, 
    {
      "op": "SliceChannel", 
      "name": "lstm_l1_t36_slice", 
      "attrs": {"num_outputs": "4"}, 
      "inputs": [[1003, 0, 0]]
    }, 
    {
      "op": "Activation", 
      "name": "lstm_l1_t36_o", 
      "attrs": {"act_type": "sigmoid"}, 
      "inputs": [[1004, 3, 0]]
    }, 
    {
      "op": "Activation", 
      "name": "lstm_l1_t36_f", 
      "attrs": {"act_type": "sigmoid"}, 
      "inputs": [[1004, 1, 0]]
    }, 
    {
      "op": "elemwise_mul", 
      "name": "_mul432", 
      "inputs": [[1006, 0, 0], [984, 0, 0]]
    }, 
    {
      "op": "Activation", 
      "name": "lstm_l1_t36_i", 
      "attrs": {"act_type": "sigmoid"}, 
      "inputs": [[1004, 0, 0]]
    }, 
    {
      "op": "Activation", 
      "name": "lstm_l1_t36_c", 
      "attrs": {"act_type": "tanh"}, 
      "inputs": [[1004, 2, 0]]
    }, 
    {
      "op": "elemwise_mul", 
      "name": "_mul433", 
      "inputs": [[1008, 0, 0], [1009, 0, 0]]
    }, 
    {
      "op": "elemwise_add", 
      "name": "lstm_l1_t36_state", 
      "inputs": [[1007, 0, 0], [1010, 0, 0]]
    }, 
    {
      "op": "Activation", 
      "name": "activation216", 
      "attrs": {"act_type": "tanh"}, 
      "inputs": [[1011, 0, 0]]
    }, 
    {
      "op": "elemwise_mul", 
      "name": "lstm_l1_t36_out", 
      "inputs": [[1005, 0, 0], [1012, 0, 0]]
    }, 
    {
      "op": "expand_dims", 
      "name": "expand_dims96", 
      "attrs": {"axis": "1"}, 
      "inputs": [[1013, 0, 0]]
    }, 
    {
      "op": "FullyConnected", 
      "name": "lstm_l0_t37_i2h", 
      "attrs": {"num_hidden": "800"}, 
      "inputs": [[3, 37, 0], [4, 0, 0], [5, 0, 0]]
    }, 
    {
      "op": "FullyConnected", 
      "name": "lstm_l0_t37_h2h", 
      "attrs": {"num_hidden": "800"}, 
      "inputs": [[1000, 0, 0], [8, 0, 0], [9, 0, 0]]
    }, 
    {
      "op": "elemwise_add", 
      "name": "_plus157", 
      "inputs": [[1015, 0, 0], [1016, 0, 0]]
    }, 
    {
      "op": "SliceChannel", 
      "name": "lstm_l0_t37_slice", 
      "attrs": {"num_outputs": "4"}, 
      "inputs": [[1017, 0, 0]]
    }, 
    {
      "op": "Activation", 
      "name": "lstm_l0_t37_o", 
      "attrs": {"act_type": "sigmoid"}, 
      "inputs": [[1018, 3, 0]]
    }, 
    {
      "op": "Activation", 
      "name": "lstm_l0_t37_f", 
      "attrs": {"act_type": "sigmoid"}, 
      "inputs": [[1018, 1, 0]]
    }, 
    {
      "op": "elemwise_mul", 
      "name": "_mul314", 
      "inputs": [[1020, 0, 0], [998, 0, 0]]
    }, 
    {
      "op": "Activation", 
      "name": "lstm_l0_t37_i", 
      "attrs": {"act_type": "sigmoid"}, 
      "inputs": [[1018, 0, 0]]
    }, 
    {
      "op": "Activation", 
      "name": "lstm_l0_t37_c", 
      "attrs": {"act_type": "tanh"}, 
      "inputs": [[1018, 2, 0]]
    }, 
    {
      "op": "elemwise_mul", 
      "name": "_mul315", 
      "inputs": [[1022, 0, 0], [1023, 0, 0]]
    }, 
    {
      "op": "elemwise_add", 
      "name": "lstm_l0_t37_state", 
      "inputs": [[1021, 0, 0], [1024, 0, 0]]
    }, 
    {
      "op": "Activation", 
      "name": "activation157", 
      "attrs": {"act_type": "tanh"}, 
      "inputs": [[1025, 0, 0]]
    }, 
    {
      "op": "elemwise_mul", 
      "name": "lstm_l0_t37_out", 
      "inputs": [[1019, 0, 0], [1026, 0, 0]]
    }, 
    {
      "op": "FullyConnected", 
      "name": "lstm_l1_t37_i2h", 
      "attrs": {"num_hidden": "800"}, 
      "inputs": [[1027, 0, 0], [23, 0, 0], [24, 0, 0]]
    }, 
    {
      "op": "FullyConnected", 
      "name": "lstm_l1_t37_h2h", 
      "attrs": {"num_hidden": "800"}, 
      "inputs": [[1013, 0, 0], [27, 0, 0], [28, 0, 0]]
    }, 
    {
      "op": "elemwise_add", 
      "name": "_plus217", 
      "inputs": [[1028, 0, 0], [1029, 0, 0]]
    }, 
    {
      "op": "SliceChannel", 
      "name": "lstm_l1_t37_slice", 
      "attrs": {"num_outputs": "4"}, 
      "inputs": [[1030, 0, 0]]
    }, 
    {
      "op": "Activation", 
      "name": "lstm_l1_t37_o", 
      "attrs": {"act_type": "sigmoid"}, 
      "inputs": [[1031, 3, 0]]
    }, 
    {
      "op": "Activation", 
      "name": "lstm_l1_t37_f", 
      "attrs": {"act_type": "sigmoid"}, 
      "inputs": [[1031, 1, 0]]
    }, 
    {
      "op": "elemwise_mul", 
      "name": "_mul434", 
      "inputs": [[1033, 0, 0], [1011, 0, 0]]
    }, 
    {
      "op": "Activation", 
      "name": "lstm_l1_t37_i", 
      "attrs": {"act_type": "sigmoid"}, 
      "inputs": [[1031, 0, 0]]
    }, 
    {
      "op": "Activation", 
      "name": "lstm_l1_t37_c", 
      "attrs": {"act_type": "tanh"}, 
      "inputs": [[1031, 2, 0]]
    }, 
    {
      "op": "elemwise_mul", 
      "name": "_mul435", 
      "inputs": [[1035, 0, 0], [1036, 0, 0]]
    }, 
    {
      "op": "elemwise_add", 
      "name": "lstm_l1_t37_state", 
      "inputs": [[1034, 0, 0], [1037, 0, 0]]
    }, 
    {
      "op": "Activation", 
      "name": "activation217", 
      "attrs": {"act_type": "tanh"}, 
      "inputs": [[1038, 0, 0]]
    }, 
    {
      "op": "elemwise_mul", 
      "name": "lstm_l1_t37_out", 
      "inputs": [[1032, 0, 0], [1039, 0, 0]]
    }, 
    {
      "op": "expand_dims", 
      "name": "expand_dims97", 
      "attrs": {"axis": "1"}, 
      "inputs": [[1040, 0, 0]]
    }, 
    {
      "op": "FullyConnected", 
      "name": "lstm_l0_t38_i2h", 
      "attrs": {"num_hidden": "800"}, 
      "inputs": [[3, 38, 0], [4, 0, 0], [5, 0, 0]]
    }, 
    {
      "op": "FullyConnected", 
      "name": "lstm_l0_t38_h2h", 
      "attrs": {"num_hidden": "800"}, 
      "inputs": [[1027, 0, 0], [8, 0, 0], [9, 0, 0]]
    }, 
    {
      "op": "elemwise_add", 
      "name": "_plus158", 
      "inputs": [[1042, 0, 0], [1043, 0, 0]]
    }, 
    {
      "op": "SliceChannel", 
      "name": "lstm_l0_t38_slice", 
      "attrs": {"num_outputs": "4"}, 
      "inputs": [[1044, 0, 0]]
    }, 
    {
      "op": "Activation", 
      "name": "lstm_l0_t38_o", 
      "attrs": {"act_type": "sigmoid"}, 
      "inputs": [[1045, 3, 0]]
    }, 
    {
      "op": "Activation", 
      "name": "lstm_l0_t38_f", 
      "attrs": {"act_type": "sigmoid"}, 
      "inputs": [[1045, 1, 0]]
    }, 
    {
      "op": "elemwise_mul", 
      "name": "_mul316", 
      "inputs": [[1047, 0, 0], [1025, 0, 0]]
    }, 
    {
      "op": "Activation", 
      "name": "lstm_l0_t38_i", 
      "attrs": {"act_type": "sigmoid"}, 
      "inputs": [[1045, 0, 0]]
    }, 
    {
      "op": "Activation", 
      "name": "lstm_l0_t38_c", 
      "attrs": {"act_type": "tanh"}, 
      "inputs": [[1045, 2, 0]]
    }, 
    {
      "op": "elemwise_mul", 
      "name": "_mul317", 
      "inputs": [[1049, 0, 0], [1050, 0, 0]]
    }, 
    {
      "op": "elemwise_add", 
      "name": "lstm_l0_t38_state", 
      "inputs": [[1048, 0, 0], [1051, 0, 0]]
    }, 
    {
      "op": "Activation", 
      "name": "activation158", 
      "attrs": {"act_type": "tanh"}, 
      "inputs": [[1052, 0, 0]]
    }, 
    {
      "op": "elemwise_mul", 
      "name": "lstm_l0_t38_out", 
      "inputs": [[1046, 0, 0], [1053, 0, 0]]
    }, 
    {
      "op": "FullyConnected", 
      "name": "lstm_l1_t38_i2h", 
      "attrs": {"num_hidden": "800"}, 
      "inputs": [[1054, 0, 0], [23, 0, 0], [24, 0, 0]]
    }, 
    {
      "op": "FullyConnected", 
      "name": "lstm_l1_t38_h2h", 
      "attrs": {"num_hidden": "800"}, 
      "inputs": [[1040, 0, 0], [27, 0, 0], [28, 0, 0]]
    }, 
    {
      "op": "elemwise_add", 
      "name": "_plus218", 
      "inputs": [[1055, 0, 0], [1056, 0, 0]]
    }, 
    {
      "op": "SliceChannel", 
      "name": "lstm_l1_t38_slice", 
      "attrs": {"num_outputs": "4"}, 
      "inputs": [[1057, 0, 0]]
    }, 
    {
      "op": "Activation", 
      "name": "lstm_l1_t38_o", 
      "attrs": {"act_type": "sigmoid"}, 
      "inputs": [[1058, 3, 0]]
    }, 
    {
      "op": "Activation", 
      "name": "lstm_l1_t38_f", 
      "attrs": {"act_type": "sigmoid"}, 
      "inputs": [[1058, 1, 0]]
    }, 
    {
      "op": "elemwise_mul", 
      "name": "_mul436", 
      "inputs": [[1060, 0, 0], [1038, 0, 0]]
    }, 
    {
      "op": "Activation", 
      "name": "lstm_l1_t38_i", 
      "attrs": {"act_type": "sigmoid"}, 
      "inputs": [[1058, 0, 0]]
    }, 
    {
      "op": "Activation", 
      "name": "lstm_l1_t38_c", 
      "attrs": {"act_type": "tanh"}, 
      "inputs": [[1058, 2, 0]]
    }, 
    {
      "op": "elemwise_mul", 
      "name": "_mul437", 
      "inputs": [[1062, 0, 0], [1063, 0, 0]]
    }, 
    {
      "op": "elemwise_add", 
      "name": "lstm_l1_t38_state", 
      "inputs": [[1061, 0, 0], [1064, 0, 0]]
    }, 
    {
      "op": "Activation", 
      "name": "activation218", 
      "attrs": {"act_type": "tanh"}, 
      "inputs": [[1065, 0, 0]]
    }, 
    {
      "op": "elemwise_mul", 
      "name": "lstm_l1_t38_out", 
      "inputs": [[1059, 0, 0], [1066, 0, 0]]
    }, 
    {
      "op": "expand_dims", 
      "name": "expand_dims98", 
      "attrs": {"axis": "1"}, 
      "inputs": [[1067, 0, 0]]
    }, 
    {
      "op": "FullyConnected", 
      "name": "lstm_l0_t39_i2h", 
      "attrs": {"num_hidden": "800"}, 
      "inputs": [[3, 39, 0], [4, 0, 0], [5, 0, 0]]
    }, 
    {
      "op": "FullyConnected", 
      "name": "lstm_l0_t39_h2h", 
      "attrs": {"num_hidden": "800"}, 
      "inputs": [[1054, 0, 0], [8, 0, 0], [9, 0, 0]]
    }, 
    {
      "op": "elemwise_add", 
      "name": "_plus159", 
      "inputs": [[1069, 0, 0], [1070, 0, 0]]
    }, 
    {
      "op": "SliceChannel", 
      "name": "lstm_l0_t39_slice", 
      "attrs": {"num_outputs": "4"}, 
      "inputs": [[1071, 0, 0]]
    }, 
    {
      "op": "Activation", 
      "name": "lstm_l0_t39_o", 
      "attrs": {"act_type": "sigmoid"}, 
      "inputs": [[1072, 3, 0]]
    }, 
    {
      "op": "Activation", 
      "name": "lstm_l0_t39_f", 
      "attrs": {"act_type": "sigmoid"}, 
      "inputs": [[1072, 1, 0]]
    }, 
    {
      "op": "elemwise_mul", 
      "name": "_mul318", 
      "inputs": [[1074, 0, 0], [1052, 0, 0]]
    }, 
    {
      "op": "Activation", 
      "name": "lstm_l0_t39_i", 
      "attrs": {"act_type": "sigmoid"}, 
      "inputs": [[1072, 0, 0]]
    }, 
    {
      "op": "Activation", 
      "name": "lstm_l0_t39_c", 
      "attrs": {"act_type": "tanh"}, 
      "inputs": [[1072, 2, 0]]
    }, 
    {
      "op": "elemwise_mul", 
      "name": "_mul319", 
      "inputs": [[1076, 0, 0], [1077, 0, 0]]
    }, 
    {
      "op": "elemwise_add", 
      "name": "lstm_l0_t39_state", 
      "inputs": [[1075, 0, 0], [1078, 0, 0]]
    }, 
    {
      "op": "Activation", 
      "name": "activation159", 
      "attrs": {"act_type": "tanh"}, 
      "inputs": [[1079, 0, 0]]
    }, 
    {
      "op": "elemwise_mul", 
      "name": "lstm_l0_t39_out", 
      "inputs": [[1073, 0, 0], [1080, 0, 0]]
    }, 
    {
      "op": "FullyConnected", 
      "name": "lstm_l1_t39_i2h", 
      "attrs": {"num_hidden": "800"}, 
      "inputs": [[1081, 0, 0], [23, 0, 0], [24, 0, 0]]
    }, 
    {
      "op": "FullyConnected", 
      "name": "lstm_l1_t39_h2h", 
      "attrs": {"num_hidden": "800"}, 
      "inputs": [[1067, 0, 0], [27, 0, 0], [28, 0, 0]]
    }, 
    {
      "op": "elemwise_add", 
      "name": "_plus219", 
      "inputs": [[1082, 0, 0], [1083, 0, 0]]
    }, 
    {
      "op": "SliceChannel", 
      "name": "lstm_l1_t39_slice", 
      "attrs": {"num_outputs": "4"}, 
      "inputs": [[1084, 0, 0]]
    }, 
    {
      "op": "Activation", 
      "name": "lstm_l1_t39_o", 
      "attrs": {"act_type": "sigmoid"}, 
      "inputs": [[1085, 3, 0]]
    }, 
    {
      "op": "Activation", 
      "name": "lstm_l1_t39_f", 
      "attrs": {"act_type": "sigmoid"}, 
      "inputs": [[1085, 1, 0]]
    }, 
    {
      "op": "elemwise_mul", 
      "name": "_mul438", 
      "inputs": [[1087, 0, 0], [1065, 0, 0]]
    }, 
    {
      "op": "Activation", 
      "name": "lstm_l1_t39_i", 
      "attrs": {"act_type": "sigmoid"}, 
      "inputs": [[1085, 0, 0]]
    }, 
    {
      "op": "Activation", 
      "name": "lstm_l1_t39_c", 
      "attrs": {"act_type": "tanh"}, 
      "inputs": [[1085, 2, 0]]
    }, 
    {
      "op": "elemwise_mul", 
      "name": "_mul439", 
      "inputs": [[1089, 0, 0], [1090, 0, 0]]
    }, 
    {
      "op": "elemwise_add", 
      "name": "lstm_l1_t39_state", 
      "inputs": [[1088, 0, 0], [1091, 0, 0]]
    }, 
    {
      "op": "Activation", 
      "name": "activation219", 
      "attrs": {"act_type": "tanh"}, 
      "inputs": [[1092, 0, 0]]
    }, 
    {
      "op": "elemwise_mul", 
      "name": "lstm_l1_t39_out", 
      "inputs": [[1086, 0, 0], [1093, 0, 0]]
    }, 
    {
      "op": "expand_dims", 
…
      "name": "lstm_l1_t51_out", 
      "inputs": [[1410, 0, 0], [1417, 0, 0]]
    }, 
    {
      "op": "expand_dims", 
      "name": "expand_dims111", 
      "attrs": {"axis": "1"}, 
      "inputs": [[1418, 0, 0]]
    }, 
    {
      "op": "FullyConnected", 
      "name": "lstm_l0_t52_i2h", 
      "attrs": {"num_hidden": "800"}, 
      "inputs": [[3, 52, 0], [4, 0, 0], [5, 0, 0]]
    }, 
    {
      "op": "FullyConnected", 
      "name": "lstm_l0_t52_h2h", 
      "attrs": {"num_hidden": "800"}, 
      "inputs": [[1405, 0, 0], [8, 0, 0], [9, 0, 0]]
    }, 
    {
      "op": "elemwise_add", 
      "name": "_plus172", 
      "inputs": [[1420, 0, 0], [1421, 0, 0]]
    }, 
    {
      "op": "SliceChannel", 
      "name": "lstm_l0_t52_slice", 
      "attrs": {"num_outputs": "4"}, 
      "inputs": [[1422, 0, 0]]
    }, 
    {
      "op": "Activation", 
      "name": "lstm_l0_t52_o", 
      "attrs": {"act_type": "sigmoid"}, 
      "inputs": [[1423, 3, 0]]
    }, 
    {
      "op": "Activation", 
      "name": "lstm_l0_t52_f", 
      "attrs": {"act_type": "sigmoid"}, 
      "inputs": [[1423, 1, 0]]
    }, 
    {
      "op": "elemwise_mul", 
      "name": "_mul344", 
      "inputs": [[1425, 0, 0], [1403, 0, 0]]
    }, 
    {
      "op": "Activation", 
      "name": "lstm_l0_t52_i", 
      "attrs": {"act_type": "sigmoid"}, 
      "inputs": [[1423, 0, 0]]
    }, 
    {
      "op": "Activation", 
      "name": "lstm_l0_t52_c", 
      "attrs": {"act_type": "tanh"}, 
      "inputs": [[1423, 2, 0]]
    }, 
    {
      "op": "elemwise_mul", 
      "name": "_mul345", 
      "inputs": [[1427, 0, 0], [1428, 0, 0]]
    }, 
    {
      "op": "elemwise_add", 
      "name": "lstm_l0_t52_state", 
      "inputs": [[1426, 0, 0], [1429, 0, 0]]
    }, 
    {
      "op": "Activation", 
      "name": "activation172", 
      "attrs": {"act_type": "tanh"}, 
      "inputs": [[1430, 0, 0]]
    }, 
    {
      "op": "elemwise_mul", 
      "name": "lstm_l0_t52_out", 
      "inputs": [[1424, 0, 0], [1431, 0, 0]]
    }, 
    {
      "op": "FullyConnected", 
      "name": "lstm_l1_t52_i2h", 
      "attrs": {"num_hidden": "800"}, 
      "inputs": [[1432, 0, 0], [23, 0, 0], [24, 0, 0]]
    }, 
    {
      "op": "FullyConnected", 
      "name": "lstm_l1_t52_h2h", 
      "attrs": {"num_hidden": "800"}, 
      "inputs": [[1418, 0, 0], [27, 0, 0], [28, 0, 0]]
    }, 
    {
      "op": "elemwise_add", 
      "name": "_plus232", 
      "inputs": [[1433, 0, 0], [1434, 0, 0]]
    }, 
    {
      "op": "SliceChannel", 
      "name": "lstm_l1_t52_slice", 
      "attrs": {"num_outputs": "4"}, 
      "inputs": [[1435, 0, 0]]
    }, 
    {
      "op": "Activation", 
      "name": "lstm_l1_t52_o", 
      "attrs": {"act_type": "sigmoid"}, 
      "inputs": [[1436, 3, 0]]
    }, 
    {
      "op": "Activation", 
      "name": "lstm_l1_t52_f", 
      "attrs": {"act_type": "sigmoid"}, 
      "inputs": [[1436, 1, 0]]
    }, 
    {
      "op": "elemwise_mul", 
      "name": "_mul464", 
      "inputs": [[1438, 0, 0], [1416, 0, 0]]
    }, 
    {
      "op": "Activation", 
      "name": "lstm_l1_t52_i", 
      "attrs": {"act_type": "sigmoid"}, 
      "inputs": [[1436, 0, 0]]
    }, 
    {
      "op": "Activation", 
      "name": "lstm_l1_t52_c", 
      "attrs": {"act_type": "tanh"}, 
      "inputs": [[1436, 2, 0]]
    }, 
    {
      "op": "elemwise_mul", 
      "name": "_mul465", 
      "inputs": [[1440, 0, 0], [1441, 0, 0]]
    }, 
    {
      "op": "elemwise_add", 
      "name": "lstm_l1_t52_state", 
      "inputs": [[1439, 0, 0], [1442, 0, 0]]
    }, 
    {
      "op": "Activation", 
      "name": "activation232", 
      "attrs": {"act_type": "tanh"}, 
      "inputs": [[1443, 0, 0]]
    }, 
    {
      "op": "elemwise_mul", 
      "name": "lstm_l1_t52_out", 
      "inputs": [[1437, 0, 0], [1444, 0, 0]]
    }, 
    {
      "op": "expand_dims", 
      "name": "expand_dims112", 
      "attrs": {"axis": "1"}, 
      "inputs": [[1445, 0, 0]]
    }, 
    {
      "op": "FullyConnected", 
      "name": "lstm_l0_t53_i2h", 
      "attrs": {"num_hidden": "800"}, 
      "inputs": [[3, 53, 0], [4, 0, 0], [5, 0, 0]]
    }, 
    {
      "op": "FullyConnected", 
      "name": "lstm_l0_t53_h2h", 
      "attrs": {"num_hidden": "800"}, 
      "inputs": [[1432, 0, 0], [8, 0, 0], [9, 0, 0]]
    }, 
    {
      "op": "elemwise_add", 
      "name": "_plus173", 
      "inputs": [[1447, 0, 0], [1448, 0, 0]]
    }, 
    {
      "op": "SliceChannel", 
      "name": "lstm_l0_t53_slice", 
      "attrs": {"num_outputs": "4"}, 
      "inputs": [[1449, 0, 0]]
    }, 
    {
      "op": "Activation", 
      "name": "lstm_l0_t53_o", 
      "attrs": {"act_type": "sigmoid"}, 
      "inputs": [[1450, 3, 0]]
    }, 
    {
      "op": "Activation", 
      "name": "lstm_l0_t53_f", 
      "attrs": {"act_type": "sigmoid"}, 
      "inputs": [[1450, 1, 0]]
    }, 
    {
      "op": "elemwise_mul", 
      "name": "_mul346", 
      "inputs": [[1452, 0, 0], [1430, 0, 0]]
    }, 
    {
      "op": "Activation", 
      "name": "lstm_l0_t53_i", 
      "attrs": {"act_type": "sigmoid"}, 
      "inputs": [[1450, 0, 0]]
    }, 
    {
      "op": "Activation", 
      "name": "lstm_l0_t53_c", 
      "attrs": {"act_type": "tanh"}, 
      "inputs": [[1450, 2, 0]]
    }, 
    {
      "op": "elemwise_mul", 
      "name": "_mul347", 
      "inputs": [[1454, 0, 0], [1455, 0, 0]]
    }, 
    {
      "op": "elemwise_add", 
      "name": "lstm_l0_t53_state", 
      "inputs": [[1453, 0, 0], [1456, 0, 0]]
    }, 
    {
      "op": "Activation", 
      "name": "activation173", 
      "attrs": {"act_type": "tanh"}, 
      "inputs": [[1457, 0, 0]]
    }, 
    {
      "op": "elemwise_mul", 
      "name": "lstm_l0_t53_out", 
      "inputs": [[1451, 0, 0], [1458, 0, 0]]
    }, 
    {
      "op": "FullyConnected", 
      "name": "lstm_l1_t53_i2h", 
      "attrs": {"num_hidden": "800"}, 
      "inputs": [[1459, 0, 0], [23, 0, 0], [24, 0, 0]]
    }, 
    {
      "op": "FullyConnected", 
      "name": "lstm_l1_t53_h2h", 
      "attrs": {"num_hidden": "800"}, 
      "inputs": [[1445, 0, 0], [27, 0, 0], [28, 0, 0]]
    }, 
    {
      "op": "elemwise_add", 
      "name": "_plus233", 
      "inputs": [[1460, 0, 0], [1461, 0, 0]]
    }, 
    {
      "op": "SliceChannel", 
      "name": "lstm_l1_t53_slice", 
      "attrs": {"num_outputs": "4"}, 
      "inputs": [[1462, 0, 0]]
    }, 
    {
      "op": "Activation", 
      "name": "lstm_l1_t53_o", 
      "attrs": {"act_type": "sigmoid"}, 
      "inputs": [[1463, 3, 0]]
    }, 
    {
      "op": "Activation", 
      "name": "lstm_l1_t53_f", 
      "attrs": {"act_type": "sigmoid"}, 
      "inputs": [[1463, 1, 0]]
    }, 
    {
      "op": "elemwise_mul", 
      "name": "_mul466", 
      "inputs": [[1465, 0, 0], [1443, 0, 0]]
    }, 
    {
      "op": "Activation", 
      "name": "lstm_l1_t53_i", 
      "attrs": {"act_type": "sigmoid"}, 
      "inputs": [[1463, 0, 0]]
    }, 
    {
      "op": "Activation", 
      "name": "lstm_l1_t53_c", 
      "attrs": {"act_type": "tanh"}, 
      "inputs": [[1463, 2, 0]]
    }, 
    {
      "op": "elemwise_mul", 
      "name": "_mul467", 
      "inputs": [[1467, 0, 0], [1468, 0, 0]]
    }, 
    {
      "op": "elemwise_add", 
      "name": "lstm_l1_t53_state", 
      "inputs": [[1466, 0, 0], [1469, 0, 0]]
    }, 
    {
      "op": "Activation", 
      "name": "activation233", 
      "attrs": {"act_type": "tanh"}, 
      "inputs": [[1470, 0, 0]]
    }, 
    {
      "op": "elemwise_mul", 
      "name": "lstm_l1_t53_out", 
      "inputs": [[1464, 0, 0], [1471, 0, 0]]
    }, 
    {
      "op": "expand_dims", 
      "name": "expand_dims113", 
      "attrs": {"axis": "1"}, 
      "inputs": [[1472, 0, 0]]
    }, 
    {
      "op": "FullyConnected", 
      "name": "lstm_l0_t54_i2h", 
      "attrs": {"num_hidden": "800"}, 
      "inputs": [[3, 54, 0], [4, 0, 0], [5, 0, 0]]
    }, 
    {
      "op": "FullyConnected", 
      "name": "lstm_l0_t54_h2h", 
      "attrs": {"num_hidden": "800"}, 
      "inputs": [[1459, 0, 0], [8, 0, 0], [9, 0, 0]]
    }, 
    {
      "op": "elemwise_add", 
      "name": "_plus174", 
      "inputs": [[1474, 0, 0], [1475, 0, 0]]
    }, 
    {
      "op": "SliceChannel", 
      "name": "lstm_l0_t54_slice", 
      "attrs": {"num_outputs": "4"}, 
      "inputs": [[1476, 0, 0]]
    }, 
    {
      "op": "Activation", 
      "name": "lstm_l0_t54_o", 
      "attrs": {"act_type": "sigmoid"}, 
      "inputs": [[1477, 3, 0]]
    }, 
    {
      "op": "Activation", 
      "name": "lstm_l0_t54_f", 
      "attrs": {"act_type": "sigmoid"}, 
      "inputs": [[1477, 1, 0]]
    }, 
    {
      "op": "elemwise_mul", 
      "name": "_mul348", 
      "inputs": [[1479, 0, 0], [1457, 0, 0]]
    }, 
    {
      "op": "Activation", 
      "name": "lstm_l0_t54_i", 
      "attrs": {"act_type": "sigmoid"}, 
      "inputs": [[1477, 0, 0]]
    }, 
    {
      "op": "Activation", 
      "name": "lstm_l0_t54_c", 
      "attrs": {"act_type": "tanh"}, 
      "inputs": [[1477, 2, 0]]
    }, 
    {
      "op": "elemwise_mul", 
      "name": "_mul349", 
      "inputs": [[1481, 0, 0], [1482, 0, 0]]
    }, 
    {
      "op": "elemwise_add", 
      "name": "lstm_l0_t54_state", 
      "inputs": [[1480, 0, 0], [1483, 0, 0]]
    }, 
    {
      "op": "Activation", 
      "name": "activation174", 
      "attrs": {"act_type": "tanh"}, 
      "inputs": [[1484, 0, 0]]
    }, 
    {
      "op": "elemwise_mul", 
      "name": "lstm_l0_t54_out", 
      "inputs": [[1478, 0, 0], [1485, 0, 0]]
    }, 
    {
      "op": "FullyConnected", 
      "name": "lstm_l1_t54_i2h", 
      "attrs": {"num_hidden": "800"}, 
      "inputs": [[1486, 0, 0], [23, 0, 0], [24, 0, 0]]
    }, 
    {
      "op": "FullyConnected", 
      "name": "lstm_l1_t54_h2h", 
      "attrs": {"num_hidden": "800"}, 
      "inputs": [[1472, 0, 0], [27, 0, 0], [28, 0, 0]]
    }, 
    {
      "op": "elemwise_add", 
      "name": "_plus234", 
      "inputs": [[1487, 0, 0], [1488, 0, 0]]
    }, 
    {
      "op": "SliceChannel", 
      "name": "lstm_l1_t54_slice", 
      "attrs": {"num_outputs": "4"}, 
      "inputs": [[1489, 0, 0]]
    }, 
    {
      "op": "Activation", 
      "name": "lstm_l1_t54_o", 
      "attrs": {"act_type": "sigmoid"}, 
      "inputs": [[1490, 3, 0]]
    }, 
    {
      "op": "Activation", 
      "name": "lstm_l1_t54_f", 
      "attrs": {"act_type": "sigmoid"}, 
      "inputs": [[1490, 1, 0]]
    }, 
    {
      "op": "elemwise_mul", 
      "name": "_mul468", 
      "inputs": [[1492, 0, 0], [1470, 0, 0]]
    }, 
    {
      "op": "Activation", 
      "name": "lstm_l1_t54_i", 
      "attrs": {"act_type": "sigmoid"}, 
      "inputs": [[1490, 0, 0]]
    }, 
    {
      "op": "Activation", 
      "name": "lstm_l1_t54_c", 
      "attrs": {"act_type": "tanh"}, 
      "inputs": [[1490, 2, 0]]
    }, 
    {
      "op": "elemwise_mul", 
      "name": "_mul469", 
      "inputs": [[1494, 0, 0], [1495, 0, 0]]
    }, 
    {
      "op": "elemwise_add", 
      "name": "lstm_l1_t54_state", 
      "inputs": [[1493, 0, 0], [1496, 0, 0]]
    }, 
    {
      "op": "Activation", 
      "name": "activation234", 
      "attrs": {"act_type": "tanh"}, 
      "inputs": [[1497, 0, 0]]
    }, 
    {
      "op": "elemwise_mul", 
      "name": "lstm_l1_t54_out", 
      "inputs": [[1491, 0, 0], [1498, 0, 0]]
    }, 
    {
      "op": "expand_dims", 
      "name": "expand_dims114", 
      "attrs": {"axis": "1"}, 
      "inputs": [[1499, 0, 0]]
    }, 
    {
      "op": "FullyConnected", 
      "name": "lstm_l0_t55_i2h", 
      "attrs": {"num_hidden": "800"}, 
      "inputs": [[3, 55, 0], [4, 0, 0], [5, 0, 0]]
    }, 
    {
      "op": "FullyConnected", 
      "name": "lstm_l0_t55_h2h", 
      "attrs": {"num_hidden": "800"}, 
      "inputs": [[1486, 0, 0], [8, 0, 0], [9, 0, 0]]
    }, 
    {
      "op": "elemwise_add", 
      "name": "_plus175", 
      "inputs": [[1501, 0, 0], [1502, 0, 0]]
    }, 
    {
      "op": "SliceChannel", 
      "name": "lstm_l0_t55_slice", 
      "attrs": {"num_outputs": "4"}, 
      "inputs": [[1503, 0, 0]]
    }, 
    {
      "op": "Activation", 
      "name": "lstm_l0_t55_o", 
      "attrs": {"act_type": "sigmoid"}, 
      "inputs": [[1504, 3, 0]]
    }, 
    {
      "op": "Activation", 
      "name": "lstm_l0_t55_f", 
      "attrs": {"act_type": "sigmoid"}, 
      "inputs": [[1504, 1, 0]]
    }, 
    {
      "op": "elemwise_mul", 
      "name": "_mul350", 
      "inputs": [[1506, 0, 0], [1484, 0, 0]]
    }, 
    {
      "op": "Activation", 
      "name": "lstm_l0_t55_i", 
      "attrs": {"act_type": "sigmoid"}, 
      "inputs": [[1504, 0, 0]]
    }, 
    {
      "op": "Activation", 
      "name": "lstm_l0_t55_c", 
      "attrs": {"act_type": "tanh"}, 
      "inputs": [[1504, 2, 0]]
    }, 
    {
      "op": "elemwise_mul", 
      "name": "_mul351", 
      "inputs": [[1508, 0, 0], [1509, 0, 0]]
    }, 
    {
      "op": "elemwise_add", 
      "name": "lstm_l0_t55_state", 
      "inputs": [[1507, 0, 0], [1510, 0, 0]]
    }, 
    {
      "op": "Activation", 
      "name": "activation175", 
      "attrs": {"act_type": "tanh"}, 
      "inputs": [[1511, 0, 0]]
    }, 
    {
      "op": "elemwise_mul", 
      "name": "lstm_l0_t55_out", 
      "inputs": [[1505, 0, 0], [1512, 0, 0]]
    }, 
    {
      "op": "FullyConnected", 
      "name": "lstm_l1_t55_i2h", 
      "attrs": {"num_hidden": "800"}, 
      "inputs": [[1513, 0, 0], [23, 0, 0], [24, 0, 0]]
    }, 
    {
      "op": "FullyConnected", 
      "name": "lstm_l1_t55_h2h", 
      "attrs": {"num_hidden": "800"}, 
      "inputs": [[1499, 0, 0], [27, 0, 0], [28, 0, 0]]
    }, 
    {
      "op": "elemwise_add", 
      "name": "_plus235", 
      "inputs": [[1514, 0, 0], [1515, 0, 0]]
    }, 
    {
      "op": "SliceChannel", 
      "name": "lstm_l1_t55_slice", 
      "attrs": {"num_outputs": "4"}, 
      "inputs": [[1516, 0, 0]]
    }, 
    {
      "op": "Activation", 
      "name": "lstm_l1_t55_o", 
      "attrs": {"act_type": "sigmoid"}, 
      "inputs": [[1517, 3, 0]]
    }, 
    {
      "op": "Activation", 
      "name": "lstm_l1_t55_f", 
      "attrs": {"act_type": "sigmoid"}, 
      "inputs": [[1517, 1, 0]]
    }, 
    {
      "op": "elemwise_mul", 
      "name": "_mul470", 
      "inputs": [[1519, 0, 0], [1497, 0, 0]]
    }, 
    {
      "op": "Activation", 
      "name": "lstm_l1_t55_i", 
      "attrs": {"act_type": "sigmoid"}, 
      "inputs": [[1517, 0, 0]]
    }, 
    {
      "op": "Activation", 
      "name": "lstm_l1_t55_c", 
      "attrs": {"act_type": "tanh"}, 
      "inputs": [[1517, 2, 0]]
    }, 
    {
      "op": "elemwise_mul", 
      "name": "_mul471", 
      "inputs": [[1521, 0, 0], [1522, 0, 0]]
    }, 
    {
      "op": "elemwise_add", 
      "name": "lstm_l1_t55_state", 
      "inputs": [[1520, 0, 0], [1523, 0, 0]]
    }, 
    {
      "op": "Activation", 
      "name": "activation235", 
      "attrs": {"act_type": "tanh"}, 
      "inputs": [[1524, 0, 0]]
    }, 
    {
      "op": "elemwise_mul", 
      "name": "lstm_l1_t55_out", 
      "inputs": [[1518, 0, 0], [1525, 0, 0]]
    }, 
    {
      "op": "expand_dims", 
      "name": "expand_dims115", 
      "attrs": {"axis": "1"}, 
      "inputs": [[1526, 0, 0]]
    }, 
    {
      "op": "FullyConnected", 
      "name": "lstm_l0_t56_i2h", 
      "attrs": {"num_hidden": "800"}, 
      "inputs": [[3, 56, 0], [4, 0, 0], [5, 0, 0]]
    }, 
    {
      "op": "FullyConnected", 
      "name": "lstm_l0_t56_h2h", 
      "attrs": {"num_hidden": "800"}, 
      "inputs": [[1513, 0, 0], [8, 0, 0], [9, 0, 0]]
    }, 
    {
      "op": "elemwise_add", 
      "name": "_plus176", 
      "inputs": [[1528, 0, 0], [1529, 0, 0]]
    }, 
    {
      "op": "SliceChannel", 
      "name": "lstm_l0_t56_slice", 
      "attrs": {"num_outputs": "4"}, 
      "inputs": [[1530, 0, 0]]
    }, 
    {
      "op": "Activation", 
      "name": "lstm_l0_t56_o", 
      "attrs": {"act_type": "sigmoid"}, 
      "inputs": [[1531, 3, 0]]
    }, 
    {
      "op": "Activation", 
      "name": "lstm_l0_t56_f", 
      "attrs": {"act_type": "sigmoid"}, 
      "inputs": [[1531, 1, 0]]
    }, 
    {
      "op": "elemwise_mul", 
      "name": "_mul352", 
      "inputs": [[1533, 0, 0], [1511, 0, 0]]
    }, 
    {
      "op": "Activation", 
      "name": "lstm_l0_t56_i", 
      "attrs": {"act_type": "sigmoid"}, 
      "inputs": [[1531, 0, 0]]
    }, 
    {
      "op": "Activation", 
      "name": "lstm_l0_t56_c", 
      "attrs": {"act_type": "tanh"}, 
      "inputs": [[1531, 2, 0]]
    }, 
    {
      "op": "elemwise_mul", 
      "name": "_mul353", 
      "inputs": [[1535, 0, 0], [1536, 0, 0]]
    }, 
    {
      "op": "elemwise_add", 
      "name": "lstm_l0_t56_state", 
      "inputs": [[1534, 0, 0], [1537, 0, 0]]
    }, 
    {
      "op": "Activation", 
      "name": "activation176", 
      "attrs": {"act_type": "tanh"}, 
      "inputs": [[1538, 0, 0]]
    }, 
    {
      "op": "elemwise_mul", 
      "name": "lstm_l0_t56_out", 
      "inputs": [[1532, 0, 0], [1539, 0, 0]]
    }, 
    {
      "op": "FullyConnected", 
      "name": "lstm_l1_t56_i2h", 
      "attrs": {"num_hidden": "800"}, 
      "inputs": [[1540, 0, 0], [23, 0, 0], [24, 0, 0]]
    }, 
    {
      "op": "FullyConnected", 
      "name": "lstm_l1_t56_h2h", 
      "attrs": {"num_hidden": "800"}, 
      "inputs": [[1526, 0, 0], [27, 0, 0], [28, 0, 0]]
    }, 
    {
      "op": "elemwise_add", 
      "name": "_plus236", 
      "inputs": [[1541, 0, 0], [1542, 0, 0]]
    }, 
    {
      "op": "SliceChannel", 
      "name": "lstm_l1_t56_slice", 
      "attrs": {"num_outputs": "4"}, 
      "inputs": [[1543, 0, 0]]
    }, 
    {
      "op": "Activation", 
      "name": "lstm_l1_t56_o", 
      "attrs": {"act_type": "sigmoid"}, 
      "inputs": [[1544, 3, 0]]
    }, 
    {
      "op": "Activation", 
      "name": "lstm_l1_t56_f", 
      "attrs": {"act_type": "sigmoid"}, 
      "inputs": [[1544, 1, 0]]
    }, 
    {
      "op": "elemwise_mul", 
      "name": "_mul472", 
      "inputs": [[1546, 0, 0], [1524, 0, 0]]
    }, 
    {
      "op": "Activation", 
      "name": "lstm_l1_t56_i", 
      "attrs": {"act_type": "sigmoid"}, 
      "inputs": [[1544, 0, 0]]
    }, 
    {
      "op": "Activation", 
      "name": "lstm_l1_t56_c", 
      "attrs": {"act_type": "tanh"}, 
      "inputs": [[1544, 2, 0]]
    }, 
    {
      "op": "elemwise_mul", 
      "name": "_mul473", 
      "inputs": [[1548, 0, 0], [1549, 0, 0]]
    }, 
    {
      "op": "elemwise_add", 
      "name": "lstm_l1_t56_state", 
      "inputs": [[1547, 0, 0], [1550, 0, 0]]
    }, 
    {
      "op": "Activation", 
      "name": "activation236", 
      "attrs": {"act_type": "tanh"}, 
      "inputs": [[1551, 0, 0]]
    }, 
    {
      "op": "elemwise_mul", 
      "name": "lstm_l1_t56_out", 
      "inputs": [[1545, 0, 0], [1552, 0, 0]]
    }, 
    {
      "op": "expand_dims", 
      "name": "expand_dims116", 
      "attrs": {"axis": "1"}, 
      "inputs": [[1553, 0, 0]]
    }, 
    {
      "op": "FullyConnected", 
      "name": "lstm_l0_t57_i2h", 
      "attrs": {"num_hidden": "800"}, 
      "inputs": [[3, 57, 0], [4, 0, 0], [5, 0, 0]]
    }, 
    {
      "op": "FullyConnected", 
      "name": "lstm_l0_t57_h2h", 
      "attrs": {"num_hidden": "800"}, 
      "inputs": [[1540, 0, 0], [8, 0, 0], [9, 0, 0]]
    }, 
    {
      "op": "elemwise_add", 
      "name": "_plus177", 
      "inputs": [[1555, 0, 0], [1556, 0, 0]]
    }, 
    {
      "op": "SliceChannel", 
      "name": "lstm_l0_t57_slice", 
      "attrs": {"num_outputs": "4"}, 
      "inputs": [[1557, 0, 0]]
    }, 
    {
      "op": "Activation", 
      "name": "lstm_l0_t57_o", 
      "attrs": {"act_type": "sigmoid"}, 
      "inputs": [[1558, 3, 0]]
    }, 
    {
      "op": "Activation", 
      "name": "lstm_l0_t57_f", 
      "attrs": {"act_type": "sigmoid"}, 
      "inputs": [[1558, 1, 0]]
    }, 
    {
      "op": "elemwise_mul", 
      "name": "_mul354", 
      "inputs": [[1560, 0, 0], [1538, 0, 0]]
    }, 
    {
      "op": "Activation", 
      "name": "lstm_l0_t57_i", 
      "attrs": {"act_type": "sigmoid"}, 
      "inputs": [[1558, 0, 0]]
    }, 
    {
      "op": "Activation", 
      "name": "lstm_l0_t57_c", 
      "attrs": {"act_type": "tanh"}, 
      "inputs": [[1558, 2, 0]]
    }, 
    {
      "op": "elemwise_mul", 
      "name": "_mul355", 
      "inputs": [[1562, 0, 0], [1563, 0, 0]]
    }, 
    {
      "op": "elemwise_add", 
      "name": "lstm_l0_t57_state", 
      "inputs": [[1561, 0, 0], [1564, 0, 0]]
    }, 
    {
      "op": "Activation", 
      "name": "activation177", 
      "attrs": {"act_type": "tanh"}, 
      "inputs": [[1565, 0, 0]]
    }, 
    {
      "op": "elemwise_mul", 
      "name": "lstm_l0_t57_out", 
      "inputs": [[1559, 0, 0], [1566, 0, 0]]
    }, 
    {
      "op": "FullyConnected", 
      "name": "lstm_l1_t57_i2h", 
      "attrs": {"num_hidden": "800"}, 
      "inputs": [[1567, 0, 0], [23, 0, 0], [24, 0, 0]]
    }, 
    {
      "op": "FullyConnected", 
      "name": "lstm_l1_t57_h2h", 
      "attrs": {"num_hidden": "800"}, 
      "inputs": [[1553, 0, 0], [27, 0, 0], [28, 0, 0]]
    }, 
    {
      "op": "elemwise_add", 
      "name": "_plus237", 
      "inputs": [[1568, 0, 0], [1569, 0, 0]]
    }, 
    {
      "op": "SliceChannel", 
      "name": "lstm_l1_t57_slice", 
      "attrs": {"num_outputs": "4"}, 
      "inputs": [[1570, 0, 0]]
    }, 
    {
      "op": "Activation", 
      "name": "lstm_l1_t57_o", 
      "attrs": {"act_type": "sigmoid"}, 
      "inputs": [[1571, 3, 0]]
    }, 
    {
      "op": "Activation", 
      "name": "lstm_l1_t57_f", 
      "attrs": {"act_type": "sigmoid"}, 
      "inputs": [[1571, 1, 0]]
    }, 
    {
      "op": "elemwise_mul", 
      "name": "_mul474", 
      "inputs": [[1573, 0, 0], [1551, 0, 0]]
    }, 
    {
      "op": "Activation", 
      "name": "lstm_l1_t57_i", 
      "attrs": {"act_type": "sigmoid"}, 
      "inputs": [[1571, 0, 0]]
    }, 
    {
      "op": "Activation", 
      "name": "lstm_l1_t57_c", 
      "attrs": {"act_type": "tanh"}, 
      "inputs": [[1571, 2, 0]]
    }, 
    {
      "op": "elemwise_mul", 
      "name": "_mul475", 
      "inputs": [[1575, 0, 0], [1576, 0, 0]]
    }, 
    {
      "op": "elemwise_add", 
      "name": "lstm_l1_t57_state", 
      "inputs": [[1574, 0, 0], [1577, 0, 0]]
    }, 
    {
      "op": "Activation", 
      "name": "activation237", 
      "attrs": {"act_type": "tanh"}, 
      "inputs": [[1578, 0, 0]]
    }, 
    {
      "op": "elemwise_mul", 
      "name": "lstm_l1_t57_out", 
      "inputs": [[1572, 0, 0], [1579, 0, 0]]
    }, 
    {
      "op": "expand_dims", 
      "name": "expand_dims117", 
      "attrs": {"axis": "1"}, 
      "inputs": [[1580, 0, 0]]
    }, 
    {
      "op": "FullyConnected", 
      "name": "lstm_l0_t58_i2h", 
      "attrs": {"num_hidden": "800"}, 
      "inputs": [[3, 58, 0], [4, 0, 0], [5, 0, 0]]
    }, 
    {
      "op": "FullyConnected", 
      "name": "lstm_l0_t58_h2h", 
      "attrs": {"num_hidden": "800"}, 
      "inputs": [[1567, 0, 0], [8, 0, 0], [9, 0, 0]]
    }, 
    {
      "op": "elemwise_add", 
      "name": "_plus178", 
      "inputs": [[1582, 0, 0], [1583, 0, 0]]
    }, 
    {
      "op": "SliceChannel", 
      "name": "lstm_l0_t58_slice", 
      "attrs": {"num_outputs": "4"}, 
      "inputs": [[1584, 0, 0]]
    }, 
    {
      "op": "Activation", 
      "name": "lstm_l0_t58_o", 
      "attrs": {"act_type": "sigmoid"}, 
      "inputs": [[1585, 3, 0]]
    }, 
    {
      "op": "Activation", 
      "name": "lstm_l0_t58_f", 
      "attrs": {"act_type": "sigmoid"}, 
      "inputs": [[1585, 1, 0]]
    }, 
    {
      "op": "elemwise_mul", 
      "name": "_mul356", 
      "inputs": [[1587, 0, 0], [1565, 0, 0]]
    }, 
    {
      "op": "Activation", 
      "name": "lstm_l0_t58_i", 
      "attrs": {"act_type": "sigmoid"}, 
      "inputs": [[1585, 0, 0]]
    }, 
    {
      "op": "Activation", 
      "name": "lstm_l0_t58_c", 
      "attrs": {"act_type": "tanh"}, 
      "inputs": [[1585, 2, 0]]
    }, 
    {
      "op": "elemwise_mul", 
      "name": "_mul357", 
      "inputs": [[1589, 0, 0], [1590, 0, 0]]
    }, 
    {
      "op": "elemwise_add", 
      "name": "lstm_l0_t58_state", 
      "inputs": [[1588, 0, 0], [1591, 0, 0]]
    }, 
    {
      "op": "Activation", 
      "name": "activation178", 
      "attrs": {"act_type": "tanh"}, 
      "inputs": [[1592, 0, 0]]
    }, 
    {
      "op": "elemwise_mul", 
      "name": "lstm_l0_t58_out", 
      "inputs": [[1586, 0, 0], [1593, 0, 0]]
    }, 
    {
      "op": "FullyConnected", 
      "name": "lstm_l1_t58_i2h", 
      "attrs": {"num_hidden": "800"}, 
      "inputs": [[1594, 0, 0], [23, 0, 0], [24, 0, 0]]
    }, 
    {
      "op": "FullyConnected", 
      "name": "lstm_l1_t58_h2h", 
      "attrs": {"num_hidden": "800"}, 
      "inputs": [[1580, 0, 0], [27, 0, 0], [28, 0, 0]]
    }, 
    {
      "op": "elemwise_add", 
      "name": "_plus238", 
      "inputs": [[1595, 0, 0], [1596, 0, 0]]
    }, 
    {
      "op": "SliceChannel", 
      "name": "lstm_l1_t58_slice", 
      "attrs": {"num_outputs": "4"}, 
      "inputs": [[1597, 0, 0]]
    }, 
    {
      "op": "Activation", 
      "name": "lstm_l1_t58_o", 
      "attrs": {"act_type": "sigmoid"}, 
      "inputs": [[1598, 3, 0]]
    }, 
    {
      "op": "Activation", 
      "name": "lstm_l1_t58_f", 
      "attrs": {"act_type": "sigmoid"}, 
      "inputs": [[1598, 1, 0]]
    }, 
    {
      "op": "elemwise_mul", 
      "name": "_mul476", 
      "inputs": [[1600, 0, 0], [1578, 0, 0]]
    }, 
    {
      "op": "Activation", 
      "name": "lstm_l1_t58_i", 
      "attrs": {"act_type": "sigmoid"}, 
      "inputs": [[1598, 0, 0]]
    }, 
    {
      "op": "Activation", 
      "name": "lstm_l1_t58_c", 
      "attrs": {"act_type": "tanh"}, 
      "inputs": [[1598, 2, 0]]
    }, 
    {
      "op": "elemwise_mul", 
      "name": "_mul477", 
      "inputs": [[1602, 0, 0], [1603, 0, 0]]
    }, 
    {
      "op": "elemwise_add", 
      "name": "lstm_l1_t58_state", 
      "inputs": [[1601, 0, 0], [1604, 0, 0]]
    }, 
    {
      "op": "Activation", 
      "name": "activation238", 
      "attrs": {"act_type": "tanh"}, 
      "inputs": [[1605, 0, 0]]
    }, 
    {
      "op": "elemwise_mul", 
      "name": "lstm_l1_t58_out", 
      "inputs": [[1599, 0, 0], [1606, 0, 0]]
    }, 
    {
      "op": "expand_dims", 
      "name": "expand_dims118", 
      "attrs": {"axis": "1"}, 
      "inputs": [[1607, 0, 0]]
    }, 
    {
      "op": "FullyConnected", 
      "name": "lstm_l0_t59_i2h", 
      "attrs": {"num_hidden": "800"}, 
      "inputs": [[3, 59, 0], [4, 0, 0], [5, 0, 0]]
    }, 
    {
      "op": "FullyConnected", 
      "name": "lstm_l0_t59_h2h", 
      "attrs": {"num_hidden": "800"}, 
      "inputs": [[1594, 0, 0], [8, 0, 0], [9, 0, 0]]
    }, 
    {
      "op": "elemwise_add", 
      "name": "_plus179", 
      "inputs": [[1609, 0, 0], [1610, 0, 0]]
    }, 
    {
      "op": "SliceChannel", 
      "name": "lstm_l0_t59_slice", 
      "attrs": {"num_outputs": "4"}, 
      "inputs": [[1611, 0, 0]]
    }, 
    {
      "op": "Activation", 
      "name": "lstm_l0_t59_o", 
      "attrs": {"act_type": "sigmoid"}, 
      "inputs": [[1612, 3, 0]]
    }, 
    {
      "op": "Activation", 
      "name": "lstm_l0_t59_f", 
      "attrs": {"act_type": "sigmoid"}, 
      "inputs": [[1612, 1, 0]]
    }, 
    {
      "op": "elemwise_mul", 
      "name": "_mul358", 
      "inputs": [[1614, 0, 0], [1592, 0, 0]]
    }, 
    {
      "op": "Activation", 
      "name": "lstm_l0_t59_i", 
      "attrs": {"act_type": "sigmoid"}, 
      "inputs": [[1612, 0, 0]]
    }, 
    {
      "op": "Activation", 
      "name": "lstm_l0_t59_c", 
      "attrs": {"act_type": "tanh"}, 
      "inputs": [[1612, 2, 0]]
    }, 
    {
      "op": "elemwise_mul", 
      "name": "_mul359", 
      "inputs": [[1616, 0, 0], [1617, 0, 0]]
    }, 
    {
      "op": "elemwise_add", 
      "name": "lstm_l0_t59_state", 
      "inputs": [[1615, 0, 0], [1618, 0, 0]]
    }, 
    {
      "op": "Activation", 
      "name": "activation179", 
      "attrs": {"act_type": "tanh"}, 
      "inputs": [[1619, 0, 0]]
    }, 
    {
      "op": "elemwise_mul", 
      "name": "lstm_l0_t59_out", 
      "inputs": [[1613, 0, 0], [1620, 0, 0]]
    }, 
    {
      "op": "FullyConnected", 
      "name": "lstm_l1_t59_i2h", 
      "attrs": {"num_hidden": "800"}, 
      "inputs": [[1621, 0, 0], [23, 0, 0], [24, 0, 0]]
    }, 
    {
      "op": "FullyConnected", 
      "name": "lstm_l1_t59_h2h", 
      "attrs": {"num_hidden": "800"}, 
      "inputs": [[1607, 0, 0], [27, 0, 0], [28, 0, 0]]
    }, 
    {
      "op": "elemwise_add", 
      "name": "_plus239", 
      "inputs": [[1622, 0, 0], [1623, 0, 0]]
    }, 
    {
      "op": "SliceChannel", 
      "name": "lstm_l1_t59_slice", 
      "attrs": {"num_outputs": "4"}, 
      "inputs": [[1624, 0, 0]]
    }, 
    {
      "op": "Activation", 
      "name": "lstm_l1_t59_o", 
      "attrs": {"act_type": "sigmoid"}, 
      "inputs": [[1625, 3, 0]]
    }, 
    {
      "op": "Activation", 
      "name": "lstm_l1_t59_f", 
      "attrs": {"act_type": "sigmoid"}, 
      "inputs": [[1625, 1, 0]]
    }, 
    {
      "op": "elemwise_mul", 
      "name": "_mul478", 
      "inputs": [[1627, 0, 0], [1605, 0, 0]]
    }, 
    {
      "op": "Activation", 
      "name": "lstm_l1_t59_i", 
      "attrs": {"act_type": "sigmoid"}, 
      "inputs": [[1625, 0, 0]]
    }, 
    {
      "op": "Activation", 
      "name": "lstm_l1_t59_c", 
      "attrs": {"act_type": "tanh"}, 
      "inputs": [[1625, 2, 0]]
    }, 
    {
      "op": "elemwise_mul", 
      "name": "_mul479", 
      "inputs": [[1629, 0, 0], [1630, 0, 0]]
    }, 
    {
      "op": "elemwise_add", 
      "name": "lstm_l1_t59_state", 
      "inputs": [[1628, 0, 0], [1631, 0, 0]]
    }, 
    {
      "op": "Activation", 
      "name": "activation239", 
      "attrs": {"act_type": "tanh"}, 
      "inputs": [[1632, 0, 0]]
    }, 
    {
      "op": "elemwise_mul", 
      "name": "lstm_l1_t59_out", 
      "inputs": [[1626, 0, 0], [1633, 0, 0]]
    }, 
    {
      "op": "expand_dims", 
      "name": "expand_dims119", 
      "attrs": {"axis": "1"}, 
      "inputs": [[1634, 0, 0]]
    }, 
    {
      "op": "Concat", 
      "name": "concat1", 
      "attrs": {
        "dim": "1", 
        "num_args": "60"
      }, 
      "inputs": [
        [42, 0, 0], 
        [69, 0, 0], 
        [96, 0, 0], 
        [123, 0, 0], 
        [150, 0, 0], 
        [177, 0, 0], 
        [204, 0, 0], 
        [231, 0, 0], 
        [258, 0, 0], 
        [285, 0, 0], 
        [312, 0, 0], 
        [339, 0, 0], 
        [366, 0, 0], 
        [393, 0, 0], 
        [420, 0, 0], 
        [447, 0, 0], 
        [474, 0, 0], 
        [501, 0, 0], 
        [528, 0, 0], 
        [555, 0, 0], 
        [582, 0, 0], 
        [609, 0, 0], 
        [636, 0, 0], 
        [663, 0, 0], 
        [690, 0, 0], 
        [717, 0, 0], 
        [744, 0, 0], 
        [771, 0, 0], 
        [798, 0, 0], 
        [825, 0, 0], 
        [852, 0, 0], 
        [879, 0, 0], 
        [906, 0, 0], 
        [933, 0, 0], 
        [960, 0, 0], 
        [987, 0, 0], 
        [1014, 0, 0], 
        [1041, 0, 0], 
        [1068, 0, 0], 
        [1095, 0, 0], 
        [1122, 0, 0], 
        [1149, 0, 0], 
        [1176, 0, 0], 
        [1203, 0, 0], 
        [1230, 0, 0], 
        [1257, 0, 0], 
        [1284, 0, 0], 
        [1311, 0, 0], 
        [1338, 0, 0], 
        [1365, 0, 0], 
        [1392, 0, 0], 
        [1419, 0, 0], 
        [1446, 0, 0], 
        [1473, 0, 0], 
        [1500, 0, 0], 
        [1527, 0, 0], 
        [1554, 0, 0], 
        [1581, 0, 0], 
        [1608, 0, 0], 
        [1635, 0, 0]
      ]
    }, 
    {
      "op": "Reshape", 
      "name": "reshape2", 
      "attrs": {"shape": "(-1, 200)"}, 
      "inputs": [[1636, 0, 0]]
    }, 
    {
      "op": "null", 
      "name": "pred_weight", 
      "attrs": {"num_hidden": "10000"}, 
      "inputs": []
    }, 
    {
      "op": "null", 
      "name": "pred_bias", 
      "attrs": {"num_hidden": "10000"}, 
      "inputs": []
    }, 
    {
      "op": "FullyConnected", 
      "name": "pred", 
      "attrs": {"num_hidden": "10000"}, 
      "inputs": [[1637, 0, 0], [1638, 0, 0], [1639, 0, 0]]
    }, 
    {
      "op": "null", 
      "name": "softmax_label", 
      "inputs": []
    }, 
    {
      "op": "Reshape", 
      "name": "reshape3", 
      "attrs": {"shape": "(-1,)"}, 
      "inputs": [[1641, 0, 0]]
    }, 
    {
      "op": "SoftmaxOutput", 
      "name": "softmax", 
      "inputs": [[1640, 0, 0], [1642, 0, 0]]
    }
  ], 
  "arg_nodes": [
    0, 
    1, 
    4, 
    5, 
    8, 
    9, 
    23, 
    24, 
    27, 
    28, 
    1638, 
    1639, 
    1641
  ], 
  "node_row_ptr": [
    0, 
    1, 
    2, 
    3, 
    63, 
    64, 
    65, 
    66, 
    67, 
    68, 
    69, 
    70, 
    71, 
    75, 
    76, 
    77, 
    78, 
    79, 
    80, 
    81, 
    82, 
    83, 
    84, 
    85, 
    86, 
    87, 
    88, 
    89, 
    90, 
    91, 
    92, 
    93, 
    97, 
    98, 
    99, 
    100, 
    101, 
    102, 
    103, 
    104, 
    105, 
    106, 
    107, 
    108, 
    109, 
    110, 
    111, 
    115, 
    116, 
    117, 
    118, 
    119, 
    120, 
    121, 
    122, 
    123, 
    124, 
    125, 
    126, 
    127, 
    131, 
    132, 
    133, 
    134, 
    135, 
    136, 
    137, 
    138, 
    139, 
    140, 
    141, 
    142, 
    143, 
    144, 
    148, 
    149, 
    150, 
    151, 
    152, 
    153, 
    154, 
    155, 
    156, 
    157, 
    158, 
    159, 
    160, 
    164, 
    165, 
    166, 
    167, 
    168, 
    169, 
    170, 
    171, 
    172, 
    173, 
    174, 
    175, 
    176, 
    177, 
    181, 
    182, 
    183, 
    184, 
    185, 
    186, 
    187, 
    188, 
    189, 
    190, 
    191, 
    192, 
    193, 
    197, 
    198, 
    199, 
    200, 
    201, 
    202, 
    203, 
    204, 
    205, 
    206, 
    207, 
    208, 
    209, 
    210, 
    214, 
    215, 
    216, 
    217, 
    218, 
    219, 
    220, 
    221, 
    222, 
    223, 
    224, 
    225, 
    226, 
    230, 
    231, 
    232, 
    233, 
    234, 
    235, 
    236, 
    237, 
    238, 
    239, 
    240, 
    241, 
    242, 
    243, 
    247, 
    248, 
    249, 
    250, 
    251, 
    252, 
    253, 
    254, 
    255, 
    256, 
    257, 
    258, 
    259, 
    263, 
    264, 
    265, 
    266, 
    267, 
    268, 
    269, 
    270, 
    271, 
    272, 
    273, 
    274, 
    275, 
    276, 
    280, 
    281, 
    282, 
    283, 
    284, 
    285, 
    286, 
    287, 
    288, 
    289, 
    290, 
    291, 
    292, 
    296, 
    297, 
    298, 
    299, 
    300, 
    301, 
    302, 
    303, 
    304, 
    305, 
    306, 
    307, 
    308, 
    309, 
    313, 
    314, 
    315, 
    316, 
    317, 
    318, 
    319, 
    320, 
    321, 
    322, 
    323, 
    324, 
    325, 
    329, 
    330, 
    331, 
    332, 
    333, 
    334, 
    335, 
    336, 
    337, 
    338, 
    339, 
    340, 
    341, 
    342, 
    346, 
    347, 
    348, 
    349, 
    350, 
    351, 
    352, 
    353, 
    354, 
    355, 
    356, 
    357, 
    358, 
    362, 
    363, 
    364, 
    365, 
    366, 
    367, 
    368, 
    369, 
    370, 
    371, 
    372, 
    373, 
    374, 
    375, 
    379, 
    380, 
    381, 
    382, 
    383, 
    384, 
    385, 
    386, 
    387, 
    388, 
    389, 
    390, 
    391, 
    395, 
    396, 
    397, 
    398, 
    399, 
    400, 
    401, 
    402, 
    403, 
    404, 
    405, 
    406, 
    407, 
    408, 
    412, 
    413, 
    414, 
    415, 
    416, 
    417, 
    418, 
    419, 
    420, 
    421, 
    422, 
    423, 
    424, 
    428, 
    429, 
    430, 
    431, 
    432, 
    433, 
    434, 
    435, 
    436, 
    437, 
    438, 
    439, 
    440, 
    441, 
    445, 
    446, 
    447, 
    448, 
    449, 
    450, 
    451, 
    452, 
    453, 
    454, 
    455, 
    456, 
    457, 
    461, 
    462, 
    463, 
    464, 
    465, 
    466, 
    467, 
    468, 
    469, 
    470, 
    471, 
    472, 
    473, 
    474, 
    478, 
    479, 
    480, 
    481, 
    482, 
    483, 
    484, 
    485, 
    486, 
    487, 
    488, 
    489, 
    490, 
    494, 
    495, 
    496, 
    497, 
    498, 
    499, 
    500, 
    501, 
    502, 
    503, 
    504, 
    505, 
    506, 
    507, 
    511, 
    512, 
    513, 
    514, 
    515, 
    516, 
    517, 
    518, 
    519, 
    520, 
    521, 
    522, 
    523, 
    527, 
    528, 
    529, 
    530, 
    531, 
    532, 
    533, 
    534, 
    535, 
    536, 
    537, 
    538, 
    539, 
    540, 
    544, 
    545, 
    546, 
    547, 
    548, 
    549, 
    550, 
    551, 
    552, 
    553, 
    554, 
    555, 
    556, 
    560, 
    561, 
    562, 
    563, 
    564, 
    565, 
    566, 
    567, 
    568, 
    569, 
    570, 
    571, 
    572, 
    573, 
    577, 
    578, 
    579, 
    580, 
    581, 
    582, 
    583, 
    584, 
    585, 
    586, 
    587, 
    588, 
    589, 
    593, 
    594, 
    595, 
    596, 
    597, 
    598, 
    599, 
    600, 
    601, 
    602, 
    603, 
    604, 
    605, 
    606, 
    610, 
    611, 
    612, 
    613, 
    614, 
    615, 
    616, 
    617, 
    618, 
    619, 
    620, 
    621, 
    622, 
    626, 
    627, 
    628, 
    629, 
    630, 
    631, 
    632, 
    633, 
    634, 
    635, 
    636, 
    637, 
    638, 
    639, 
    643, 
    644, 
    645, 
    646, 
    647, 
    648, 
    649, 
    650, 
    651, 
    652, 
    653, 
    654, 
    655, 
    659, 
    660, 
    661, 
    662, 
    663, 
    664, 
    665, 
    666, 
    667, 
    668, 
    669, 
    670, 
    671, 
    672, 
    676, 
    677, 
    678, 
    679, 
    680, 
    681, 
    682, 
    683, 
    684, 
    685, 
    686, 
    687, 
    688, 
    692, 
    693, 
    694, 
    695, 
    696, 
    697, 
    698, 
    699, 
    700, 
    701, 
    702, 
    703, 
    704, 
    705, 
    709, 
    710, 
    711, 
    712, 
    713, 
    714, 
    715, 
    716, 
    717, 
    718, 
    719, 
    720, 
    721, 
    725, 
    726, 
    727, 
    728, 
    729, 
    730, 
    731, 
    732, 
    733, 
    734, 
    735, 
    736, 
    737, 
    738, 
    742, 
    743, 
    744, 
    745, 
    746, 
    747, 
    748, 
    749, 
    750, 
    751, 
    752, 
    753, 
    754, 
    758, 
    759, 
    760, 
    761, 
    762, 
    763, 
    764, 
    765, 
    766, 
    767, 
    768, 
    769, 
    770, 
    771, 
    775, 
    776, 
    777, 
    778, 
    779, 
    780, 
    781, 
    782, 
    783, 
    784, 
    785, 
    786, 
    787, 
    791, 
    792, 
    793, 
    794, 
    795, 
    796, 
    797, 
    798, 
    799, 
    800, 
    801, 
    802, 
    803, 
    804, 
    808, 
    809, 
    810, 
    811, 
    812, 
    813, 
    814, 
    815, 
    816, 
    817, 
    818, 
    819, 
    820, 
    824, 
    825, 
    826, 
    827, 
    828, 
    829, 
    830, 
    831, 
    832, 
    833, 
    834, 
    835, 
    836, 
    837, 
    841, 
    842, 
    843, 
    844, 
    845, 
    846, 
    847, 
    848, 
    849, 
    850, 
    851, 
    852, 
    853, 
    857, 
    858, 
    859, 
    860, 
    861, 
    862, 
    863, 
    864, 
    865, 
    866, 
    867, 
    868, 
    869, 
    870, 
    874, 
    875, 
    876, 
    877, 
    878, 
    879, 
    880, 
    881, 
    882, 
    883, 
    884, 
    885, 
    886, 
    890, 
    891, 
    892, 
    893, 
    894, 
    895, 
    896, 
    897, 
    898, 
    899, 
    900, 
    901, 
    902, 
    903, 
    907, 
    908, 
    909, 
    910, 
    911, 
    912, 
    913, 
    914, 
    915, 
    916, 
    917, 
    918, 
    919, 
    923, 
    924, 
    925, 
    926, 
    927, 
    928, 
    929, 
    930, 
    931, 
    932, 
    933, 
    934, 
    935, 
    936, 
    940, 
    941, 
    942, 
    943, 
    944, 
    945, 
    946, 
    947, 
    948, 
    949, 
    950, 
    951, 
    952, 
    956, 
    957, 
    958, 
    959, 
    960, 
    961, 
    962, 
    963, 
    964, 
    965, 
    966, 
    967, 
    968, 
    969, 
    973, 
    974, 
    975, 
    976, 
    977, 
    978, 
    979, 
    980, 
    981, 
    982, 
    983, 
    984, 
    985, 
    989, 
    990, 
    991, 
    992, 
    993, 
    994, 
    995, 
    996, 
    997, 
    998, 
    999, 
    1000, 
    1001, 
    1002, 
    1006, 
    1007, 
    1008, 
    1009, 
    1010, 
    1011, 
    1012, 
    1013, 
    1014, 
    1015, 
    1016, 
    1017, 
    1018, 
    1022, 
    1023, 
    1024, 
    1025, 
    1026, 
    1027, 
    1028, 
    1029, 
    1030, 
    1031, 
    1032, 
    1033, 
    1034, 
    1035, 
    1039, 
    1040, 
    1041, 
    1042, 
    1043, 
    1044, 
    1045, 
    1046, 
    1047, 
    1048, 
    1049, 
    1050, 
    1051, 
    1055, 
    1056, 
    1057, 
    1058, 
    1059, 
    1060, 
    1061, 
    1062, 
    1063, 
    1064, 
    1065, 
    1066, 
    1067, 
    1068, 
    1072, 
    1073, 
    1074, 
    1075, 
    1076, 
    1077, 
    1078, 
    1079, 
    1080, 
    1081, 
    1082, 
    1083, 
    1084, 
    1088, 
    1089, 
    1090, 
    1091, 
    1092, 
    1093, 
    1094, 
    1095, 
    1096, 
    1097, 
    1098, 
    1099, 
    1100, 
    1101, 
    1105, 
    1106, 
    1107, 
    1108, 
    1109, 
    1110, 
    1111, 
    1112, 
    1113, 
    1114, 
    1115, 
    1116, 
    1117, 
    1121, 
    1122, 
    1123, 
    1124, 
    1125, 
    1126, 
    1127, 
    1128, 
    1129, 
    1130, 
    1131, 
    1132, 
    1133, 
    1134, 
    1138, 
    1139, 
    1140, 
    1141, 
    1142, 
    1143, 
    1144, 
    1145, 
    1146, 
    1147, 
    1148, 
    1149, 
    1150, 
    1154, 
    1155, 
    1156, 
    1157, 
    1158, 
    1159, 
    1160, 
    1161, 
    1162, 
    1163, 
    1164, 
    1165, 
    1166, 
    1167, 
    1171, 
    1172, 
    1173, 
    1174, 
    1175, 
    1176, 
    1177, 
    1178, 
    1179, 
    1180, 
    1181, 
    1182, 
    1183, 
    1187, 
    1188, 
    1189, 
    1190, 
    1191, 
    1192, 
    1193, 
    1194, 
    1195, 
    1196, 
    1197, 
    1198, 
    1199, 
    1200, 
    1204, 
    1205, 
    1206, 
    1207, 
    1208, 
    1209, 
    1210, 
    1211, 
    1212, 
    1213, 
    1214, 
    1215, 
    1216, 
    1220, 
    1221, 
    1222, 
    1223, 
    1224, 
    1225, 
    1226, 
    1227, 
    1228, 
    1229, 
    1230, 
    1231, 
    1232, 
    1233, 
    1237, 
    1238, 
    1239, 
    1240, 
    1241, 
    1242, 
    1243, 
    1244, 
    1245, 
    1246, 
    1247, 
    1248, 
    1249, 
    1253, 
    1254, 
    1255, 
    1256, 
    1257, 
    1258, 
    1259, 
    1260, 
    1261, 
    1262, 
    1263, 
    1264, 
    1265, 
    1266, 
    1270, 
    1271, 
    1272, 
    1273, 
    1274, 
    1275, 
    1276, 
    1277, 
    1278, 
    1279, 
    1280, 
    1281, 
    1282, 
    1286, 
    1287, 
    1288, 
    1289, 
    1290, 
    1291, 
    1292, 
    1293, 
    1294, 
    1295, 
    1296, 
    1297, 
    1298, 
    1299, 
    1303, 
    1304, 
    1305, 
    1306, 
    1307, 
    1308, 
    1309, 
    1310, 
    1311, 
    1312, 
    1313, 
    1314, 
    1315, 
    1319, 
    1320, 
    1321, 
    1322, 
    1323, 
    1324, 
    1325, 
    1326, 
    1327, 
    1328, 
    1329, 
    1330, 
    1331, 
    1332, 
    1336, 
    1337, 
    1338, 
    1339, 
    1340, 
    1341, 
    1342, 
    1343, 
    1344, 
    1345, 
    1346, 
    1347, 
    1348, 
    1352, 
    1353, 
    1354, 
    1355, 
    1356, 
    1357, 
    1358, 
    1359, 
    1360, 
    1361, 
    1362, 
    1363, 
    1364, 
    1365, 
    1369, 
    1370, 
    1371, 
    1372, 
    1373, 
    1374, 
    1375, 
    1376, 
    1377, 
    1378, 
    1379, 
    1380, 
    1381, 
    1385, 
    1386, 
    1387, 
    1388, 
    1389, 
    1390, 
    1391, 
    1392, 
    1393, 
    1394, 
    1395, 
    1396, 
    1397, 
    1398, 
    1402, 
    1403, 
    1404, 
    1405, 
    1406, 
    1407, 
    1408, 
    1409, 
    1410, 
    1411, 
    1412, 
    1413, 
    1414, 
    1418, 
    1419, 
    1420, 
    1421, 
    1422, 
    1423, 
    1424, 
    1425, 
    1426, 
    1427, 
    1428, 
    1429, 
    1430, 
    1431, 
    1435, 
    1436, 
    1437, 
    1438, 
    1439, 
    1440, 
    1441, 
    1442, 
    1443, 
    1444, 
    1445, 
    1446, 
    1447, 
    1451, 
    1452, 
    1453, 
    1454, 
    1455, 
    1456, 
    1457, 
    1458, 
    1459, 
    1460, 
    1461, 
    1462, 
    1463, 
    1464, 
    1468, 
    1469, 
    1470, 
    1471, 
    1472, 
    1473, 
    1474, 
    1475, 
    1476, 
    1477, 
    1478, 
    1479, 
    1480, 
    1484, 
    1485, 
    1486, 
    1487, 
    1488, 
    1489, 
    1490, 
    1491, 
    1492, 
    1493, 
    1494, 
    1495, 
    1496, 
    1497, 
    1501, 
    1502, 
    1503, 
    1504, 
    1505, 
    1506, 
    1507, 
    1508, 
    1509, 
    1510, 
    1511, 
    1512, 
    1513, 
    1517, 
    1518, 
    1519, 
    1520, 
    1521, 
    1522, 
    1523, 
    1524, 
    1525, 
    1526, 
    1527, 
    1528, 
    1529, 
    1530, 
    1534, 
    1535, 
    1536, 
    1537, 
    1538, 
    1539, 
    1540, 
    1541, 
    1542, 
    1543, 
    1544, 
    1545, 
    1546, 
    1550, 
    1551, 
    1552, 
    1553, 
    1554, 
    1555, 
    1556, 
    1557, 
    1558, 
    1559, 
    1560, 
    1561, 
    1562, 
    1563, 
    1567, 
    1568, 
    1569, 
    1570, 
    1571, 
    1572, 
    1573, 
    1574, 
    1575, 
    1576, 
    1577, 
    1578, 
    1579, 
    1583, 
    1584, 
    1585, 
    1586, 
    1587, 
    1588, 
    1589, 
    1590, 
    1591, 
    1592, 
    1593, 
    1594, 
    1595, 
    1596, 
    1600, 
    1601, 
    1602, 
    1603, 
    1604, 
    1605, 
    1606, 
    1607, 
    1608, 
    1609, 
    1610, 
    1611, 
    1612, 
    1616, 
    1617, 
    1618, 
    1619, 
    1620, 
    1621, 
    1622, 
    1623, 
    1624, 
    1625, 
    1626, 
    1627, 
    1628, 
    1629, 
    1633, 
    1634, 
    1635, 
    1636, 
    1637, 
    1638, 
    1639, 
    1640, 
    1641, 
    1642, 
    1643, 
    1644, 
    1645, 
    1649, 
    1650, 
    1651, 
    1652, 
    1653, 
    1654, 
    1655, 
    1656, 
    1657, 
    1658, 
    1659, 
    1660, 
    1661, 
    1662, 
    1666, 
    1667, 
    1668, 
    1669, 
    1670, 
    1671, 
    1672, 
    1673, 
    1674, 
    1675, 
    1676, 
    1677, 
    1678, 
    1682, 
    1683, 
    1684, 
    1685, 
    1686, 
    1687, 
    1688, 
    1689, 
    1690, 
    1691, 
    1692, 
    1693, 
    1694, 
    1695, 
    1699, 
    1700, 
    1701, 
    1702, 
    1703, 
    1704, 
    1705, 
    1706, 
    1707, 
    1708, 
    1709, 
    1710, 
    1711, 
    1715, 
    1716, 
    1717, 
    1718, 
    1719, 
    1720, 
    1721, 
    1722, 
    1723, 
    1724, 
    1725, 
    1726, 
    1727, 
    1728, 
    1732, 
    1733, 
    1734, 
    1735, 
    1736, 
    1737, 
    1738, 
    1739, 
    1740, 
    1741, 
    1742, 
    1743, 
    1744, 
    1748, 
    1749, 
    1750, 
    1751, 
    1752, 
    1753, 
    1754, 
    1755, 
    1756, 
    1757, 
    1758, 
    1759, 
    1760, 
    1761, 
    1765, 
    1766, 
    1767, 
    1768, 
    1769, 
    1770, 
    1771, 
    1772, 
    1773, 
    1774, 
    1775, 
    1776, 
    1777, 
    1781, 
    1782, 
    1783, 
    1784, 
    1785, 
    1786, 
    1787, 
    1788, 
    1789, 
    1790, 
    1791, 
    1792, 
    1793, 
    1794, 
    1798, 
    1799, 
    1800, 
    1801, 
    1802, 
    1803, 
    1804, 
    1805, 
    1806, 
    1807, 
    1808, 
    1809, 
    1810, 
    1814, 
    1815, 
    1816, 
    1817, 
    1818, 
    1819, 
    1820, 
    1821, 
    1822, 
    1823, 
    1824, 
    1825, 
    1826, 
    1827, 
    1831, 
    1832, 
    1833, 
    1834, 
    1835, 
    1836, 
    1837, 
    1838, 
    1839, 
    1840, 
    1841, 
    1842, 
    1843, 
    1847, 
    1848, 
    1849, 
    1850, 
    1851, 
    1852, 
    1853, 
    1854, 
    1855, 
    1856, 
    1857, 
    1858, 
    1859, 
    1860, 
    1864, 
    1865, 
    1866, 
    1867, 
    1868, 
    1869, 
    1870, 
    1871, 
    1872, 
    1873, 
    1874, 
    1875, 
    1876, 
    1880, 
    1881, 
    1882, 
    1883, 
    1884, 
    1885, 
    1886, 
    1887, 
    1888, 
    1889, 
    1890, 
    1891, 
    1892, 
    1893, 
    1897, 
    1898, 
    1899, 
    1900, 
    1901, 
    1902, 
    1903, 
    1904, 
    1905, 
    1906, 
    1907, 
    1908, 
    1909, 
    1913, 
    1914, 
    1915, 
    1916, 
    1917, 
    1918, 
    1919, 
    1920, 
    1921, 
    1922, 
    1923, 
    1924, 
    1925, 
    1926, 
    1930, 
    1931, 
    1932, 
    1933, 
    1934, 
    1935, 
    1936, 
    1937, 
    1938, 
    1939, 
    1940, 
    1941, 
    1942, 
    1946, 
    1947, 
    1948, 
    1949, 
    1950, 
    1951, 
    1952, 
    1953, 
    1954, 
    1955, 
    1956, 
    1957, 
    1958, 
    1959, 
    1963, 
    1964, 
    1965, 
    1966, 
    1967, 
    1968, 
    1969, 
    1970, 
    1971, 
    1972, 
    1973, 
    1974, 
    1975, 
    1979, 
    1980, 
    1981, 
    1982, 
    1983, 
    1984, 
    1985, 
    1986, 
    1987, 
    1988, 
    1989, 
    1990, 
    1991, 
    1992, 
    1996, 
    1997, 
    1998, 
    1999, 
    2000, 
    2001, 
    2002, 
    2003, 
    2004, 
    2005, 
    2006, 
    2007, 
    2008, 
    2012, 
    2013, 
    2014, 
    2015, 
    2016, 
    2017, 
    2018, 
    2019, 
    2020, 
    2021, 
    2022, 
    2023, 
    2024, 
    2025, 
    2029, 
    2030, 
    2031, 
    2032, 
    2033, 
    2034, 
    2035, 
    2036, 
    2037, 
    2038, 
    2039, 
    2040, 
    2041, 
    2045, 
    2046, 
    2047, 
    2048, 
    2049, 
    2050, 
    2051, 
    2052, 
    2053, 
    2054, 
    2055, 
    2056, 
    2057, 
    2058, 
    2059, 
    2060, 
    2061, 
    2062, 
    2063
  ], 
  "heads": [[1643, 0, 0]], 
  "attrs": {"mxnet_version": ["int", 10200]}
}