{
  "nodes": [
    {
      "op": "null", 
      "name": "target", 
      "inputs": []
    }, 
    {
      "op": "null", 
      "name": "target_embed_weight", 
      "attrs": {"__shape__": "(22666, 256)"}, 
      "inputs": []
    }, 
    {
      "op": "Embedding", 
      "name": "target_embed_embed", 
      "attrs": {
        "input_dim": "22666", 
        "output_dim": "256"
      }, 
      "inputs": [[0, 0, 0], [1, 0, 0]]
    }, 
    {
      "op": "SliceChannel", 
      "name": "split4", 
      "attrs": {
        "axis": "1", 
        "num_outputs": "100", 
        "squeeze_axis": "True"
      }, 
      "inputs": [[2, 0, 0]]
    }, 
    {
      "op": "null", 
      "name": "source", 
      "inputs": []
    }, 
    {
      "op": "SliceChannel", 
      "name": "split0", 
      "attrs": {
        "axis": "2", 
        "num_outputs": "1", 
        "squeeze_axis": "True"
      }, 
      "inputs": [[4, 0, 0]]
    }, 
    {
      "op": "_zeros", 
      "name": "_zeros0", 
      "attrs": {
        "dtype": "float32", 
        "shape": "(1,)"
      }, 
      "inputs": []
    }, 
    {
      "op": "broadcast_not_equal", 
      "name": "broadcast_not_equal0", 
      "inputs": [[5, 0, 0], [6, 0, 0]]
    }, 
    {
      "op": "sum", 
      "name": "sum0", 
      "attrs": {"axis": "1"}, 
      "inputs": [[7, 0, 0]]
    }, 
    {
      "op": "zeros_like", 
      "name": "zeros_like1", 
      "inputs": [[8, 0, 0]]
    }, 
    {
      "op": "expand_dims", 
      "name": "expand_dims300", 
      "attrs": {"axis": "1"}, 
      "inputs": [[9, 0, 0]]
    }, 
    {
      "op": "tile", 
      "name": "tile0", 
      "attrs": {"reps": "(1, 512)"}, 
      "inputs": [[10, 0, 0]]
    }, 
    {
      "op": "Concat", 
      "name": "decoder_rnn_concat_target_context_t0", 
      "attrs": {
        "dim": "1", 
        "num_args": "2"
      }, 
      "inputs": [[3, 0, 0], [11, 0, 0]]
    }, 
    {
      "op": "null", 
      "name": "decoder_rnn_l0_i2h_weight", 
      "inputs": []
    }, 
    {
      "op": "null", 
      "name": "decoder_rnn_l0_i2h_bias", 
      "attrs": {"__init__": "[\"lstmbias\", {\"forget_bias\": 0.0}]"}, 
      "inputs": []
    }, 
    {
      "op": "FullyConnected", 
      "name": "decoder_rnn_l0_t0_i2h", 
      "attrs": {"num_hidden": "2048"}, 
      "inputs": [[12, 0, 0], [13, 0, 0], [14, 0, 0]]
    }, 
    {
      "op": "SliceChannel", 
      "name": "source_embed_factor_split", 
      "attrs": {
        "axis": "2", 
        "num_outputs": "1", 
        "squeeze_axis": "True"
      }, 
      "inputs": [[4, 0, 0]]
    }, 
    {
      "op": "null", 
      "name": "source_embed_weight", 
      "attrs": {"__shape__": "(29350, 256)"}, 
      "inputs": []
    }, 
    {
      "op": "Embedding", 
      "name": "source_embed_embed", 
      "attrs": {
        "input_dim": "29350", 
        "output_dim": "256"
      }, 
      "inputs": [[16, 0, 0], [17, 0, 0]]
    }, 
    {
      "op": "SwapAxis", 
      "name": "swapaxes0", 
      "attrs": {
        "__layout__": "TNC", 
        "dim1": "0", 
        "dim2": "1"
      }, 
      "inputs": [[18, 0, 0]]
    }, 
    {
      "op": "SliceChannel", 
      "name": "split1", 
      "attrs": {
        "axis": "0", 
        "num_outputs": "100", 
        "squeeze_axis": "1"
      }, 
      "inputs": [[19, 0, 0]]
    }, 
    {
      "op": "null", 
      "name": "encoder_birnn_forward_l0_i2h_weight", 
      "inputs": []
    }, 
    {
      "op": "null", 
      "name": "encoder_birnn_forward_l0_i2h_bias", 
      "attrs": {"__init__": "[\"lstmbias\", {\"forget_bias\": 0.0}]"}, 
      "inputs": []
    }, 
    {
      "op": "FullyConnected", 
      "name": "encoder_birnn_forward_l0_t0_i2h", 
      "attrs": {"num_hidden": "1024"}, 
      "inputs": [[20, 0, 0], [21, 0, 0], [22, 0, 0]]
    }, 
    {
      "op": "_zeros", 
      "name": "encoder_birnn_forward_l0_begin_state_0", 
      "attrs": {
        "__layout__": "NC", 
        "dtype": "float32", 
        "shape": "(0, 256)"
      }, 
      "inputs": []
    }, 
    {
      "op": "null", 
      "name": "encoder_birnn_forward_l0_h2h_weight", 
      "inputs": []
    }, 
    {
      "op": "null", 
      "name": "encoder_birnn_forward_l0_h2h_bias", 
      "inputs": []
    }, 
    {
      "op": "FullyConnected", 
      "name": "encoder_birnn_forward_l0_t0_h2h", 
      "attrs": {"num_hidden": "1024"}, 
      "inputs": [[24, 0, 0], [25, 0, 0], [26, 0, 0]]
    }, 
    {
      "op": "elemwise_add", 
      "name": "_plus0", 
      "inputs": [[23, 0, 0], [27, 0, 0]]
    }, 
    {
      "op": "SliceChannel", 
      "name": "encoder_birnn_forward_l0_t0_slice", 
      "attrs": {"num_outputs": "4"}, 
      "inputs": [[28, 0, 0]]
    }, 
    {
      "op": "Activation", 
      "name": "encoder_birnn_forward_l0_t0_o", 
      "attrs": {"act_type": "sigmoid"}, 
      "inputs": [[29, 3, 0]]
    }, 
    {
      "op": "Activation", 
      "name": "encoder_birnn_forward_l0_t0_f", 
      "attrs": {"act_type": "sigmoid"}, 
      "inputs": [[29, 1, 0]]
    }, 
    {
      "op": "_zeros", 
      "name": "encoder_birnn_forward_l0_begin_state_1", 
      "attrs": {
        "__layout__": "NC", 
        "dtype": "float32", 
        "shape": "(0, 256)"
      }, 
      "inputs": []
    }, 
    {
      "op": "elemwise_mul", 
      "name": "_mul0", 
      "inputs": [[31, 0, 0], [32, 0, 0]]
    }, 
    {
      "op": "Activation", 
      "name": "encoder_birnn_forward_l0_t0_i", 
      "attrs": {"act_type": "sigmoid"}, 
      "inputs": [[29, 0, 0]]
    }, 
    {
      "op": "Activation", 
      "name": "encoder_birnn_forward_l0_t0_c", 
      "attrs": {"act_type": "tanh"}, 
      "inputs": [[29, 2, 0]]
    }, 
    {
      "op": "elemwise_mul", 
      "name": "_mul1", 
      "inputs": [[34, 0, 0], [35, 0, 0]]
    }, 
    {
      "op": "elemwise_add", 
      "name": "encoder_birnn_forward_l0_t0_state", 
      "inputs": [[33, 0, 0], [36, 0, 0]]
    }, 
    {
      "op": "Activation", 
      "name": "activation0", 
      "attrs": {"act_type": "tanh"}, 
      "inputs": [[37, 0, 0]]
    }, 
    {
      "op": "elemwise_mul", 
      "name": "encoder_birnn_forward_l0_t0_out", 
      "inputs": [[30, 0, 0], [38, 0, 0]]
    }, 
    {
      "op": "expand_dims", 
      "name": "expand_dims0", 
      "attrs": {"axis": "0"}, 
      "inputs": [[39, 0, 0]]
    }, 
    {
      "op": "FullyConnected", 
      "name": "encoder_birnn_forward_l0_t1_i2h", 
      "attrs": {"num_hidden": "1024"}, 
      "inputs": [[20, 1, 0], [21, 0, 0], [22, 0, 0]]
    }, 
    {
      "op": "FullyConnected", 
      "name": "encoder_birnn_forward_l0_t1_h2h", 
      "attrs": {"num_hidden": "1024"}, 
      "inputs": [[39, 0, 0], [25, 0, 0], [26, 0, 0]]
    }, 
    {
      "op": "elemwise_add", 
      "name": "_plus1", 
      "inputs": [[41, 0, 0], [42, 0, 0]]
    }, 
    {
      "op": "SliceChannel", 
      "name": "encoder_birnn_forward_l0_t1_slice", 
      "attrs": {"num_outputs": "4"}, 
      "inputs": [[43, 0, 0]]
    }, 
    {
      "op": "Activation", 
      "name": "encoder_birnn_forward_l0_t1_o", 
      "attrs": {"act_type": "sigmoid"}, 
      "inputs": [[44, 3, 0]]
    }, 
    {
      "op": "Activation", 
      "name": "encoder_birnn_forward_l0_t1_f", 
      "attrs": {"act_type": "sigmoid"}, 
      "inputs": [[44, 1, 0]]
    }, 
    {
      "op": "elemwise_mul", 
      "name": "_mul2", 
      "inputs": [[46, 0, 0], [37, 0, 0]]
    }, 
    {
      "op": "Activation", 
      "name": "encoder_birnn_forward_l0_t1_i", 
      "attrs": {"act_type": "sigmoid"}, 
      "inputs": [[44, 0, 0]]
    }, 
    {
      "op": "Activation", 
      "name": "encoder_birnn_forward_l0_t1_c", 
      "attrs": {"act_type": "tanh"}, 
      "inputs": [[44, 2, 0]]
    }, 
    {
      "op": "elemwise_mul", 
      "name": "_mul3", 
      "inputs": [[48, 0, 0], [49, 0, 0]]
    }, 
    {
      "op": "elemwise_add", 
      "name": "encoder_birnn_forward_l0_t1_state", 
      "inputs": [[47, 0, 0], [50, 0, 0]]
    }, 
    {
      "op": "Activation", 
      "name": "activation1", 
      "attrs": {"act_type": "tanh"}, 
      "inputs": [[51, 0, 0]]
    }, 
    {
      "op": "elemwise_mul", 
      "name": "encoder_birnn_forward_l0_t1_out", 
      "inputs": [[45, 0, 0], [52, 0, 0]]
    }, 
    {
      "op": "expand_dims", 
      "name": "expand_dims1", 
      "attrs": {"axis": "0"}, 
      "inputs": [[53, 0, 0]]
    }, 
    {
      "op": "FullyConnected", 
      "name": "encoder_birnn_forward_l0_t2_i2h", 
      "attrs": {"num_hidden": "1024"}, 
      "inputs": [[20, 2, 0], [21, 0, 0], [22, 0, 0]]
    }, 
    {
      "op": "FullyConnected", 
      "name": "encoder_birnn_forward_l0_t2_h2h", 
      "attrs": {"num_hidden": "1024"}, 
      "inputs": [[53, 0, 0], [25, 0, 0], [26, 0, 0]]
    }, 
    {
      "op": "elemwise_add", 
      "name": "_plus2", 
      "inputs": [[55, 0, 0], [56, 0, 0]]
    }, 
    {
      "op": "SliceChannel", 
      "name": "encoder_birnn_forward_l0_t2_slice", 
      "attrs": {"num_outputs": "4"}, 
      "inputs": [[57, 0, 0]]
    }, 
    {
      "op": "Activation", 
      "name": "encoder_birnn_forward_l0_t2_o", 
      "attrs": {"act_type": "sigmoid"}, 
      "inputs": [[58, 3, 0]]
    }, 
    {
      "op": "Activation", 
      "name": "encoder_birnn_forward_l0_t2_f", 
      "attrs": {"act_type": "sigmoid"}, 
      "inputs": [[58, 1, 0]]
    }, 
    {
      "op": "elemwise_mul", 
      "name": "_mul4", 
      "inputs": [[60, 0, 0], [51, 0, 0]]
    }, 
    {
      "op": "Activation", 
      "name": "encoder_birnn_forward_l0_t2_i", 
      "attrs": {"act_type": "sigmoid"}, 
      "inputs": [[58, 0, 0]]
    }, 
    {
      "op": "Activation", 
      "name": "encoder_birnn_forward_l0_t2_c", 
      "attrs": {"act_type": "tanh"}, 
      "inputs": [[58, 2, 0]]
    }, 
    {
      "op": "elemwise_mul", 
      "name": "_mul5", 
      "inputs": [[62, 0, 0], [63, 0, 0]]
    }, 
    {
      "op": "elemwise_add", 
      "name": "encoder_birnn_forward_l0_t2_state", 
      "inputs": [[61, 0, 0], [64, 0, 0]]
    }, 
    {
      "op": "Activation", 
      "name": "activation2", 
      "attrs": {"act_type": "tanh"}, 
      "inputs": [[65, 0, 0]]
    }, 
    {
      "op": "elemwise_mul", 
      "name": "encoder_birnn_forward_l0_t2_out", 
      "inputs": [[59, 0, 0], [66, 0, 0]]
    }, 
    {
      "op": "expand_dims", 
      "name": "expand_dims2", 
      "attrs": {"axis": "0"}, 
      "inputs": [[67, 0, 0]]
    }, 
    {
      "op": "FullyConnected", 
      "name": "encoder_birnn_forward_l0_t3_i2h", 
      "attrs": {"num_hidden": "1024"}, 
      "inputs": [[20, 3, 0], [21, 0, 0], [22, 0, 0]]
    }, 
    {
      "op": "FullyConnected", 
      "name": "encoder_birnn_forward_l0_t3_h2h", 
      "attrs": {"num_hidden": "1024"}, 
      "inputs": [[67, 0, 0], [25, 0, 0], [26, 0, 0]]
    }, 
    {
      "op": "elemwise_add", 
      "name": "_plus3", 
      "inputs": [[69, 0, 0], [70, 0, 0]]
    }, 
    {
      "op": "SliceChannel", 
      "name": "encoder_birnn_forward_l0_t3_slice", 
      "attrs": {"num_outputs": "4"}, 
      "inputs": [[71, 0, 0]]
    }, 
    {
      "op": "Activation", 
      "name": "encoder_birnn_forward_l0_t3_o", 
      "attrs": {"act_type": "sigmoid"}, 
      "inputs": [[72, 3, 0]]
    }, 
    {
      "op": "Activation", 
      "name": "encoder_birnn_forward_l0_t3_f", 
      "attrs": {"act_type": "sigmoid"}, 
      "inputs": [[72, 1, 0]]
    }, 
    {
      "op": "elemwise_mul", 
      "name": "_mul6", 
      "inputs": [[74, 0, 0], [65, 0, 0]]
    }, 
    {
      "op": "Activation", 
      "name": "encoder_birnn_forward_l0_t3_i", 
      "attrs": {"act_type": "sigmoid"}, 
      "inputs": [[72, 0, 0]]
    }, 
    {
      "op": "Activation", 
      "name": "encoder_birnn_forward_l0_t3_c", 
      "attrs": {"act_type": "tanh"}, 
      "inputs": [[72, 2, 0]]
    }, 
    {
      "op": "elemwise_mul", 
      "name": "_mul7", 
      "inputs": [[76, 0, 0], [77, 0, 0]]
    }, 
    {
      "op": "elemwise_add", 
      "name": "encoder_birnn_forward_l0_t3_state", 
      "inputs": [[75, 0, 0], [78, 0, 0]]
    }, 
    {
      "op": "Activation", 
      "name": "activation3", 
      "attrs": {"act_type": "tanh"}, 
      "inputs": [[79, 0, 0]]
    }, 
    {
      "op": "elemwise_mul", 
      "name": "encoder_birnn_forward_l0_t3_out", 
      "inputs": [[73, 0, 0], [80, 0, 0]]
    }, 
    {
      "op": "expand_dims", 
      "name": "expand_dims3", 
      "attrs": {"axis": "0"}, 
      "inputs": [[81, 0, 0]]
    }, 
    {
      "op": "FullyConnected", 
      "name": "encoder_birnn_forward_l0_t4_i2h", 
      "attrs": {"num_hidden": "1024"}, 
      "inputs": [[20, 4, 0], [21, 0, 0], [22, 0, 0]]
    }, 
    {
      "op": "FullyConnected", 
      "name": "encoder_birnn_forward_l0_t4_h2h", 
      "attrs": {"num_hidden": "1024"}, 
      "inputs": [[81, 0, 0], [25, 0, 0], [26, 0, 0]]
    }, 
    {
      "op": "elemwise_add", 
      "name": "_plus4", 
      "inputs": [[83, 0, 0], [84, 0, 0]]
    }, 
    {
      "op": "SliceChannel", 
      "name": "encoder_birnn_forward_l0_t4_slice", 
      "attrs": {"num_outputs": "4"}, 
      "inputs": [[85, 0, 0]]
    }, 
    {
      "op": "Activation", 
      "name": "encoder_birnn_forward_l0_t4_o", 
      "attrs": {"act_type": "sigmoid"}, 
      "inputs": [[86, 3, 0]]
    }, 
    {
      "op": "Activation", 
      "name": "encoder_birnn_forward_l0_t4_f", 
      "attrs": {"act_type": "sigmoid"}, 
      "inputs": [[86, 1, 0]]
    }, 
    {
      "op": "elemwise_mul", 
      "name": "_mul8", 
      "inputs": [[88, 0, 0], [79, 0, 0]]
    }, 
    {
      "op": "Activation", 
      "name": "encoder_birnn_forward_l0_t4_i", 
      "attrs": {"act_type": "sigmoid"}, 
      "inputs": [[86, 0, 0]]
    }, 
    {
      "op": "Activation", 
      "name": "encoder_birnn_forward_l0_t4_c", 
      "attrs": {"act_type": "tanh"}, 
      "inputs": [[86, 2, 0]]
    }, 
    {
      "op": "elemwise_mul", 
      "name": "_mul9", 
      "inputs": [[90, 0, 0], [91, 0, 0]]
    }, 
    {
      "op": "elemwise_add", 
      "name": "encoder_birnn_forward_l0_t4_state", 
      "inputs": [[89, 0, 0], [92, 0, 0]]
    }, 
    {
      "op": "Activation", 
      "name": "activation4", 
      "attrs": {"act_type": "tanh"}, 
      "inputs": [[93, 0, 0]]
    }, 
    {
      "op": "elemwise_mul", 
      "name": "encoder_birnn_forward_l0_t4_out", 
      "inputs": [[87, 0, 0], [94, 0, 0]]
    }, 
    {
      "op": "expand_dims", 
      "name": "expand_dims4", 
      "attrs": {"axis": "0"}, 
      "inputs": [[95, 0, 0]]
    }, 
    {
      "op": "FullyConnected", 
      "name": "encoder_birnn_forward_l0_t5_i2h", 
      "attrs": {"num_hidden": "1024"}, 
      "inputs": [[20, 5, 0], [21, 0, 0], [22, 0, 0]]
    }, 
    {
      "op": "FullyConnected", 
      "name": "encoder_birnn_forward_l0_t5_h2h", 
      "attrs": {"num_hidden": "1024"}, 
      "inputs": [[95, 0, 0], [25, 0, 0], [26, 0, 0]]
    }, 
    {
      "op": "elemwise_add", 
      "name": "_plus5", 
      "inputs": [[97, 0, 0], [98, 0, 0]]
    }, 
    {
      "op": "SliceChannel", 
      "name": "encoder_birnn_forward_l0_t5_slice", 
      "attrs": {"num_outputs": "4"}, 
      "inputs": [[99, 0, 0]]
    }, 
    {
      "op": "Activation", 
      "name": "encoder_birnn_forward_l0_t5_o", 
      "attrs": {"act_type": "sigmoid"}, 
      "inputs": [[100, 3, 0]]
    }, 
    {
      "op": "Activation", 
      "name": "encoder_birnn_forward_l0_t5_f", 
      "attrs": {"act_type": "sigmoid"}, 
      "inputs": [[100, 1, 0]]
    }, 
    {
      "op": "elemwise_mul", 
      "name": "_mul10", 
      "inputs": [[102, 0, 0], [93, 0, 0]]
    }, 
    {
      "op": "Activation", 
      "name": "encoder_birnn_forward_l0_t5_i", 
      "attrs": {"act_type": "sigmoid"}, 
      "inputs": [[100, 0, 0]]
    }, 
    {
      "op": "Activation", 
      "name": "encoder_birnn_forward_l0_t5_c", 
      "attrs": {"act_type": "tanh"}, 
      "inputs": [[100, 2, 0]]
    }, 
    {
      "op": "elemwise_mul", 
      "name": "_mul11", 
      "inputs": [[104, 0, 0], [105, 0, 0]]
    }, 
    {
      "op": "elemwise_add", 
      "name": "encoder_birnn_forward_l0_t5_state", 
      "inputs": [[103, 0, 0], [106, 0, 0]]
    }, 
    {
      "op": "Activation", 
      "name": "activation5", 
      "attrs": {"act_type": "tanh"}, 
      "inputs": [[107, 0, 0]]
    }, 
    {
      "op": "elemwise_mul", 
      "name": "encoder_birnn_forward_l0_t5_out", 
      "inputs": [[101, 0, 0], [108, 0, 0]]
    }, 
    {
      "op": "expand_dims", 
      "name": "expand_dims5", 
      "attrs": {"axis": "0"}, 
      "inputs": [[109, 0, 0]]
    }, 
    {
      "op": "FullyConnected", 
      "name": "encoder_birnn_forward_l0_t6_i2h", 
      "attrs": {"num_hidden": "1024"}, 
      "inputs": [[20, 6, 0], [21, 0, 0], [22, 0, 0]]
    }, 
    {
      "op": "FullyConnected", 
      "name": "encoder_birnn_forward_l0_t6_h2h", 
      "attrs": {"num_hidden": "1024"}, 
      "inputs": [[109, 0, 0], [25, 0, 0], [26, 0, 0]]
    }, 
    {
      "op": "elemwise_add", 
      "name": "_plus6", 
      "inputs": [[111, 0, 0], [112, 0, 0]]
    }, 
    {
      "op": "SliceChannel", 
      "name": "encoder_birnn_forward_l0_t6_slice", 
      "attrs": {"num_outputs": "4"}, 
      "inputs": [[113, 0, 0]]
    }, 
    {
      "op": "Activation", 
      "name": "encoder_birnn_forward_l0_t6_o", 
      "attrs": {"act_type": "sigmoid"}, 
      "inputs": [[114, 3, 0]]
    }, 
    {
      "op": "Activation", 
      "name": "encoder_birnn_forward_l0_t6_f", 
      "attrs": {"act_type": "sigmoid"}, 
      "inputs": [[114, 1, 0]]
    }, 
    {
      "op": "elemwise_mul", 
      "name": "_mul12", 
      "inputs": [[116, 0, 0], [107, 0, 0]]
    }, 
    {
      "op": "Activation", 
      "name": "encoder_birnn_forward_l0_t6_i", 
      "attrs": {"act_type": "sigmoid"}, 
      "inputs": [[114, 0, 0]]
    }, 
    {
      "op": "Activation", 
      "name": "encoder_birnn_forward_l0_t6_c", 
      "attrs": {"act_type": "tanh"}, 
      "inputs": [[114, 2, 0]]
    }, 
    {
      "op": "elemwise_mul", 
      "name": "_mul13", 
      "inputs": [[118, 0, 0], [119, 0, 0]]
    }, 
    {
      "op": "elemwise_add", 
      "name": "encoder_birnn_forward_l0_t6_state", 
      "inputs": [[117, 0, 0], [120, 0, 0]]
    }, 
    {
      "op": "Activation", 
      "name": "activation6", 
      "attrs": {"act_type": "tanh"}, 
      "inputs": [[121, 0, 0]]
    }, 
    {
      "op": "elemwise_mul", 
      "name": "encoder_birnn_forward_l0_t6_out", 
      "inputs": [[115, 0, 0], [122, 0, 0]]
    }, 
    {
      "op": "expand_dims", 
      "name": "expand_dims6", 
      "attrs": {"axis": "0"}, 
      "inputs": [[123, 0, 0]]
    }, 
    {
      "op": "FullyConnected", 
      "name": "encoder_birnn_forward_l0_t7_i2h", 
      "attrs": {"num_hidden": "1024"}, 
      "inputs": [[20, 7, 0], [21, 0, 0], [22, 0, 0]]
    }, 
    {
      "op": "FullyConnected", 
      "name": "encoder_birnn_forward_l0_t7_h2h", 
      "attrs": {"num_hidden": "1024"}, 
      "inputs": [[123, 0, 0], [25, 0, 0], [26, 0, 0]]
    }, 
    {
      "op": "elemwise_add", 
      "name": "_plus7", 
      "inputs": [[125, 0, 0], [126, 0, 0]]
    }, 
    {
      "op": "SliceChannel", 
      "name": "encoder_birnn_forward_l0_t7_slice", 
      "attrs": {"num_outputs": "4"}, 
      "inputs": [[127, 0, 0]]
    }, 
    {
      "op": "Activation", 
      "name": "encoder_birnn_forward_l0_t7_o", 
      "attrs": {"act_type": "sigmoid"}, 
      "inputs": [[128, 3, 0]]
    }, 
    {
      "op": "Activation", 
      "name": "encoder_birnn_forward_l0_t7_f", 
      "attrs": {"act_type": "sigmoid"}, 
      "inputs": [[128, 1, 0]]
    }, 
    {
      "op": "elemwise_mul", 
      "name": "_mul14", 
      "inputs": [[130, 0, 0], [121, 0, 0]]
    }, 
    {
      "op": "Activation", 
      "name": "encoder_birnn_forward_l0_t7_i", 
      "attrs": {"act_type": "sigmoid"}, 
      "inputs": [[128, 0, 0]]
    }, 
    {
      "op": "Activation", 
      "name": "encoder_birnn_forward_l0_t7_c", 
      "attrs": {"act_type": "tanh"}, 
      "inputs": [[128, 2, 0]]
    }, 
    {
      "op": "elemwise_mul", 
      "name": "_mul15", 
      "inputs": [[132, 0, 0], [133, 0, 0]]
    }, 
    {
      "op": "elemwise_add", 
      "name": "encoder_birnn_forward_l0_t7_state", 
      "inputs": [[131, 0, 0], [134, 0, 0]]
    }, 
    {
      "op": "Activation", 
      "name": "activation7", 
      "attrs": {"act_type": "tanh"}, 
      "inputs": [[135, 0, 0]]
    }, 
    {
      "op": "elemwise_mul", 
      "name": "encoder_birnn_forward_l0_t7_out", 
      "inputs": [[129, 0, 0], [136, 0, 0]]
    }, 
    {
      "op": "expand_dims", 
      "name": "expand_dims7", 
      "attrs": {"axis": "0"}, 
      "inputs": [[137, 0, 0]]
    }, 
    {
      "op": "FullyConnected", 
      "name": "encoder_birnn_forward_l0_t8_i2h", 
      "attrs": {"num_hidden": "1024"}, 
      "inputs": [[20, 8, 0], [21, 0, 0], [22, 0, 0]]
    }, 
    {
      "op": "FullyConnected", 
      "name": "encoder_birnn_forward_l0_t8_h2h", 
      "attrs": {"num_hidden": "1024"}, 
      "inputs": [[137, 0, 0], [25, 0, 0], [26, 0, 0]]
    }, 
    {
      "op": "elemwise_add", 
      "name": "_plus8", 
      "inputs": [[139, 0, 0], [140, 0, 0]]
    }, 
    {
      "op": "SliceChannel", 
      "name": "encoder_birnn_forward_l0_t8_slice", 
      "attrs": {"num_outputs": "4"}, 
      "inputs": [[141, 0, 0]]
    }, 
    {
      "op": "Activation", 
      "name": "encoder_birnn_forward_l0_t8_o", 
      "attrs": {"act_type": "sigmoid"}, 
      "inputs": [[142, 3, 0]]
    }, 
    {
      "op": "Activation", 
      "name": "encoder_birnn_forward_l0_t8_f", 
      "attrs": {"act_type": "sigmoid"}, 
      "inputs": [[142, 1, 0]]
    }, 
    {
      "op": "elemwise_mul", 
      "name": "_mul16", 
      "inputs": [[144, 0, 0], [135, 0, 0]]
    }, 
    {
      "op": "Activation", 
      "name": "encoder_birnn_forward_l0_t8_i", 
      "attrs": {"act_type": "sigmoid"}, 
      "inputs": [[142, 0, 0]]
    }, 
    {
      "op": "Activation", 
      "name": "encoder_birnn_forward_l0_t8_c", 
      "attrs": {"act_type": "tanh"}, 
      "inputs": [[142, 2, 0]]
    }, 
    {
      "op": "elemwise_mul", 
      "name": "_mul17", 
      "inputs": [[146, 0, 0], [147, 0, 0]]
    }, 
    {
      "op": "elemwise_add", 
      "name": "encoder_birnn_forward_l0_t8_state", 
      "inputs": [[145, 0, 0], [148, 0, 0]]
    }, 
    {
      "op": "Activation", 
      "name": "activation8", 
      "attrs": {"act_type": "tanh"}, 
      "inputs": [[149, 0, 0]]
    }, 
    {
      "op": "elemwise_mul", 
      "name": "encoder_birnn_forward_l0_t8_out", 
      "inputs": [[143, 0, 0], [150, 0, 0]]
    }, 
    {
      "op": "expand_dims", 
      "name": "expand_dims8", 
      "attrs": {"axis": "0"}, 
      "inputs": [[151, 0, 0]]
    }, 
    {
      "op": "FullyConnected", 
      "name": "encoder_birnn_forward_l0_t9_i2h", 
      "attrs": {"num_hidden": "1024"}, 
      "inputs": [[20, 9, 0], [21, 0, 0], [22, 0, 0]]
    }, 
    {
      "op": "FullyConnected", 
      "name": "encoder_birnn_forward_l0_t9_h2h", 
      "attrs": {"num_hidden": "1024"}, 
      "inputs": [[151, 0, 0], [25, 0, 0], [26, 0, 0]]
    }, 
    {
      "op": "elemwise_add", 
      "name": "_plus9", 
      "inputs": [[153, 0, 0], [154, 0, 0]]
    }, 
    {
      "op": "SliceChannel", 
      "name": "encoder_birnn_forward_l0_t9_slice", 
      "attrs": {"num_outputs": "4"}, 
      "inputs": [[155, 0, 0]]
    }, 
    {
      "op": "Activation", 
      "name": "encoder_birnn_forward_l0_t9_o", 
      "attrs": {"act_type": "sigmoid"}, 
      "inputs": [[156, 3, 0]]
    }, 
    {
      "op": "Activation", 
      "name": "encoder_birnn_forward_l0_t9_f", 
      "attrs": {"act_type": "sigmoid"}, 
      "inputs": [[156, 1, 0]]
    }, 
    {
      "op": "elemwise_mul", 
      "name": "_mul18", 
      "inputs": [[158, 0, 0], [149, 0, 0]]
    }, 
    {
      "op": "Activation", 
      "name": "encoder_birnn_forward_l0_t9_i", 
      "attrs": {"act_type": "sigmoid"}, 
      "inputs": [[156, 0, 0]]
    }, 
    {
      "op": "Activation", 
      "name": "encoder_birnn_forward_l0_t9_c", 
      "attrs": {"act_type": "tanh"}, 
      "inputs": [[156, 2, 0]]
    }, 
    {
      "op": "elemwise_mul", 
      "name": "_mul19", 
      "inputs": [[160, 0, 0], [161, 0, 0]]
    }, 
    {
      "op": "elemwise_add", 
      "name": "encoder_birnn_forward_l0_t9_state", 
      "inputs": [[159, 0, 0], [162, 0, 0]]
    }, 
    {
      "op": "Activation", 
      "name": "activation9", 
      "attrs": {"act_type": "tanh"}, 
      "inputs": [[163, 0, 0]]
    }, 
    {
      "op": "elemwise_mul", 
      "name": "encoder_birnn_forward_l0_t9_out", 
      "inputs": [[157, 0, 0], [164, 0, 0]]
    }, 
    {
      "op": "expand_dims", 
      "name": "expand_dims9", 
      "attrs": {"axis": "0"}, 
      "inputs": [[165, 0, 0]]
    }, 
    {
      "op": "FullyConnected", 
      "name": "encoder_birnn_forward_l0_t10_i2h", 
      "attrs": {"num_hidden": "1024"}, 
      "inputs": [[20, 10, 0], [21, 0, 0], [22, 0, 0]]
    }, 
    {
      "op": "FullyConnected", 
      "name": "encoder_birnn_forward_l0_t10_h2h", 
      "attrs": {"num_hidden": "1024"}, 
      "inputs": [[165, 0, 0], [25, 0, 0], [26, 0, 0]]
    }, 
    {
      "op": "elemwise_add", 
      "name": "_plus10", 
      "inputs": [[167, 0, 0], [168, 0, 0]]
    }, 
    {
      "op": "SliceChannel", 
      "name": "encoder_birnn_forward_l0_t10_slice", 
      "attrs": {"num_outputs": "4"}, 
      "inputs": [[169, 0, 0]]
    }, 
    {
      "op": "Activation", 
      "name": "encoder_birnn_forward_l0_t10_o", 
      "attrs": {"act_type": "sigmoid"}, 
      "inputs": [[170, 3, 0]]
    }, 
    {
      "op": "Activation", 
      "name": "encoder_birnn_forward_l0_t10_f", 
      "attrs": {"act_type": "sigmoid"}, 
      "inputs": [[170, 1, 0]]
    }, 
    {
      "op": "elemwise_mul", 
      "name": "_mul20", 
      "inputs": [[172, 0, 0], [163, 0, 0]]
    }, 
    {
      "op": "Activation", 
      "name": "encoder_birnn_forward_l0_t10_i", 
      "attrs": {"act_type": "sigmoid"}, 
      "inputs": [[170, 0, 0]]
    }, 
    {
      "op": "Activation", 
      "name": "encoder_birnn_forward_l0_t10_c", 
      "attrs": {"act_type": "tanh"}, 
      "inputs": [[170, 2, 0]]
    }, 
    {
      "op": "elemwise_mul", 
      "name": "_mul21", 
      "inputs": [[174, 0, 0], [175, 0, 0]]
    }, 
    {
      "op": "elemwise_add", 
      "name": "encoder_birnn_forward_l0_t10_state", 
      "inputs": [[173, 0, 0], [176, 0, 0]]
    }, 
    {
      "op": "Activation", 
      "name": "activation10", 
      "attrs": {"act_type": "tanh"}, 
      "inputs": [[177, 0, 0]]
    }, 
    {
      "op": "elemwise_mul", 
      "name": "encoder_birnn_forward_l0_t10_out", 
      "inputs": [[171, 0, 0], [178, 0, 0]]
    }, 
    {
      "op": "expand_dims", 
      "name": "expand_dims10", 
      "attrs": {"axis": "0"}, 
      "inputs": [[179, 0, 0]]
    }, 
    {
      "op": "FullyConnected", 
      "name": "encoder_birnn_forward_l0_t11_i2h", 
      "attrs": {"num_hidden": "1024"}, 
      "inputs": [[20, 11, 0], [21, 0, 0], [22, 0, 0]]
    }, 
    {
      "op": "FullyConnected", 
      "name": "encoder_birnn_forward_l0_t11_h2h", 
      "attrs": {"num_hidden": "1024"}, 
      "inputs": [[179, 0, 0], [25, 0, 0], [26, 0, 0]]
    }, 
    {
      "op": "elemwise_add", 
      "name": "_plus11", 
      "inputs": [[181, 0, 0], [182, 0, 0]]
    }, 
    {
      "op": "SliceChannel", 
      "name": "encoder_birnn_forward_l0_t11_slice", 
      "attrs": {"num_outputs": "4"}, 
      "inputs": [[183, 0, 0]]
    }, 
    {
      "op": "Activation", 
      "name": "encoder_birnn_forward_l0_t11_o", 
      "attrs": {"act_type": "sigmoid"}, 
      "inputs": [[184, 3, 0]]
    }, 
    {
      "op": "Activation", 
      "name": "encoder_birnn_forward_l0_t11_f", 
      "attrs": {"act_type": "sigmoid"}, 
      "inputs": [[184, 1, 0]]
    }, 
    {
      "op": "elemwise_mul", 
      "name": "_mul22", 
      "inputs": [[186, 0, 0], [177, 0, 0]]
    }, 
    {
      "op": "Activation", 
      "name": "encoder_birnn_forward_l0_t11_i", 
      "attrs": {"act_type": "sigmoid"}, 
      "inputs": [[184, 0, 0]]
    }, 
    {
      "op": "Activation", 
      "name": "encoder_birnn_forward_l0_t11_c", 
      "attrs": {"act_type": "tanh"}, 
      "inputs": [[184, 2, 0]]
    }, 
    {
      "op": "elemwise_mul", 
      "name": "_mul23", 
      "inputs": [[188, 0, 0], [189, 0, 0]]
    }, 
    {
      "op": "elemwise_add", 
      "name": "encoder_birnn_forward_l0_t11_state", 
      "inputs": [[187, 0, 0], [190, 0, 0]]
    }, 
    {
      "op": "Activation", 
      "name": "activation11", 
      "attrs": {"act_type": "tanh"}, 
      "inputs": [[191, 0, 0]]
    }, 
    {
      "op": "elemwise_mul", 
      "name": "encoder_birnn_forward_l0_t11_out", 
      "inputs": [[185, 0, 0], [192, 0, 0]]
    }, 
    {
      "op": "expand_dims", 
      "name": "expand_dims11", 
      "attrs": {"axis": "0"}, 
      "inputs": [[193, 0, 0]]
    }, 
    {
      "op": "FullyConnected", 
      "name": "encoder_birnn_forward_l0_t12_i2h", 
      "attrs": {"num_hidden": "1024"}, 
      "inputs": [[20, 12, 0], [21, 0, 0], [22, 0, 0]]
    }, 
    {
      "op": "FullyConnected", 
      "name": "encoder_birnn_forward_l0_t12_h2h", 
      "attrs": {"num_hidden": "1024"}, 
      "inputs": [[193, 0, 0], [25, 0, 0], [26, 0, 0]]
    }, 
    {
      "op": "elemwise_add", 
      "name": "_plus12", 
      "inputs": [[195, 0, 0], [196, 0, 0]]
    }, 
    {
      "op": "SliceChannel", 
      "name": "encoder_birnn_forward_l0_t12_slice", 
      "attrs": {"num_outputs": "4"}, 
      "inputs": [[197, 0, 0]]
    }, 
    {
      "op": "Activation", 
      "name": "encoder_birnn_forward_l0_t12_o", 
      "attrs": {"act_type": "sigmoid"}, 
      "inputs": [[198, 3, 0]]
    }, 
    {
      "op": "Activation", 
      "name": "encoder_birnn_forward_l0_t12_f", 
      "attrs": {"act_type": "sigmoid"}, 
      "inputs": [[198, 1, 0]]
    }, 
    {
      "op": "elemwise_mul", 
      "name": "_mul24", 
      "inputs": [[200, 0, 0], [191, 0, 0]]
    }, 
    {
      "op": "Activation", 
      "name": "encoder_birnn_forward_l0_t12_i", 
      "attrs": {"act_type": "sigmoid"}, 
      "inputs": [[198, 0, 0]]
    }, 
    {
      "op": "Activation", 
      "name": "encoder_birnn_forward_l0_t12_c", 
      "attrs": {"act_type": "tanh"}, 
      "inputs": [[198, 2, 0]]
    }, 
    {
      "op": "elemwise_mul", 
      "name": "_mul25", 
      "inputs": [[202, 0, 0], [203, 0, 0]]
    }, 
    {
      "op": "elemwise_add", 
      "name": "encoder_birnn_forward_l0_t12_state", 
      "inputs": [[201, 0, 0], [204, 0, 0]]
    }, 
    {
      "op": "Activation", 
      "name": "activation12", 
      "attrs": {"act_type": "tanh"}, 
      "inputs": [[205, 0, 0]]
    }, 
    {
      "op": "elemwise_mul", 
      "name": "encoder_birnn_forward_l0_t12_out", 
      "inputs": [[199, 0, 0], [206, 0, 0]]
    }, 
    {
      "op": "expand_dims", 
      "name": "expand_dims12", 
      "attrs": {"axis": "0"}, 
      "inputs": [[207, 0, 0]]
    }, 
    {
      "op": "FullyConnected", 
      "name": "encoder_birnn_forward_l0_t13_i2h", 
      "attrs": {"num_hidden": "1024"}, 
      "inputs": [[20, 13, 0], [21, 0, 0], [22, 0, 0]]
    }, 
    {
      "op": "FullyConnected", 
      "name": "encoder_birnn_forward_l0_t13_h2h", 
      "attrs": {"num_hidden": "1024"}, 
      "inputs": [[207, 0, 0], [25, 0, 0], [26, 0, 0]]
    }, 
    {
      "op": "elemwise_add", 
      "name": "_plus13", 
      "inputs": [[209, 0, 0], [210, 0, 0]]
    }, 
    {
      "op": "SliceChannel", 
      "name": "encoder_birnn_forward_l0_t13_slice", 
      "attrs": {"num_outputs": "4"}, 
      "inputs": [[211, 0, 0]]
    }, 
    {
      "op": "Activation", 
      "name": "encoder_birnn_forward_l0_t13_o", 
      "attrs": {"act_type": "sigmoid"}, 
      "inputs": [[212, 3, 0]]
    }, 
    {
      "op": "Activation", 
      "name": "encoder_birnn_forward_l0_t13_f", 
      "attrs": {"act_type": "sigmoid"}, 
      "inputs": [[212, 1, 0]]
    }, 
    {
      "op": "elemwise_mul", 
      "name": "_mul26", 
      "inputs": [[214, 0, 0], [205, 0, 0]]
    }, 
    {
      "op": "Activation", 
      "name": "encoder_birnn_forward_l0_t13_i", 
      "attrs": {"act_type": "sigmoid"}, 
      "inputs": [[212, 0, 0]]
    }, 
    {
      "op": "Activation", 
      "name": "encoder_birnn_forward_l0_t13_c", 
      "attrs": {"act_type": "tanh"}, 
      "inputs": [[212, 2, 0]]
    }, 
    {
      "op": "elemwise_mul", 
      "name": "_mul27", 
      "inputs": [[216, 0, 0], [217, 0, 0]]
    }, 
    {
      "op": "elemwise_add", 
      "name": "encoder_birnn_forward_l0_t13_state", 
      "inputs": [[215, 0, 0], [218, 0, 0]]
    }, 
    {
      "op": "Activation", 
      "name": "activation13", 
      "attrs": {"act_type": "tanh"}, 
      "inputs": [[219, 0, 0]]
    }, 
    {
      "op": "elemwise_mul", 
      "name": "encoder_birnn_forward_l0_t13_out", 
      "inputs": [[213, 0, 0], [220, 0, 0]]
    }, 
    {
      "op": "expand_dims", 
      "name": "expand_dims13", 
      "attrs": {"axis": "0"}, 
      "inputs": [[221, 0, 0]]
    }, 
    {
      "op": "FullyConnected", 
      "name": "encoder_birnn_forward_l0_t14_i2h", 
      "attrs": {"num_hidden": "1024"}, 
      "inputs": [[20, 14, 0], [21, 0, 0], [22, 0, 0]]
    }, 
    {
      "op": "FullyConnected", 
      "name": "encoder_birnn_forward_l0_t14_h2h", 
      "attrs": {"num_hidden": "1024"}, 
      "inputs": [[221, 0, 0], [25, 0, 0], [26, 0, 0]]
    }, 
    {
      "op": "elemwise_add", 
      "name": "_plus14", 
      "inputs": [[223, 0, 0], [224, 0, 0]]
    }, 
    {
      "op": "SliceChannel", 
      "name": "encoder_birnn_forward_l0_t14_slice", 
      "attrs": {"num_outputs": "4"}, 
      "inputs": [[225, 0, 0]]
    }, 
    {
      "op": "Activation", 
      "name": "encoder_birnn_forward_l0_t14_o", 
      "attrs": {"act_type": "sigmoid"}, 
      "inputs": [[226, 3, 0]]
    }, 
    {
      "op": "Activation", 
      "name": "encoder_birnn_forward_l0_t14_f", 
      "attrs": {"act_type": "sigmoid"}, 
      "inputs": [[226, 1, 0]]
    }, 
    {
      "op": "elemwise_mul", 
      "name": "_mul28", 
      "inputs": [[228, 0, 0], [219, 0, 0]]
    }, 
    {
      "op": "Activation", 
      "name": "encoder_birnn_forward_l0_t14_i", 
      "attrs": {"act_type": "sigmoid"}, 
      "inputs": [[226, 0, 0]]
    }, 
    {
      "op": "Activation", 
      "name": "encoder_birnn_forward_l0_t14_c", 
      "attrs": {"act_type": "tanh"}, 
      "inputs": [[226, 2, 0]]
    }, 
    {
      "op": "elemwise_mul", 
      "name": "_mul29", 
      "inputs": [[230, 0, 0], [231, 0, 0]]
    }, 
    {
      "op": "elemwise_add", 
      "name": "encoder_birnn_forward_l0_t14_state", 
      "inputs": [[229, 0, 0], [232, 0, 0]]
    }, 
    {
      "op": "Activation", 
      "name": "activation14", 
      "attrs": {"act_type": "tanh"}, 
      "inputs": [[233, 0, 0]]
    }, 
    {
      "op": "elemwise_mul", 
      "name": "encoder_birnn_forward_l0_t14_out", 
      "inputs": [[227, 0, 0], [234, 0, 0]]
    }, 
    {
      "op": "expand_dims", 
      "name": "expand_dims14", 
      "attrs": {"axis": "0"}, 
      "inputs": [[235, 0, 0]]
    }, 
    {
      "op": "FullyConnected", 
      "name": "encoder_birnn_forward_l0_t15_i2h", 
      "attrs": {"num_hidden": "1024"}, 
      "inputs": [[20, 15, 0], [21, 0, 0], [22, 0, 0]]
    }, 
    {
      "op": "FullyConnected", 
      "name": "encoder_birnn_forward_l0_t15_h2h", 
      "attrs": {"num_hidden": "1024"}, 
      "inputs": [[235, 0, 0], [25, 0, 0], [26, 0, 0]]
    }, 
    {
      "op": "elemwise_add", 
      "name": "_plus15", 
      "inputs": [[237, 0, 0], [238, 0, 0]]
    }, 
    {
      "op": "SliceChannel", 
      "name": "encoder_birnn_forward_l0_t15_slice", 
      "attrs": {"num_outputs": "4"}, 
      "inputs": [[239, 0, 0]]
    }, 
    {
      "op": "Activation", 
      "name": "encoder_birnn_forward_l0_t15_o", 
      "attrs": {"act_type": "sigmoid"}, 
      "inputs": [[240, 3, 0]]
    }, 
    {
      "op": "Activation", 
      "name": "encoder_birnn_forward_l0_t15_f", 
      "attrs": {"act_type": "sigmoid"}, 
      "inputs": [[240, 1, 0]]
    }, 
    {
      "op": "elemwise_mul", 
      "name": "_mul30", 
      "inputs": [[242, 0, 0], [233, 0, 0]]
    }, 
    {
      "op": "Activation", 
      "name": "encoder_birnn_forward_l0_t15_i", 
      "attrs": {"act_type": "sigmoid"}, 
      "inputs": [[240, 0, 0]]
    }, 
    {
      "op": "Activation", 
      "name": "encoder_birnn_forward_l0_t15_c", 
      "attrs": {"act_type": "tanh"}, 
      "inputs": [[240, 2, 0]]
    }, 
    {
      "op": "elemwise_mul", 
      "name": "_mul31", 
      "inputs": [[244, 0, 0], [245, 0, 0]]
    }, 
    {
      "op": "elemwise_add", 
      "name": "encoder_birnn_forward_l0_t15_state", 
      "inputs": [[243, 0, 0], [246, 0, 0]]
    }, 
    {
      "op": "Activation", 
      "name": "activation15", 
      "attrs": {"act_type": "tanh"}, 
      "inputs": [[247, 0, 0]]
    }, 
    {
      "op": "elemwise_mul", 
      "name": "encoder_birnn_forward_l0_t15_out", 
      "inputs": [[241, 0, 0], [248, 0, 0]]
    }, 
    {
      "op": "expand_dims", 
      "name": "expand_dims15", 
      "attrs": {"axis": "0"}, 
      "inputs": [[249, 0, 0]]
    }, 
    {
      "op": "FullyConnected", 
      "name": "encoder_birnn_forward_l0_t16_i2h", 
      "attrs": {"num_hidden": "1024"}, 
      "inputs": [[20, 16, 0], [21, 0, 0], [22, 0, 0]]
    }, 
    {
      "op": "FullyConnected", 
      "name": "encoder_birnn_forward_l0_t16_h2h", 
      "attrs": {"num_hidden": "1024"}, 
      "inputs": [[249, 0, 0], [25, 0, 0], [26, 0, 0]]
    }, 
    {
      "op": "elemwise_add", 
      "name": "_plus16", 
      "inputs": [[251, 0, 0], [252, 0, 0]]
    }, 
    {
      "op": "SliceChannel", 
      "name": "encoder_birnn_forward_l0_t16_slice", 
      "attrs": {"num_outputs": "4"}, 
      "inputs": [[253, 0, 0]]
    }, 
    {
      "op": "Activation", 
      "name": "encoder_birnn_forward_l0_t16_o", 
      "attrs": {"act_type": "sigmoid"}, 
      "inputs": [[254, 3, 0]]
    }, 
    {
      "op": "Activation", 
      "name": "encoder_birnn_forward_l0_t16_f", 
      "attrs": {"act_type": "sigmoid"}, 
      "inputs": [[254, 1, 0]]
    }, 
    {
      "op": "elemwise_mul", 
      "name": "_mul32", 
      "inputs": [[256, 0, 0], [247, 0, 0]]
    }, 
    {
      "op": "Activation", 
      "name": "encoder_birnn_forward_l0_t16_i", 
      "attrs": {"act_type": "sigmoid"}, 
      "inputs": [[254, 0, 0]]
    }, 
    {
      "op": "Activation", 
      "name": "encoder_birnn_forward_l0_t16_c", 
      "attrs": {"act_type": "tanh"}, 
      "inputs": [[254, 2, 0]]
    }, 
    {
      "op": "elemwise_mul", 
      "name": "_mul33", 
      "inputs": [[258, 0, 0], [259, 0, 0]]
    }, 
    {
      "op": "elemwise_add", 
      "name": "encoder_birnn_forward_l0_t16_state", 
      "inputs": [[257, 0, 0], [260, 0, 0]]
    }, 
    {
      "op": "Activation", 
      "name": "activation16", 
      "attrs": {"act_type": "tanh"}, 
      "inputs": [[261, 0, 0]]
    }, 
    {
      "op": "elemwise_mul", 
      "name": "encoder_birnn_forward_l0_t16_out", 
      "inputs": [[255, 0, 0], [262, 0, 0]]
    }, 
    {
      "op": "expand_dims", 
      "name": "expand_dims16", 
      "attrs": {"axis": "0"}, 
      "inputs": [[263, 0, 0]]
    }, 
    {
      "op": "FullyConnected", 
      "name": "encoder_birnn_forward_l0_t17_i2h", 
      "attrs": {"num_hidden": "1024"}, 
      "inputs": [[20, 17, 0], [21, 0, 0], [22, 0, 0]]
    }, 
    {
      "op": "FullyConnected", 
      "name": "encoder_birnn_forward_l0_t17_h2h", 
      "attrs": {"num_hidden": "1024"}, 
      "inputs": [[263, 0, 0], [25, 0, 0], [26, 0, 0]]
    }, 
    {
      "op": "elemwise_add", 
      "name": "_plus17", 
      "inputs": [[265, 0, 0], [266, 0, 0]]
    }, 
    {
      "op": "SliceChannel", 
      "name": "encoder_birnn_forward_l0_t17_slice", 
      "attrs": {"num_outputs": "4"}, 
      "inputs": [[267, 0, 0]]
    }, 
    {
      "op": "Activation", 
      "name": "encoder_birnn_forward_l0_t17_o", 
      "attrs": {"act_type": "sigmoid"}, 
      "inputs": [[268, 3, 0]]
    }, 
    {
      "op": "Activation", 
      "name": "encoder_birnn_forward_l0_t17_f", 
      "attrs": {"act_type": "sigmoid"}, 
      "inputs": [[268, 1, 0]]
    }, 
    {
      "op": "elemwise_mul", 
      "name": "_mul34", 
      "inputs": [[270, 0, 0], [261, 0, 0]]
    }, 
    {
      "op": "Activation", 
      "name": "encoder_birnn_forward_l0_t17_i", 
      "attrs": {"act_type": "sigmoid"}, 
      "inputs": [[268, 0, 0]]
    }, 
    {
      "op": "Activation", 
      "name": "encoder_birnn_forward_l0_t17_c", 
      "attrs": {"act_type": "tanh"}, 
      "inputs": [[268, 2, 0]]
    }, 
    {
      "op": "elemwise_mul", 
      "name": "_mul35", 
      "inputs": [[272, 0, 0], [273, 0, 0]]
    }, 
    {
      "op": "elemwise_add", 
      "name": "encoder_birnn_forward_l0_t17_state", 
      "inputs": [[271, 0, 0], [274, 0, 0]]
    }, 
    {
      "op": "Activation", 
      "name": "activation17", 
      "attrs": {"act_type": "tanh"}, 
      "inputs": [[275, 0, 0]]
    }, 
    {
      "op": "elemwise_mul", 
      "name": "encoder_birnn_forward_l0_t17_out", 
      "inputs": [[269, 0, 0], [276, 0, 0]]
    }, 
    {
      "op": "expand_dims", 
      "name": "expand_dims17", 
      "attrs": {"axis": "0"}, 
      "inputs": [[277, 0, 0]]
    }, 
    {
      "op": "FullyConnected", 
      "name": "encoder_birnn_forward_l0_t18_i2h", 
      "attrs": {"num_hidden": "1024"}, 
      "inputs": [[20, 18, 0], [21, 0, 0], [22, 0, 0]]
    }, 
    {
      "op": "FullyConnected", 
      "name": "encoder_birnn_forward_l0_t18_h2h", 
      "attrs": {"num_hidden": "1024"}, 
      "inputs": [[277, 0, 0], [25, 0, 0], [26, 0, 0]]
    }, 
    {
      "op": "elemwise_add", 
      "name": "_plus18", 
      "inputs": [[279, 0, 0], [280, 0, 0]]
    }, 
    {
      "op": "SliceChannel", 
      "name": "encoder_birnn_forward_l0_t18_slice", 
      "attrs": {"num_outputs": "4"}, 
      "inputs": [[281, 0, 0]]
    }, 
    {
      "op": "Activation", 
      "name": "encoder_birnn_forward_l0_t18_o", 
      "attrs": {"act_type": "sigmoid"}, 
      "inputs": [[282, 3, 0]]
    }, 
    {
      "op": "Activation", 
      "name": "encoder_birnn_forward_l0_t18_f", 
      "attrs": {"act_type": "sigmoid"}, 
      "inputs": [[282, 1, 0]]
    }, 
    {
      "op": "elemwise_mul", 
      "name": "_mul36", 
      "inputs": [[284, 0, 0], [275, 0, 0]]
    }, 
    {
      "op": "Activation", 
      "name": "encoder_birnn_forward_l0_t18_i", 
      "attrs": {"act_type": "sigmoid"}, 
      "inputs": [[282, 0, 0]]
    }, 
    {
      "op": "Activation", 
      "name": "encoder_birnn_forward_l0_t18_c", 
      "attrs": {"act_type": "tanh"}, 
      "inputs": [[282, 2, 0]]
    }, 
    {
      "op": "elemwise_mul", 
      "name": "_mul37", 
      "inputs": [[286, 0, 0], [287, 0, 0]]
    }, 
    {
      "op": "elemwise_add", 
      "name": "encoder_birnn_forward_l0_t18_state", 
      "inputs": [[285, 0, 0], [288, 0, 0]]
    }, 
    {
      "op": "Activation", 
      "name": "activation18", 
      "attrs": {"act_type": "tanh"}, 
      "inputs": [[289, 0, 0]]
    }, 
    {
      "op": "elemwise_mul", 
      "name": "encoder_birnn_forward_l0_t18_out", 
      "inputs": [[283, 0, 0], [290, 0, 0]]
    }, 
    {
      "op": "expand_dims", 
      "name": "expand_dims18", 
      "attrs": {"axis": "0"}, 
      "inputs": [[291, 0, 0]]
    }, 
    {
      "op": "FullyConnected", 
      "name": "encoder_birnn_forward_l0_t19_i2h", 
      "attrs": {"num_hidden": "1024"}, 
      "inputs": [[20, 19, 0], [21, 0, 0], [22, 0, 0]]
    }, 
    {
      "op": "FullyConnected", 
      "name": "encoder_birnn_forward_l0_t19_h2h", 
      "attrs": {"num_hidden": "1024"}, 
      "inputs": [[291, 0, 0], [25, 0, 0], [26, 0, 0]]
    }, 
    {
      "op": "elemwise_add", 
      "name": "_plus19", 
      "inputs": [[293, 0, 0], [294, 0, 0]]
    }, 
    {
      "op": "SliceChannel", 
      "name": "encoder_birnn_forward_l0_t19_slice", 
      "attrs": {"num_outputs": "4"}, 
      "inputs": [[295, 0, 0]]
    }, 
    {
      "op": "Activation", 
      "name": "encoder_birnn_forward_l0_t19_o", 
      "attrs": {"act_type": "sigmoid"}, 
      "inputs": [[296, 3, 0]]
    }, 
    {
      "op": "Activation", 
      "name": "encoder_birnn_forward_l0_t19_f", 
      "attrs": {"act_type": "sigmoid"}, 
      "inputs": [[296, 1, 0]]
    }, 
    {
      "op": "elemwise_mul", 
      "name": "_mul38", 
      "inputs": [[298, 0, 0], [289, 0, 0]]
    }, 
    {
      "op": "Activation", 
      "name": "encoder_birnn_forward_l0_t19_i", 
      "attrs": {"act_type": "sigmoid"}, 
      "inputs": [[296, 0, 0]]
    }, 
    {
      "op": "Activation", 
      "name": "encoder_birnn_forward_l0_t19_c", 
      "attrs": {"act_type": "tanh"}, 
      "inputs": [[296, 2, 0]]
    }, 
    {
      "op": "elemwise_mul", 
      "name": "_mul39", 
      "inputs": [[300, 0, 0], [301, 0, 0]]
    }, 
    {
      "op": "elemwise_add", 
      "name": "encoder_birnn_forward_l0_t19_state", 
      "inputs": [[299, 0, 0], [302, 0, 0]]
    }, 
    {
      "op": "Activation", 
      "name": "activation19", 
      "attrs": {"act_type": "tanh"}, 
      "inputs": [[303, 0, 0]]
    }, 
    {
      "op": "elemwise_mul", 
      "name": "encoder_birnn_forward_l0_t19_out", 
      "inputs": [[297, 0, 0], [304, 0, 0]]
    }, 
    {
      "op": "expand_dims", 
      "name": "expand_dims19", 
      "attrs": {"axis": "0"}, 
      "inputs": [[305, 0, 0]]
    }, 
    {
      "op": "FullyConnected", 
      "name": "encoder_birnn_forward_l0_t20_i2h", 
      "attrs": {"num_hidden": "1024"}, 
      "inputs": [[20, 20, 0], [21, 0, 0], [22, 0, 0]]
    }, 
    {
      "op": "FullyConnected", 
      "name": "encoder_birnn_forward_l0_t20_h2h", 
      "attrs": {"num_hidden": "1024"}, 
      "inputs": [[305, 0, 0], [25, 0, 0], [26, 0, 0]]
    }, 
    {
      "op": "elemwise_add", 
      "name": "_plus20", 
      "inputs": [[307, 0, 0], [308, 0, 0]]
    }, 
    {
      "op": "SliceChannel", 
      "name": "encoder_birnn_forward_l0_t20_slice", 
      "attrs": {"num_outputs": "4"}, 
      "inputs": [[309, 0, 0]]
    }, 
    {
      "op": "Activation", 
      "name": "encoder_birnn_forward_l0_t20_o", 
      "attrs": {"act_type": "sigmoid"}, 
      "inputs": [[310, 3, 0]]
    }, 
    {
      "op": "Activation", 
      "name": "encoder_birnn_forward_l0_t20_f", 
      "attrs": {"act_type": "sigmoid"}, 
      "inputs": [[310, 1, 0]]
    }, 
    {
      "op": "elemwise_mul", 
      "name": "_mul40", 
      "inputs": [[312, 0, 0], [303, 0, 0]]
    }, 
    {
      "op": "Activation", 
      "name": "encoder_birnn_forward_l0_t20_i", 
      "attrs": {"act_type": "sigmoid"}, 
      "inputs": [[310, 0, 0]]
    }, 
    {
      "op": "Activation", 
      "name": "encoder_birnn_forward_l0_t20_c", 
      "attrs": {"act_type": "tanh"}, 
      "inputs": [[310, 2, 0]]
    }, 
    {
      "op": "elemwise_mul", 
      "name": "_mul41", 
      "inputs": [[314, 0, 0], [315, 0, 0]]
    }, 
    {
      "op": "elemwise_add", 
      "name": "encoder_birnn_forward_l0_t20_state", 
      "inputs": [[313, 0, 0], [316, 0, 0]]
    }, 
    {
      "op": "Activation", 
      "name": "activation20", 
      "attrs": {"act_type": "tanh"}, 
      "inputs": [[317, 0, 0]]
    }, 
    {
      "op": "elemwise_mul", 
      "name": "encoder_birnn_forward_l0_t20_out", 
      "inputs": [[311, 0, 0], [318, 0, 0]]
    }, 
    {
      "op": "expand_dims", 
      "name": "expand_dims20", 
      "attrs": {"axis": "0"}, 
      "inputs": [[319, 0, 0]]
    }, 
    {
      "op": "FullyConnected", 
      "name": "encoder_birnn_forward_l0_t21_i2h", 
      "attrs": {"num_hidden": "1024"}, 
      "inputs": [[20, 21, 0], [21, 0, 0], [22, 0, 0]]
    }, 
    {
      "op": "FullyConnected", 
      "name": "encoder_birnn_forward_l0_t21_h2h", 
      "attrs": {"num_hidden": "1024"}, 
      "inputs": [[319, 0, 0], [25, 0, 0], [26, 0, 0]]
    }, 
    {
      "op": "elemwise_add", 
      "name": "_plus21", 
      "inputs": [[321, 0, 0], [322, 0, 0]]
    }, 
    {
      "op": "SliceChannel", 
      "name": "encoder_birnn_forward_l0_t21_slice", 
      "attrs": {"num_outputs": "4"}, 
      "inputs": [[323, 0, 0]]
    }, 
    {
      "op": "Activation", 
      "name": "encoder_birnn_forward_l0_t21_o", 
      "attrs": {"act_type": "sigmoid"}, 
      "inputs": [[324, 3, 0]]
    }, 
    {
      "op": "Activation", 
      "name": "encoder_birnn_forward_l0_t21_f", 
      "attrs": {"act_type": "sigmoid"}, 
      "inputs": [[324, 1, 0]]
    }, 
    {
      "op": "elemwise_mul", 
      "name": "_mul42", 
      "inputs": [[326, 0, 0], [317, 0, 0]]
    }, 
    {
      "op": "Activation", 
      "name": "encoder_birnn_forward_l0_t21_i", 
      "attrs": {"act_type": "sigmoid"}, 
      "inputs": [[324, 0, 0]]
    }, 
    {
      "op": "Activation", 
      "name": "encoder_birnn_forward_l0_t21_c", 
      "attrs": {"act_type": "tanh"}, 
      "inputs": [[324, 2, 0]]
    }, 
    {
      "op": "elemwise_mul", 
      "name": "_mul43", 
      "inputs": [[328, 0, 0], [329, 0, 0]]
    }, 
    {
      "op": "elemwise_add", 
      "name": "encoder_birnn_forward_l0_t21_state", 
      "inputs": [[327, 0, 0], [330, 0, 0]]
    }, 
    {
      "op": "Activation", 
      "name": "activation21", 
      "attrs": {"act_type": "tanh"}, 
      "inputs": [[331, 0, 0]]
    }, 
    {
      "op": "elemwise_mul", 
      "name": "encoder_birnn_forward_l0_t21_out", 
      "inputs": [[325, 0, 0], [332, 0, 0]]
    }, 
    {
      "op": "expand_dims", 
      "name": "expand_dims21", 
      "attrs": {"axis": "0"}, 
      "inputs": [[333, 0, 0]]
    }, 
    {
      "op": "FullyConnected", 
      "name": "encoder_birnn_forward_l0_t22_i2h", 
      "attrs": {"num_hidden": "1024"}, 
      "inputs": [[20, 22, 0], [21, 0, 0], [22, 0, 0]]
    }, 
    {
      "op": "FullyConnected", 
      "name": "encoder_birnn_forward_l0_t22_h2h", 
      "attrs": {"num_hidden": "1024"}, 
      "inputs": [[333, 0, 0], [25, 0, 0], [26, 0, 0]]
    }, 
    {
      "op": "elemwise_add", 
      "name": "_plus22", 
      "inputs": [[335, 0, 0], [336, 0, 0]]
    }, 
    {
      "op": "SliceChannel", 
      "name": "encoder_birnn_forward_l0_t22_slice", 
      "attrs": {"num_outputs": "4"}, 
      "inputs": [[337, 0, 0]]
    }, 
    {
      "op": "Activation", 
      "name": "encoder_birnn_forward_l0_t22_o", 
      "attrs": {"act_type": "sigmoid"}, 
      "inputs": [[338, 3, 0]]
    }, 
    {
      "op": "Activation", 
      "name": "encoder_birnn_forward_l0_t22_f", 
      "attrs": {"act_type": "sigmoid"}, 
      "inputs": [[338, 1, 0]]
    }, 
    {
      "op": "elemwise_mul", 
      "name": "_mul44", 
      "inputs": [[340, 0, 0], [331, 0, 0]]
    }, 
    {
      "op": "Activation", 
      "name": "encoder_birnn_forward_l0_t22_i", 
      "attrs": {"act_type": "sigmoid"}, 
      "inputs": [[338, 0, 0]]
    }, 
    {
      "op": "Activation", 
      "name": "encoder_birnn_forward_l0_t22_c", 
      "attrs": {"act_type": "tanh"}, 
      "inputs": [[338, 2, 0]]
    }, 
    {
      "op": "elemwise_mul", 
      "name": "_mul45", 
      "inputs": [[342, 0, 0], [343, 0, 0]]
    }, 
    {
      "op": "elemwise_add", 
      "name": "encoder_birnn_forward_l0_t22_state", 
      "inputs": [[341, 0, 0], [344, 0, 0]]
    }, 
    {
      "op": "Activation", 
      "name": "activation22", 
      "attrs": {"act_type": "tanh"}, 
      "inputs": [[345, 0, 0]]
    }, 
    {
      "op": "elemwise_mul", 
      "name": "encoder_birnn_forward_l0_t22_out", 
      "inputs": [[339, 0, 0], [346, 0, 0]]
    }, 
    {
      "op": "expand_dims", 
      "name": "expand_dims22", 
      "attrs": {"axis": "0"}, 
      "inputs": [[347, 0, 0]]
    }, 
    {
      "op": "FullyConnected", 
      "name": "encoder_birnn_forward_l0_t23_i2h", 
      "attrs": {"num_hidden": "1024"}, 
      "inputs": [[20, 23, 0], [21, 0, 0], [22, 0, 0]]
    }, 
    {
      "op": "FullyConnected", 
      "name": "encoder_birnn_forward_l0_t23_h2h", 
      "attrs": {"num_hidden": "1024"}, 
      "inputs": [[347, 0, 0], [25, 0, 0], [26, 0, 0]]
    }, 
    {
      "op": "elemwise_add", 
      "name": "_plus23", 
      "inputs": [[349, 0, 0], [350, 0, 0]]
    }, 
    {
      "op": "SliceChannel", 
      "name": "encoder_birnn_forward_l0_t23_slice", 
      "attrs": {"num_outputs": "4"}, 
      "inputs": [[351, 0, 0]]
    }, 
    {
      "op": "Activation", 
      "name": "encoder_birnn_forward_l0_t23_o", 
      "attrs": {"act_type": "sigmoid"}, 
      "inputs": [[352, 3, 0]]
    }, 
    {
      "op": "Activation", 
      "name": "encoder_birnn_forward_l0_t23_f", 
      "attrs": {"act_type": "sigmoid"}, 
      "inputs": [[352, 1, 0]]
    }, 
    {
      "op": "elemwise_mul", 
      "name": "_mul46", 
      "inputs": [[354, 0, 0], [345, 0, 0]]
    }, 
    {
      "op": "Activation", 
      "name": "encoder_birnn_forward_l0_t23_i", 
      "attrs": {"act_type": "sigmoid"}, 
      "inputs": [[352, 0, 0]]
    }, 
    {
      "op": "Activation", 
      "name": "encoder_birnn_forward_l0_t23_c", 
      "attrs": {"act_type": "tanh"}, 
      "inputs": [[352, 2, 0]]
    }, 
    {
      "op": "elemwise_mul", 
      "name": "_mul47", 
      "inputs": [[356, 0, 0], [357, 0, 0]]
    }, 
    {
      "op": "elemwise_add", 
      "name": "encoder_birnn_forward_l0_t23_state", 
      "inputs": [[355, 0, 0], [358, 0, 0]]
    }, 
    {
      "op": "Activation", 
      "name": "activation23", 
      "attrs": {"act_type": "tanh"}, 
      "inputs": [[359, 0, 0]]
    }, 
    {
      "op": "elemwise_mul", 
      "name": "encoder_birnn_forward_l0_t23_out", 
      "inputs": [[353, 0, 0], [360, 0, 0]]
    }, 
    {
      "op": "expand_dims", 
      "name": "expand_dims23", 
      "attrs": {"axis": "0"}, 
      "inputs": [[361, 0, 0]]
    }, 
    {
      "op": "FullyConnected", 
      "name": "encoder_birnn_forward_l0_t24_i2h", 
      "attrs": {"num_hidden": "1024"}, 
      "inputs": [[20, 24, 0], [21, 0, 0], [22, 0, 0]]
    }, 
    {
      "op": "FullyConnected", 
      "name": "encoder_birnn_forward_l0_t24_h2h", 
      "attrs": {"num_hidden": "1024"}, 
      "inputs": [[361, 0, 0], [25, 0, 0], [26, 0, 0]]
    }, 
    {
      "op": "elemwise_add", 
      "name": "_plus24", 
      "inputs": [[363, 0, 0], [364, 0, 0]]
    }, 
    {
      "op": "SliceChannel", 
      "name": "encoder_birnn_forward_l0_t24_slice", 
      "attrs": {"num_outputs": "4"}, 
      "inputs": [[365, 0, 0]]
    }, 
    {
      "op": "Activation", 
      "name": "encoder_birnn_forward_l0_t24_o", 
      "attrs": {"act_type": "sigmoid"}, 
      "inputs": [[366, 3, 0]]
    }, 
    {
      "op": "Activation", 
      "name": "encoder_birnn_forward_l0_t24_f", 
      "attrs": {"act_type": "sigmoid"}, 
      "inputs": [[366, 1, 0]]
    }, 
    {
      "op": "elemwise_mul", 
      "name": "_mul48", 
      "inputs": [[368, 0, 0], [359, 0, 0]]
    }, 
    {
      "op": "Activation", 
      "name": "encoder_birnn_forward_l0_t24_i", 
      "attrs": {"act_type": "sigmoid"}, 
      "inputs": [[366, 0, 0]]
    }, 
    {
      "op": "Activation", 
      "name": "encoder_birnn_forward_l0_t24_c", 
      "attrs": {"act_type": "tanh"}, 
      "inputs": [[366, 2, 0]]
    }, 
    {
      "op": "elemwise_mul", 
      "name": "_mul49", 
      "inputs": [[370, 0, 0], [371, 0, 0]]
    }, 
    {
      "op": "elemwise_add", 
      "name": "encoder_birnn_forward_l0_t24_state", 
      "inputs": [[369, 0, 0], [372, 0, 0]]
    }, 
    {
      "op": "Activation", 
      "name": "activation24", 
      "attrs": {"act_type": "tanh"}, 
      "inputs": [[373, 0, 0]]
    }, 
    {
      "op": "elemwise_mul", 
      "name": "encoder_birnn_forward_l0_t24_out", 
      "inputs": [[367, 0, 0], [374, 0, 0]]
    }, 
    {
      "op": "expand_dims", 
      "name": "expand_dims24", 
      "attrs": {"axis": "0"}, 
      "inputs": [[375, 0, 0]]
    }, 
    {
      "op": "FullyConnected", 
      "name": "encoder_birnn_forward_l0_t25_i2h", 
      "attrs": {"num_hidden": "1024"}, 
      "inputs": [[20, 25, 0], [21, 0, 0], [22, 0, 0]]
    }, 
    {
      "op": "FullyConnected", 
      "name": "encoder_birnn_forward_l0_t25_h2h", 
      "attrs": {"num_hidden": "1024"}, 
      "inputs": [[375, 0, 0], [25, 0, 0], [26, 0, 0]]
    }, 
    {
      "op": "elemwise_add", 
      "name": "_plus25", 
      "inputs": [[377, 0, 0], [378, 0, 0]]
    }, 
    {
      "op": "SliceChannel", 
      "name": "encoder_birnn_forward_l0_t25_slice", 
      "attrs": {"num_outputs": "4"}, 
      "inputs": [[379, 0, 0]]
    }, 
    {
      "op": "Activation", 
      "name": "encoder_birnn_forward_l0_t25_o", 
      "attrs": {"act_type": "sigmoid"}, 
      "inputs": [[380, 3, 0]]
    }, 
    {
      "op": "Activation", 
      "name": "encoder_birnn_forward_l0_t25_f", 
      "attrs": {"act_type": "sigmoid"}, 
      "inputs": [[380, 1, 0]]
    }, 
    {
      "op": "elemwise_mul", 
      "name": "_mul50", 
      "inputs": [[382, 0, 0], [373, 0, 0]]
    }, 
    {
      "op": "Activation", 
      "name": "encoder_birnn_forward_l0_t25_i", 
      "attrs": {"act_type": "sigmoid"}, 
      "inputs": [[380, 0, 0]]
    }, 
    {
      "op": "Activation", 
      "name": "encoder_birnn_forward_l0_t25_c", 
      "attrs": {"act_type": "tanh"}, 
      "inputs": [[380, 2, 0]]
    }, 
    {
      "op": "elemwise_mul", 
      "name": "_mul51", 
      "inputs": [[384, 0, 0], [385, 0, 0]]
    }, 
    {
      "op": "elemwise_add", 
      "name": "encoder_birnn_forward_l0_t25_state", 
      "inputs": [[383, 0, 0], [386, 0, 0]]
    }, 
    {
      "op": "Activation", 
      "name": "activation25", 
      "attrs": {"act_type": "tanh"}, 
      "inputs": [[387, 0, 0]]
    }, 
    {
      "op": "elemwise_mul", 
      "name": "encoder_birnn_forward_l0_t25_out", 
      "inputs": [[381, 0, 0], [388, 0, 0]]
    }, 
    {
      "op": "expand_dims", 
      "name": "expand_dims25", 
      "attrs": {"axis": "0"}, 
      "inputs": [[389, 0, 0]]
    }, 
    {
      "op": "FullyConnected", 
      "name": "encoder_birnn_forward_l0_t26_i2h", 
      "attrs": {"num_hidden": "1024"}, 
      "inputs": [[20, 26, 0], [21, 0, 0], [22, 0, 0]]
    }, 
    {
      "op": "FullyConnected", 
      "name": "encoder_birnn_forward_l0_t26_h2h", 
      "attrs": {"num_hidden": "1024"}, 
      "inputs": [[389, 0, 0], [25, 0, 0], [26, 0, 0]]
    }, 
    {
      "op": "elemwise_add", 
      "name": "_plus26", 
      "inputs": [[391, 0, 0], [392, 0, 0]]
    }, 
    {
      "op": "SliceChannel", 
      "name": "encoder_birnn_forward_l0_t26_slice", 
      "attrs": {"num_outputs": "4"}, 
      "inputs": [[393, 0, 0]]
    }, 
    {
      "op": "Activation", 
      "name": "encoder_birnn_forward_l0_t26_o", 
      "attrs": {"act_type": "sigmoid"}, 
      "inputs": [[394, 3, 0]]
    }, 
    {
      "op": "Activation", 
      "name": "encoder_birnn_forward_l0_t26_f", 
      "attrs": {"act_type": "sigmoid"}, 
      "inputs": [[394, 1, 0]]
    }, 
    {
      "op": "elemwise_mul", 
      "name": "_mul52", 
      "inputs": [[396, 0, 0], [387, 0, 0]]
    }, 
    {
      "op": "Activation", 
      "name": "encoder_birnn_forward_l0_t26_i", 
      "attrs": {"act_type": "sigmoid"}, 
      "inputs": [[394, 0, 0]]
    }, 
    {
      "op": "Activation", 
      "name": "encoder_birnn_forward_l0_t26_c", 
      "attrs": {"act_type": "tanh"}, 
      "inputs": [[394, 2, 0]]
    }, 
    {
      "op": "elemwise_mul", 
      "name": "_mul53", 
      "inputs": [[398, 0, 0], [399, 0, 0]]
    }, 
    {
      "op": "elemwise_add", 
      "name": "encoder_birnn_forward_l0_t26_state", 
      "inputs": [[397, 0, 0], [400, 0, 0]]
    }, 
    {
      "op": "Activation", 
      "name": "activation26", 
      "attrs": {"act_type": "tanh"}, 
      "inputs": [[401, 0, 0]]
    }, 
    {
      "op": "elemwise_mul", 
      "name": "encoder_birnn_forward_l0_t26_out", 
      "inputs": [[395, 0, 0], [402, 0, 0]]
    }, 
    {
      "op": "expand_dims", 
      "name": "expand_dims26", 
      "attrs": {"axis": "0"}, 
      "inputs": [[403, 0, 0]]
    }, 
    {
      "op": "FullyConnected", 
      "name": "encoder_birnn_forward_l0_t27_i2h", 
      "attrs": {"num_hidden": "1024"}, 
      "inputs": [[20, 27, 0], [21, 0, 0], [22, 0, 0]]
    }, 
    {
      "op": "FullyConnected", 
      "name": "encoder_birnn_forward_l0_t27_h2h", 
      "attrs": {"num_hidden": "1024"}, 
      "inputs": [[403, 0, 0], [25, 0, 0], [26, 0, 0]]
    }, 
    {
      "op": "elemwise_add", 
      "name": "_plus27", 
      "inputs": [[405, 0, 0], [406, 0, 0]]
    }, 
    {
      "op": "SliceChannel", 
      "name": "encoder_birnn_forward_l0_t27_slice", 
      "attrs": {"num_outputs": "4"}, 
      "inputs": [[407, 0, 0]]
    }, 
    {
      "op": "Activation", 
      "name": "encoder_birnn_forward_l0_t27_o", 
      "attrs": {"act_type": "sigmoid"}, 
      "inputs": [[408, 3, 0]]
    }, 
    {
      "op": "Activation", 
      "name": "encoder_birnn_forward_l0_t27_f", 
      "attrs": {"act_type": "sigmoid"}, 
      "inputs": [[408, 1, 0]]
    }, 
    {
      "op": "elemwise_mul", 
      "name": "_mul54", 
      "inputs": [[410, 0, 0], [401, 0, 0]]
    }, 
    {
      "op": "Activation", 
      "name": "encoder_birnn_forward_l0_t27_i", 
      "attrs": {"act_type": "sigmoid"}, 
      "inputs": [[408, 0, 0]]
    }, 
    {
      "op": "Activation", 
      "name": "encoder_birnn_forward_l0_t27_c", 
      "attrs": {"act_type": "tanh"}, 
      "inputs": [[408, 2, 0]]
    }, 
    {
      "op": "elemwise_mul", 
      "name": "_mul55", 
      "inputs": [[412, 0, 0], [413, 0, 0]]
    }, 
    {
      "op": "elemwise_add", 
      "name": "encoder_birnn_forward_l0_t27_state", 
      "inputs": [[411, 0, 0], [414, 0, 0]]
    }, 
    {
      "op": "Activation", 
      "name": "activation27", 
      "attrs": {"act_type": "tanh"}, 
      "inputs": [[415, 0, 0]]
    }, 
    {
      "op": "elemwise_mul", 
      "name": "encoder_birnn_forward_l0_t27_out", 
      "inputs": [[409, 0, 0], [416, 0, 0]]
    }, 
    {
      "op": "expand_dims", 
      "name": "expand_dims27", 
      "attrs": {"axis": "0"}, 
      "inputs": [[417, 0, 0]]
    }, 
    {
      "op": "FullyConnected", 
      "name": "encoder_birnn_forward_l0_t28_i2h", 
      "attrs": {"num_hidden": "1024"}, 
      "inputs": [[20, 28, 0], [21, 0, 0], [22, 0, 0]]
    }, 
    {
      "op": "FullyConnected", 
      "name": "encoder_birnn_forward_l0_t28_h2h", 
      "attrs": {"num_hidden": "1024"}, 
      "inputs": [[417, 0, 0], [25, 0, 0], [26, 0, 0]]
    }, 
    {
      "op": "elemwise_add", 
      "name": "_plus28", 
      "inputs": [[419, 0, 0], [420, 0, 0]]
    }, 
    {
      "op": "SliceChannel", 
      "name": "encoder_birnn_forward_l0_t28_slice", 
      "attrs": {"num_outputs": "4"}, 
      "inputs": [[421, 0, 0]]
    }, 
    {
      "op": "Activation", 
      "name": "encoder_birnn_forward_l0_t28_o", 
      "attrs": {"act_type": "sigmoid"}, 
      "inputs": [[422, 3, 0]]
    }, 
    {
      "op": "Activation", 
      "name": "encoder_birnn_forward_l0_t28_f", 
      "attrs": {"act_type": "sigmoid"}, 
      "inputs": [[422, 1, 0]]
    }, 
    {
      "op": "elemwise_mul", 
      "name": "_mul56", 
      "inputs": [[424, 0, 0], [415, 0, 0]]
    }, 
    {
      "op": "Activation", 
      "name": "encoder_birnn_forward_l0_t28_i", 
      "attrs": {"act_type": "sigmoid"}, 
      "inputs": [[422, 0, 0]]
    }, 
    {
      "op": "Activation", 
      "name": "encoder_birnn_forward_l0_t28_c", 
      "attrs": {"act_type": "tanh"}, 
      "inputs": [[422, 2, 0]]
    }, 
    {
      "op": "elemwise_mul", 
      "name": "_mul57", 
      "inputs": [[426, 0, 0], [427, 0, 0]]
    }, 
    {
      "op": "elemwise_add", 
      "name": "encoder_birnn_forward_l0_t28_state", 
      "inputs": [[425, 0, 0], [428, 0, 0]]
    }, 
    {
      "op": "Activation", 
      "name": "activation28", 
      "attrs": {"act_type": "tanh"}, 
      "inputs": [[429, 0, 0]]
    }, 
    {
      "op": "elemwise_mul", 
      "name": "encoder_birnn_forward_l0_t28_out", 
      "inputs": [[423, 0, 0], [430, 0, 0]]
    }, 
    {
      "op": "expand_dims", 
      "name": "expand_dims28", 
      "attrs": {"axis": "0"}, 
      "inputs": [[431, 0, 0]]
    }, 
    {
      "op": "FullyConnected", 
      "name": "encoder_birnn_forward_l0_t29_i2h", 
      "attrs": {"num_hidden": "1024"}, 
      "inputs": [[20, 29, 0], [21, 0, 0], [22, 0, 0]]
    }, 
    {
      "op": "FullyConnected", 
      "name": "encoder_birnn_forward_l0_t29_h2h", 
      "attrs": {"num_hidden": "1024"}, 
      "inputs": [[431, 0, 0], [25, 0, 0], [26, 0, 0]]
    }, 
    {
      "op": "elemwise_add", 
      "name": "_plus29", 
      "inputs": [[433, 0, 0], [434, 0, 0]]
    }, 
    {
      "op": "SliceChannel", 
      "name": "encoder_birnn_forward_l0_t29_slice", 
      "attrs": {"num_outputs": "4"}, 
      "inputs": [[435, 0, 0]]
    }, 
    {
      "op": "Activation", 
      "name": "encoder_birnn_forward_l0_t29_o", 
      "attrs": {"act_type": "sigmoid"}, 
      "inputs": [[436, 3, 0]]
    }, 
    {
      "op": "Activation", 
      "name": "encoder_birnn_forward_l0_t29_f", 
      "attrs": {"act_type": "sigmoid"}, 
      "inputs": [[436, 1, 0]]
    }, 
    {
      "op": "elemwise_mul", 
      "name": "_mul58", 
      "inputs": [[438, 0, 0], [429, 0, 0]]
    }, 
    {
      "op": "Activation", 
      "name": "encoder_birnn_forward_l0_t29_i", 
      "attrs": {"act_type": "sigmoid"}, 
      "inputs": [[436, 0, 0]]
    }, 
    {
      "op": "Activation", 
      "name": "encoder_birnn_forward_l0_t29_c", 
      "attrs": {"act_type": "tanh"}, 
      "inputs": [[436, 2, 0]]
    }, 
    {
      "op": "elemwise_mul", 
      "name": "_mul59", 
      "inputs": [[440, 0, 0], [441, 0, 0]]
    }, 
    {
      "op": "elemwise_add", 
      "name": "encoder_birnn_forward_l0_t29_state", 
      "inputs": [[439, 0, 0], [442, 0, 0]]
    }, 
    {
      "op": "Activation", 
      "name": "activation29", 
      "attrs": {"act_type": "tanh"}, 
      "inputs": [[443, 0, 0]]
    }, 
    {
      "op": "elemwise_mul", 
      "name": "encoder_birnn_forward_l0_t29_out", 
      "inputs": [[437, 0, 0], [444, 0, 0]]
    }, 
    {
      "op": "expand_dims", 
      "name": "expand_dims29", 
      "attrs": {"axis": "0"}, 
      "inputs": [[445, 0, 0]]
    }, 
    {
      "op": "FullyConnected", 
      "name": "encoder_birnn_forward_l0_t30_i2h", 
      "attrs": {"num_hidden": "1024"}, 
      "inputs": [[20, 30, 0], [21, 0, 0], [22, 0, 0]]
    }, 
    {
      "op": "FullyConnected", 
      "name": "encoder_birnn_forward_l0_t30_h2h", 
      "attrs": {"num_hidden": "1024"}, 
      "inputs": [[445, 0, 0], [25, 0, 0], [26, 0, 0]]
    }, 
    {
      "op": "elemwise_add", 
      "name": "_plus30", 
      "inputs": [[447, 0, 0], [448, 0, 0]]
    }, 
    {
      "op": "SliceChannel", 
      "name": "encoder_birnn_forward_l0_t30_slice", 
      "attrs": {"num_outputs": "4"}, 
      "inputs": [[449, 0, 0]]
    }, 
    {
      "op": "Activation", 
      "name": "encoder_birnn_forward_l0_t30_o", 
      "attrs": {"act_type": "sigmoid"}, 
      "inputs": [[450, 3, 0]]
    }, 
    {
      "op": "Activation", 
      "name": "encoder_birnn_forward_l0_t30_f", 
      "attrs": {"act_type": "sigmoid"}, 
      "inputs": [[450, 1, 0]]
    }, 
    {
      "op": "elemwise_mul", 
      "name": "_mul60", 
      "inputs": [[452, 0, 0], [443, 0, 0]]
    }, 
    {
      "op": "Activation", 
      "name": "encoder_birnn_forward_l0_t30_i", 
      "attrs": {"act_type": "sigmoid"}, 
      "inputs": [[450, 0, 0]]
    }, 
    {
      "op": "Activation", 
      "name": "encoder_birnn_forward_l0_t30_c", 
      "attrs": {"act_type": "tanh"}, 
      "inputs": [[450, 2, 0]]
    }, 
    {
      "op": "elemwise_mul", 
      "name": "_mul61", 
      "inputs": [[454, 0, 0], [455, 0, 0]]
    }, 
    {
      "op": "elemwise_add", 
      "name": "encoder_birnn_forward_l0_t30_state", 
      "inputs": [[453, 0, 0], [456, 0, 0]]
    }, 
    {
      "op": "Activation", 
      "name": "activation30", 
      "attrs": {"act_type": "tanh"}, 
      "inputs": [[457, 0, 0]]
    }, 
    {
      "op": "elemwise_mul", 
      "name": "encoder_birnn_forward_l0_t30_out", 
      "inputs": [[451, 0, 0], [458, 0, 0]]
    }, 
    {
      "op": "expand_dims", 
      "name": "expand_dims30", 
      "attrs": {"axis": "0"}, 
      "inputs": [[459, 0, 0]]
    }, 
    {
      "op": "FullyConnected", 
      "name": "encoder_birnn_forward_l0_t31_i2h", 
      "attrs": {"num_hidden": "1024"}, 
      "inputs": [[20, 31, 0], [21, 0, 0], [22, 0, 0]]
    }, 
    {
      "op": "FullyConnected", 
      "name": "encoder_birnn_forward_l0_t31_h2h", 
      "attrs": {"num_hidden": "1024"}, 
      "inputs": [[459, 0, 0], [25, 0, 0], [26, 0, 0]]
    }, 
    {
      "op": "elemwise_add", 
      "name": "_plus31", 
      "inputs": [[461, 0, 0], [462, 0, 0]]
    }, 
    {
      "op": "SliceChannel", 
      "name": "encoder_birnn_forward_l0_t31_slice", 
      "attrs": {"num_outputs": "4"}, 
      "inputs": [[463, 0, 0]]
    }, 
    {
      "op": "Activation", 
      "name": "encoder_birnn_forward_l0_t31_o", 
      "attrs": {"act_type": "sigmoid"}, 
      "inputs": [[464, 3, 0]]
    }, 
    {
      "op": "Activation", 
      "name": "encoder_birnn_forward_l0_t31_f", 
      "attrs": {"act_type": "sigmoid"}, 
      "inputs": [[464, 1, 0]]
    }, 
    {
      "op": "elemwise_mul", 
      "name": "_mul62", 
      "inputs": [[466, 0, 0], [457, 0, 0]]
    }, 
    {
      "op": "Activation", 
      "name": "encoder_birnn_forward_l0_t31_i", 
      "attrs": {"act_type": "sigmoid"}, 
      "inputs": [[464, 0, 0]]
    }, 
    {
      "op": "Activation", 
      "name": "encoder_birnn_forward_l0_t31_c", 
      "attrs": {"act_type": "tanh"}, 
      "inputs": [[464, 2, 0]]
    }, 
    {
      "op": "elemwise_mul", 
      "name": "_mul63", 
      "inputs": [[468, 0, 0], [469, 0, 0]]
    }, 
    {
      "op": "elemwise_add", 
      "name": "encoder_birnn_forward_l0_t31_state", 
      "inputs": [[467, 0, 0], [470, 0, 0]]
    }, 
    {
      "op": "Activation", 
      "name": "activation31", 
      "attrs": {"act_type": "tanh"}, 
      "inputs": [[471, 0, 0]]
    }, 
    {
      "op": "elemwise_mul", 
      "name": "encoder_birnn_forward_l0_t31_out", 
      "inputs": [[465, 0, 0], [472, 0, 0]]
    }, 
    {
      "op": "expand_dims", 
      "name": "expand_dims31", 
      "attrs": {"axis": "0"}, 
      "inputs": [[473, 0, 0]]
    }, 
    {
      "op": "FullyConnected", 
      "name": "encoder_birnn_forward_l0_t32_i2h", 
      "attrs": {"num_hidden": "1024"}, 
      "inputs": [[20, 32, 0], [21, 0, 0], [22, 0, 0]]
    }, 
    {
      "op": "FullyConnected", 
      "name": "encoder_birnn_forward_l0_t32_h2h", 
      "attrs": {"num_hidden": "1024"}, 
      "inputs": [[473, 0, 0], [25, 0, 0], [26, 0, 0]]
    }, 
    {
      "op": "elemwise_add", 
      "name": "_plus32", 
      "inputs": [[475, 0, 0], [476, 0, 0]]
    }, 
    {
      "op": "SliceChannel", 
      "name": "encoder_birnn_forward_l0_t32_slice", 
      "attrs": {"num_outputs": "4"}, 
      "inputs": [[477, 0, 0]]
    }, 
    {
      "op": "Activation", 
      "name": "encoder_birnn_forward_l0_t32_o", 
      "attrs": {"act_type": "sigmoid"}, 
      "inputs": [[478, 3, 0]]
    }, 
    {
      "op": "Activation", 
      "name": "encoder_birnn_forward_l0_t32_f", 
      "attrs": {"act_type": "sigmoid"}, 
      "inputs": [[478, 1, 0]]
    }, 
    {
      "op": "elemwise_mul", 
      "name": "_mul64", 
      "inputs": [[480, 0, 0], [471, 0, 0]]
    }, 
    {
      "op": "Activation", 
      "name": "encoder_birnn_forward_l0_t32_i", 
      "attrs": {"act_type": "sigmoid"}, 
      "inputs": [[478, 0, 0]]
    }, 
    {
      "op": "Activation", 
      "name": "encoder_birnn_forward_l0_t32_c", 
      "attrs": {"act_type": "tanh"}, 
      "inputs": [[478, 2, 0]]
    }, 
    {
      "op": "elemwise_mul", 
      "name": "_mul65", 
      "inputs": [[482, 0, 0], [483, 0, 0]]
    }, 
    {
      "op": "elemwise_add", 
      "name": "encoder_birnn_forward_l0_t32_state", 
      "inputs": [[481, 0, 0], [484, 0, 0]]
    }, 
    {
      "op": "Activation", 
      "name": "activation32", 
      "attrs": {"act_type": "tanh"}, 
      "inputs": [[485, 0, 0]]
    }, 
    {
      "op": "elemwise_mul", 
      "name": "encoder_birnn_forward_l0_t32_out", 
      "inputs": [[479, 0, 0], [486, 0, 0]]
    }, 
    {
      "op": "expand_dims", 
      "name": "expand_dims32", 
      "attrs": {"axis": "0"}, 
      "inputs": [[487, 0, 0]]
    }, 
    {
      "op": "FullyConnected", 
      "name": "encoder_birnn_forward_l0_t33_i2h", 
      "attrs": {"num_hidden": "1024"}, 
      "inputs": [[20, 33, 0], [21, 0, 0], [22, 0, 0]]
    }, 
    {
      "op": "FullyConnected", 
      "name": "encoder_birnn_forward_l0_t33_h2h", 
      "attrs": {"num_hidden": "1024"}, 
      "inputs": [[487, 0, 0], [25, 0, 0], [26, 0, 0]]
    }, 
    {
      "op": "elemwise_add", 
      "name": "_plus33", 
      "inputs": [[489, 0, 0], [490, 0, 0]]
    }, 
    {
      "op": "SliceChannel", 
      "name": "encoder_birnn_forward_l0_t33_slice", 
      "attrs": {"num_outputs": "4"}, 
      "inputs": [[491, 0, 0]]
    }, 
    {
      "op": "Activation", 
      "name": "encoder_birnn_forward_l0_t33_o", 
      "attrs": {"act_type": "sigmoid"}, 
      "inputs": [[492, 3, 0]]
    }, 
    {
      "op": "Activation", 
      "name": "encoder_birnn_forward_l0_t33_f", 
      "attrs": {"act_type": "sigmoid"}, 
      "inputs": [[492, 1, 0]]
    }, 
    {
      "op": "elemwise_mul", 
      "name": "_mul66", 
      "inputs": [[494, 0, 0], [485, 0, 0]]
    }, 
    {
      "op": "Activation", 
      "name": "encoder_birnn_forward_l0_t33_i", 
      "attrs": {"act_type": "sigmoid"}, 
      "inputs": [[492, 0, 0]]
    }, 
    {
      "op": "Activation", 
      "name": "encoder_birnn_forward_l0_t33_c", 
      "attrs": {"act_type": "tanh"}, 
      "inputs": [[492, 2, 0]]
    }, 
    {
      "op": "elemwise_mul", 
      "name": "_mul67", 
      "inputs": [[496, 0, 0], [497, 0, 0]]
    }, 
    {
      "op": "elemwise_add", 
      "name": "encoder_birnn_forward_l0_t33_state", 
      "inputs": [[495, 0, 0], [498, 0, 0]]
    }, 
    {
      "op": "Activation", 
      "name": "activation33", 
      "attrs": {"act_type": "tanh"}, 
      "inputs": [[499, 0, 0]]
    }, 
    {
      "op": "elemwise_mul", 
      "name": "encoder_birnn_forward_l0_t33_out", 
      "inputs": [[493, 0, 0], [500, 0, 0]]
    }, 
    {
      "op": "expand_dims", 
      "name": "expand_dims33", 
      "attrs": {"axis": "0"}, 
      "inputs": [[501, 0, 0]]
    }, 
    {
      "op": "FullyConnected", 
      "name": "encoder_birnn_forward_l0_t34_i2h", 
      "attrs": {"num_hidden": "1024"}, 
      "inputs": [[20, 34, 0], [21, 0, 0], [22, 0, 0]]
    }, 
    {
      "op": "FullyConnected", 
      "name": "encoder_birnn_forward_l0_t34_h2h", 
      "attrs": {"num_hidden": "1024"}, 
      "inputs": [[501, 0, 0], [25, 0, 0], [26, 0, 0]]
    }, 
    {
      "op": "elemwise_add", 
      "name": "_plus34", 
      "inputs": [[503, 0, 0], [504, 0, 0]]
    }, 
    {
      "op": "SliceChannel", 
      "name": "encoder_birnn_forward_l0_t34_slice", 
      "attrs": {"num_outputs": "4"}, 
      "inputs": [[505, 0, 0]]
    }, 
    {
      "op": "Activation", 
      "name": "encoder_birnn_forward_l0_t34_o", 
      "attrs": {"act_type": "sigmoid"}, 
      "inputs": [[506, 3, 0]]
    }, 
    {
      "op": "Activation", 
      "name": "encoder_birnn_forward_l0_t34_f", 
      "attrs": {"act_type": "sigmoid"}, 
      "inputs": [[506, 1, 0]]
    }, 
    {
      "op": "elemwise_mul", 
      "name": "_mul68", 
      "inputs": [[508, 0, 0], [499, 0, 0]]
    }, 
    {
      "op": "Activation", 
      "name": "encoder_birnn_forward_l0_t34_i", 
      "attrs": {"act_type": "sigmoid"}, 
      "inputs": [[506, 0, 0]]
    }, 
    {
      "op": "Activation", 
      "name": "encoder_birnn_forward_l0_t34_c", 
      "attrs": {"act_type": "tanh"}, 
      "inputs": [[506, 2, 0]]
    }, 
    {
      "op": "elemwise_mul", 
      "name": "_mul69", 
      "inputs": [[510, 0, 0], [511, 0, 0]]
    }, 
    {
      "op": "elemwise_add", 
      "name": "encoder_birnn_forward_l0_t34_state", 
      "inputs": [[509, 0, 0], [512, 0, 0]]
    }, 
    {
      "op": "Activation", 
      "name": "activation34", 
      "attrs": {"act_type": "tanh"}, 
      "inputs": [[513, 0, 0]]
    }, 
    {
      "op": "elemwise_mul", 
      "name": "encoder_birnn_forward_l0_t34_out", 
      "inputs": [[507, 0, 0], [514, 0, 0]]
    }, 
    {
      "op": "expand_dims", 
      "name": "expand_dims34", 
      "attrs": {"axis": "0"}, 
      "inputs": [[515, 0, 0]]
    }, 
    {
      "op": "FullyConnected", 
      "name": "encoder_birnn_forward_l0_t35_i2h", 
      "attrs": {"num_hidden": "1024"}, 
      "inputs": [[20, 35, 0], [21, 0, 0], [22, 0, 0]]
    }, 
    {
      "op": "FullyConnected", 
      "name": "encoder_birnn_forward_l0_t35_h2h", 
      "attrs": {"num_hidden": "1024"}, 
      "inputs": [[515, 0, 0], [25, 0, 0], [26, 0, 0]]
    }, 
    {
      "op": "elemwise_add", 
      "name": "_plus35", 
      "inputs": [[517, 0, 0], [518, 0, 0]]
    }, 
    {
      "op": "SliceChannel", 
      "name": "encoder_birnn_forward_l0_t35_slice", 
      "attrs": {"num_outputs": "4"}, 
      "inputs": [[519, 0, 0]]
    }, 
    {
      "op": "Activation", 
      "name": "encoder_birnn_forward_l0_t35_o", 
      "attrs": {"act_type": "sigmoid"}, 
      "inputs": [[520, 3, 0]]
    }, 
    {
      "op": "Activation", 
      "name": "encoder_birnn_forward_l0_t35_f", 
      "attrs": {"act_type": "sigmoid"}, 
      "inputs": [[520, 1, 0]]
    }, 
    {
      "op": "elemwise_mul", 
      "name": "_mul70", 
      "inputs": [[522, 0, 0], [513, 0, 0]]
    }, 
    {
      "op": "Activation", 
      "name": "encoder_birnn_forward_l0_t35_i", 
      "attrs": {"act_type": "sigmoid"}, 
      "inputs": [[520, 0, 0]]
    }, 
    {
      "op": "Activation", 
      "name": "encoder_birnn_forward_l0_t35_c", 
      "attrs": {"act_type": "tanh"}, 
      "inputs": [[520, 2, 0]]
    }, 
    {
      "op": "elemwise_mul", 
      "name": "_mul71", 
      "inputs": [[524, 0, 0], [525, 0, 0]]
    }, 
    {
      "op": "elemwise_add", 
      "name": "encoder_birnn_forward_l0_t35_state", 
      "inputs": [[523, 0, 0], [526, 0, 0]]
    }, 
    {
      "op": "Activation", 
      "name": "activation35", 
      "attrs": {"act_type": "tanh"}, 
      "inputs": [[527, 0, 0]]
    }, 
    {
      "op": "elemwise_mul", 
      "name": "encoder_birnn_forward_l0_t35_out", 
      "inputs": [[521, 0, 0], [528, 0, 0]]
    }, 
    {
      "op": "expand_dims", 
      "name": "expand_dims35", 
      "attrs": {"axis": "0"}, 
      "inputs": [[529, 0, 0]]
    }, 
    {
      "op": "FullyConnected", 
      "name": "encoder_birnn_forward_l0_t36_i2h", 
      "attrs": {"num_hidden": "1024"}, 
      "inputs": [[20, 36, 0], [21, 0, 0], [22, 0, 0]]
    }, 
    {
      "op": "FullyConnected", 
      "name": "encoder_birnn_forward_l0_t36_h2h", 
      "attrs": {"num_hidden": "1024"}, 
      "inputs": [[529, 0, 0], [25, 0, 0], [26, 0, 0]]
    }, 
    {
      "op": "elemwise_add", 
      "name": "_plus36", 
      "inputs": [[531, 0, 0], [532, 0, 0]]
    }, 
    {
      "op": "SliceChannel", 
      "name": "encoder_birnn_forward_l0_t36_slice", 
      "attrs": {"num_outputs": "4"}, 
      "inputs": [[533, 0, 0]]
    }, 
    {
      "op": "Activation", 
      "name": "encoder_birnn_forward_l0_t36_o", 
      "attrs": {"act_type": "sigmoid"}, 
      "inputs": [[534, 3, 0]]
    }, 
    {
      "op": "Activation", 
      "name": "encoder_birnn_forward_l0_t36_f", 
      "attrs": {"act_type": "sigmoid"}, 
      "inputs": [[534, 1, 0]]
    }, 
    {
      "op": "elemwise_mul", 
      "name": "_mul72", 
      "inputs": [[536, 0, 0], [527, 0, 0]]
    }, 
    {
      "op": "Activation", 
      "name": "encoder_birnn_forward_l0_t36_i", 
      "attrs": {"act_type": "sigmoid"}, 
      "inputs": [[534, 0, 0]]
    }, 
    {
      "op": "Activation", 
      "name": "encoder_birnn_forward_l0_t36_c", 
      "attrs": {"act_type": "tanh"}, 
      "inputs": [[534, 2, 0]]
    }, 
    {
      "op": "elemwise_mul", 
      "name": "_mul73", 
      "inputs": [[538, 0, 0], [539, 0, 0]]
    }, 
    {
      "op": "elemwise_add", 
      "name": "encoder_birnn_forward_l0_t36_state", 
      "inputs": [[537, 0, 0], [540, 0, 0]]
    }, 
    {
      "op": "Activation", 
      "name": "activation36", 
      "attrs": {"act_type": "tanh"}, 
      "inputs": [[541, 0, 0]]
    }, 
    {
      "op": "elemwise_mul", 
      "name": "encoder_birnn_forward_l0_t36_out", 
      "inputs": [[535, 0, 0], [542, 0, 0]]
    }, 
    {
      "op": "expand_dims", 
      "name": "expand_dims36", 
      "attrs": {"axis": "0"}, 
      "inputs": [[543, 0, 0]]
    }, 
    {
      "op": "FullyConnected", 
      "name": "encoder_birnn_forward_l0_t37_i2h", 
      "attrs": {"num_hidden": "1024"}, 
      "inputs": [[20, 37, 0], [21, 0, 0], [22, 0, 0]]
    }, 
    {
      "op": "FullyConnected", 
      "name": "encoder_birnn_forward_l0_t37_h2h", 
      "attrs": {"num_hidden": "1024"}, 
      "inputs": [[543, 0, 0], [25, 0, 0], [26, 0, 0]]
    }, 
    {
      "op": "elemwise_add", 
      "name": "_plus37", 
      "inputs": [[545, 0, 0], [546, 0, 0]]
    }, 
    {
      "op": "SliceChannel", 
      "name": "encoder_birnn_forward_l0_t37_slice", 
      "attrs": {"num_outputs": "4"}, 
      "inputs": [[547, 0, 0]]
    }, 
    {
      "op": "Activation", 
      "name": "encoder_birnn_forward_l0_t37_o", 
      "attrs": {"act_type": "sigmoid"}, 
      "inputs": [[548, 3, 0]]
    }, 
    {
      "op": "Activation", 
      "name": "encoder_birnn_forward_l0_t37_f", 
      "attrs": {"act_type": "sigmoid"}, 
      "inputs": [[548, 1, 0]]
    }, 
    {
      "op": "elemwise_mul", 
      "name": "_mul74", 
      "inputs": [[550, 0, 0], [541, 0, 0]]
    }, 
    {
      "op": "Activation", 
      "name": "encoder_birnn_forward_l0_t37_i", 
      "attrs": {"act_type": "sigmoid"}, 
      "inputs": [[548, 0, 0]]
    }, 
    {
      "op": "Activation", 
      "name": "encoder_birnn_forward_l0_t37_c", 
      "attrs": {"act_type": "tanh"}, 
      "inputs": [[548, 2, 0]]
    }, 
    {
      "op": "elemwise_mul", 
      "name": "_mul75", 
      "inputs": [[552, 0, 0], [553, 0, 0]]
    }, 
    {
      "op": "elemwise_add", 
      "name": "encoder_birnn_forward_l0_t37_state", 
      "inputs": [[551, 0, 0], [554, 0, 0]]
    }, 
    {
      "op": "Activation", 
      "name": "activation37", 
      "attrs": {"act_type": "tanh"}, 
      "inputs": [[555, 0, 0]]
    }, 
    {
      "op": "elemwise_mul", 
      "name": "encoder_birnn_forward_l0_t37_out", 
      "inputs": [[549, 0, 0], [556, 0, 0]]
    }, 
    {
      "op": "expand_dims", 
      "name": "expand_dims37", 
      "attrs": {"axis": "0"}, 
      "inputs": [[557, 0, 0]]
    }, 
    {
      "op": "FullyConnected", 
      "name": "encoder_birnn_forward_l0_t38_i2h", 
      "attrs": {"num_hidden": "1024"}, 
      "inputs": [[20, 38, 0], [21, 0, 0], [22, 0, 0]]
    }, 
    {
      "op": "FullyConnected", 
      "name": "encoder_birnn_forward_l0_t38_h2h", 
      "attrs": {"num_hidden": "1024"}, 
      "inputs": [[557, 0, 0], [25, 0, 0], [26, 0, 0]]
    }, 
    {
      "op": "elemwise_add", 
      "name": "_plus38", 
      "inputs": [[559, 0, 0], [560, 0, 0]]
    }, 
    {
      "op": "SliceChannel", 
      "name": "encoder_birnn_forward_l0_t38_slice", 
      "attrs": {"num_outputs": "4"}, 
      "inputs": [[561, 0, 0]]
    }, 
    {
      "op": "Activation", 
      "name": "encoder_birnn_forward_l0_t38_o", 
      "attrs": {"act_type": "sigmoid"}, 
      "inputs": [[562, 3, 0]]
    }, 
    {
      "op": "Activation", 
      "name": "encoder_birnn_forward_l0_t38_f", 
      "attrs": {"act_type": "sigmoid"}, 
      "inputs": [[562, 1, 0]]
    }, 
    {
      "op": "elemwise_mul", 
      "name": "_mul76", 
      "inputs": [[564, 0, 0], [555, 0, 0]]
    }, 
    {
      "op": "Activation", 
      "name": "encoder_birnn_forward_l0_t38_i", 
      "attrs": {"act_type": "sigmoid"}, 
      "inputs": [[562, 0, 0]]
    }, 
    {
      "op": "Activation", 
      "name": "encoder_birnn_forward_l0_t38_c", 
      "attrs": {"act_type": "tanh"}, 
      "inputs": [[562, 2, 0]]
    }, 
    {
      "op": "elemwise_mul", 
      "name": "_mul77", 
      "inputs": [[566, 0, 0], [567, 0, 0]]
    }, 
    {
      "op": "elemwise_add", 
      "name": "encoder_birnn_forward_l0_t38_state", 
      "inputs": [[565, 0, 0], [568, 0, 0]]
    }, 
    {
      "op": "Activation", 
      "name": "activation38", 
      "attrs": {"act_type": "tanh"}, 
      "inputs": [[569, 0, 0]]
    }, 
    {
      "op": "elemwise_mul", 
      "name": "encoder_birnn_forward_l0_t38_out", 
      "inputs": [[563, 0, 0], [570, 0, 0]]
    }, 
    {
      "op": "expand_dims", 
      "name": "expand_dims38", 
      "attrs": {"axis": "0"}, 
      "inputs": [[571, 0, 0]]
    }, 
    {
      "op": "FullyConnected", 
      "name": "encoder_birnn_forward_l0_t39_i2h", 
      "attrs": {"num_hidden": "1024"}, 
      "inputs": [[20, 39, 0], [21, 0, 0], [22, 0, 0]]
    }, 
    {
      "op": "FullyConnected", 
      "name": "encoder_birnn_forward_l0_t39_h2h", 
      "attrs": {"num_hidden": "1024"}, 
      "inputs": [[571, 0, 0], [25, 0, 0], [26, 0, 0]]
    }, 
    {
      "op": "elemwise_add", 
      "name": "_plus39", 
      "inputs": [[573, 0, 0], [574, 0, 0]]
    }, 
    {
      "op": "SliceChannel", 
      "name": "encoder_birnn_forward_l0_t39_slice", 
      "attrs": {"num_outputs": "4"}, 
      "inputs": [[575, 0, 0]]
    }, 
    {
      "op": "Activation", 
      "name": "encoder_birnn_forward_l0_t39_o", 
      "attrs": {"act_type": "sigmoid"}, 
      "inputs": [[576, 3, 0]]
    }, 
    {
      "op": "Activation", 
      "name": "encoder_birnn_forward_l0_t39_f", 
      "attrs": {"act_type": "sigmoid"}, 
      "inputs": [[576, 1, 0]]
    }, 
    {
      "op": "elemwise_mul", 
      "name": "_mul78", 
      "inputs": [[578, 0, 0], [569, 0, 0]]
    }, 
    {
      "op": "Activation", 
      "name": "encoder_birnn_forward_l0_t39_i", 
      "attrs": {"act_type": "sigmoid"}, 
      "inputs": [[576, 0, 0]]
    }, 
    {
      "op": "Activation", 
      "name": "encoder_birnn_forward_l0_t39_c", 
      "attrs": {"act_type": "tanh"}, 
      "inputs": [[576, 2, 0]]
    }, 
    {
      "op": "elemwise_mul", 
      "name": "_mul79", 
      "inputs": [[580, 0, 0], [581, 0, 0]]
    }, 
    {
      "op": "elemwise_add", 
      "name": "encoder_birnn_forward_l0_t39_state", 
      "inputs": [[579, 0, 0], [582, 0, 0]]
    }, 
    {
      "op": "Activation", 
      "name": "activation39", 
      "attrs": {"act_type": "tanh"}, 
      "inputs": [[583, 0, 0]]
    }, 
    {
      "op": "elemwise_mul", 
      "name": "encoder_birnn_forward_l0_t39_out", 
      "inputs": [[577, 0, 0], [584, 0, 0]]
    }, 
    {
      "op": "expand_dims", 
      "name": "expand_dims39", 
      "attrs": {"axis": "0"}, 
      "inputs": [[585, 0, 0]]
    }, 
    {
      "op": "FullyConnected", 
      "name": "encoder_birnn_forward_l0_t40_i2h", 
      "attrs": {"num_hidden": "1024"}, 
      "inputs": [[20, 40, 0], [21, 0, 0], [22, 0, 0]]
    }, 
    {
      "op": "FullyConnected", 
      "name": "encoder_birnn_forward_l0_t40_h2h", 
      "attrs": {"num_hidden": "1024"}, 
      "inputs": [[585, 0, 0], [25, 0, 0], [26, 0, 0]]
    }, 
    {
      "op": "elemwise_add", 
      "name": "_plus40", 
      "inputs": [[587, 0, 0], [588, 0, 0]]
    }, 
    {
      "op": "SliceChannel", 
      "name": "encoder_birnn_forward_l0_t40_slice", 
      "attrs": {"num_outputs": "4"}, 
      "inputs": [[589, 0, 0]]
    }, 
    {
      "op": "Activation", 
      "name": "encoder_birnn_forward_l0_t40_o", 
      "attrs": {"act_type": "sigmoid"}, 
      "inputs": [[590, 3, 0]]
    }, 
    {
      "op": "Activation", 
      "name": "encoder_birnn_forward_l0_t40_f", 
      "attrs": {"act_type": "sigmoid"}, 
      "inputs": [[590, 1, 0]]
    }, 
    {
      "op": "elemwise_mul", 
      "name": "_mul80", 
      "inputs": [[592, 0, 0], [583, 0, 0]]
    }, 
    {
      "op": "Activation", 
      "name": "encoder_birnn_forward_l0_t40_i", 
      "attrs": {"act_type": "sigmoid"}, 
      "inputs": [[590, 0, 0]]
    }, 
    {
      "op": "Activation", 
      "name": "encoder_birnn_forward_l0_t40_c", 
      "attrs": {"act_type": "tanh"}, 
      "inputs": [[590, 2, 0]]
    }, 
    {
      "op": "elemwise_mul", 
      "name": "_mul81", 
      "inputs": [[594, 0, 0], [595, 0, 0]]
    }, 
    {
      "op": "elemwise_add", 
      "name": "encoder_birnn_forward_l0_t40_state", 
      "inputs": [[593, 0, 0], [596, 0, 0]]
    }, 
    {
      "op": "Activation", 
      "name": "activation40", 
      "attrs": {"act_type": "tanh"}, 
      "inputs": [[597, 0, 0]]
    }, 
    {
      "op": "elemwise_mul", 
      "name": "encoder_birnn_forward_l0_t40_out", 
      "inputs": [[591, 0, 0], [598, 0, 0]]
    }, 
    {
      "op": "expand_dims", 
      "name": "expand_dims40", 
      "attrs": {"axis": "0"}, 
      "inputs": [[599, 0, 0]]
    }, 
    {
      "op": "FullyConnected", 
      "name": "encoder_birnn_forward_l0_t41_i2h", 
      "attrs": {"num_hidden": "1024"}, 
      "inputs": [[20, 41, 0], [21, 0, 0], [22, 0, 0]]
    }, 
    {
      "op": "FullyConnected", 
      "name": "encoder_birnn_forward_l0_t41_h2h", 
      "attrs": {"num_hidden": "1024"}, 
      "inputs": [[599, 0, 0], [25, 0, 0], [26, 0, 0]]
    }, 
    {
      "op": "elemwise_add", 
      "name": "_plus41", 
      "inputs": [[601, 0, 0], [602, 0, 0]]
    }, 
    {
      "op": "SliceChannel", 
      "name": "encoder_birnn_forward_l0_t41_slice", 
      "attrs": {"num_outputs": "4"}, 
      "inputs": [[603, 0, 0]]
    }, 
    {
      "op": "Activation", 
      "name": "encoder_birnn_forward_l0_t41_o", 
      "attrs": {"act_type": "sigmoid"}, 
      "inputs": [[604, 3, 0]]
    }, 
    {
      "op": "Activation", 
      "name": "encoder_birnn_forward_l0_t41_f", 
      "attrs": {"act_type": "sigmoid"}, 
      "inputs": [[604, 1, 0]]
    }, 
    {
      "op": "elemwise_mul", 
      "name": "_mul82", 
      "inputs": [[606, 0, 0], [597, 0, 0]]
    }, 
    {
      "op": "Activation", 
      "name": "encoder_birnn_forward_l0_t41_i", 
      "attrs": {"act_type": "sigmoid"}, 
      "inputs": [[604, 0, 0]]
    }, 
    {
      "op": "Activation", 
      "name": "encoder_birnn_forward_l0_t41_c", 
      "attrs": {"act_type": "tanh"}, 
      "inputs": [[604, 2, 0]]
    }, 
    {
      "op": "elemwise_mul", 
      "name": "_mul83", 
      "inputs": [[608, 0, 0], [609, 0, 0]]
    }, 
    {
      "op": "elemwise_add", 
      "name": "encoder_birnn_forward_l0_t41_state", 
      "inputs": [[607, 0, 0], [610, 0, 0]]
    }, 
    {
      "op": "Activation", 
      "name": "activation41", 
      "attrs": {"act_type": "tanh"}, 
      "inputs": [[611, 0, 0]]
    }, 
    {
      "op": "elemwise_mul", 
      "name": "encoder_birnn_forward_l0_t41_out", 
      "inputs": [[605, 0, 0], [612, 0, 0]]
    }, 
    {
      "op": "expand_dims", 
      "name": "expand_dims41", 
      "attrs": {"axis": "0"}, 
      "inputs": [[613, 0, 0]]
    }, 
    {
      "op": "FullyConnected", 
      "name": "encoder_birnn_forward_l0_t42_i2h", 
      "attrs": {"num_hidden": "1024"}, 
      "inputs": [[20, 42, 0], [21, 0, 0], [22, 0, 0]]
    }, 
    {
      "op": "FullyConnected", 
      "name": "encoder_birnn_forward_l0_t42_h2h", 
      "attrs": {"num_hidden": "1024"}, 
      "inputs": [[613, 0, 0], [25, 0, 0], [26, 0, 0]]
    }, 
    {
      "op": "elemwise_add", 
      "name": "_plus42", 
      "inputs": [[615, 0, 0], [616, 0, 0]]
    }, 
    {
      "op": "SliceChannel", 
      "name": "encoder_birnn_forward_l0_t42_slice", 
      "attrs": {"num_outputs": "4"}, 
      "inputs": [[617, 0, 0]]
    }, 
    {
      "op": "Activation", 
      "name": "encoder_birnn_forward_l0_t42_o", 
      "attrs": {"act_type": "sigmoid"}, 
      "inputs": [[618, 3, 0]]
    }, 
    {
      "op": "Activation", 
      "name": "encoder_birnn_forward_l0_t42_f", 
      "attrs": {"act_type": "sigmoid"}, 
      "inputs": [[618, 1, 0]]
    }, 
    {
      "op": "elemwise_mul", 
      "name": "_mul84", 
      "inputs": [[620, 0, 0], [611, 0, 0]]
    }, 
    {
      "op": "Activation", 
      "name": "encoder_birnn_forward_l0_t42_i", 
      "attrs": {"act_type": "sigmoid"}, 
      "inputs": [[618, 0, 0]]
    }, 
    {
      "op": "Activation", 
      "name": "encoder_birnn_forward_l0_t42_c", 
      "attrs": {"act_type": "tanh"}, 
      "inputs": [[618, 2, 0]]
    }, 
    {
      "op": "elemwise_mul", 
      "name": "_mul85", 
      "inputs": [[622, 0, 0], [623, 0, 0]]
    }, 
    {
      "op": "elemwise_add", 
      "name": "encoder_birnn_forward_l0_t42_state", 
      "inputs": [[621, 0, 0], [624, 0, 0]]
    }, 
    {
      "op": "Activation", 
      "name": "activation42", 
      "attrs": {"act_type": "tanh"}, 
      "inputs": [[625, 0, 0]]
    }, 
    {
      "op": "elemwise_mul", 
      "name": "encoder_birnn_forward_l0_t42_out", 
      "inputs": [[619, 0, 0], [626, 0, 0]]
    }, 
    {
      "op": "expand_dims", 
      "name": "expand_dims42", 
      "attrs": {"axis": "0"}, 
      "inputs": [[627, 0, 0]]
    }, 
    {
      "op": "FullyConnected", 
      "name": "encoder_birnn_forward_l0_t43_i2h", 
      "attrs": {"num_hidden": "1024"}, 
      "inputs": [[20, 43, 0], [21, 0, 0], [22, 0, 0]]
    }, 
    {
      "op": "FullyConnected", 
      "name": "encoder_birnn_forward_l0_t43_h2h", 
      "attrs": {"num_hidden": "1024"}, 
      "inputs": [[627, 0, 0], [25, 0, 0], [26, 0, 0]]
    }, 
    {
      "op": "elemwise_add", 
      "name": "_plus43", 
      "inputs": [[629, 0, 0], [630, 0, 0]]
    }, 
    {
      "op": "SliceChannel", 
      "name": "encoder_birnn_forward_l0_t43_slice", 
      "attrs": {"num_outputs": "4"}, 
      "inputs": [[631, 0, 0]]
    }, 
    {
      "op": "Activation", 
      "name": "encoder_birnn_forward_l0_t43_o", 
      "attrs": {"act_type": "sigmoid"}, 
      "inputs": [[632, 3, 0]]
    }, 
    {
      "op": "Activation", 
      "name": "encoder_birnn_forward_l0_t43_f", 
      "attrs": {"act_type": "sigmoid"}, 
      "inputs": [[632, 1, 0]]
    }, 
    {
      "op": "elemwise_mul", 
      "name": "_mul86", 
      "inputs": [[634, 0, 0], [625, 0, 0]]
    }, 
    {
      "op": "Activation", 
      "name": "encoder_birnn_forward_l0_t43_i", 
      "attrs": {"act_type": "sigmoid"}, 
      "inputs": [[632, 0, 0]]
    }, 
    {
      "op": "Activation", 
      "name": "encoder_birnn_forward_l0_t43_c", 
      "attrs": {"act_type": "tanh"}, 
      "inputs": [[632, 2, 0]]
    }, 
    {
      "op": "elemwise_mul", 
      "name": "_mul87", 
      "inputs": [[636, 0, 0], [637, 0, 0]]
    }, 
    {
      "op": "elemwise_add", 
      "name": "encoder_birnn_forward_l0_t43_state", 
      "inputs": [[635, 0, 0], [638, 0, 0]]
    }, 
    {
      "op": "Activation", 
      "name": "activation43", 
      "attrs": {"act_type": "tanh"}, 
      "inputs": [[639, 0, 0]]
    }, 
    {
      "op": "elemwise_mul", 
      "name": "encoder_birnn_forward_l0_t43_out", 
      "inputs": [[633, 0, 0], [640, 0, 0]]
    }, 
    {
      "op": "expand_dims", 
      "name": "expand_dims43", 
      "attrs": {"axis": "0"}, 
      "inputs": [[641, 0, 0]]
    }, 
    {
      "op": "FullyConnected", 
      "name": "encoder_birnn_forward_l0_t44_i2h", 
      "attrs": {"num_hidden": "1024"}, 
      "inputs": [[20, 44, 0], [21, 0, 0], [22, 0, 0]]
    }, 
    {
      "op": "FullyConnected", 
      "name": "encoder_birnn_forward_l0_t44_h2h", 
      "attrs": {"num_hidden": "1024"}, 
      "inputs": [[641, 0, 0], [25, 0, 0], [26, 0, 0]]
    }, 
    {
      "op": "elemwise_add", 
      "name": "_plus44", 
      "inputs": [[643, 0, 0], [644, 0, 0]]
    }, 
    {
      "op": "SliceChannel", 
      "name": "encoder_birnn_forward_l0_t44_slice", 
      "attrs": {"num_outputs": "4"}, 
      "inputs": [[645, 0, 0]]
    }, 
    {
      "op": "Activation", 
      "name": "encoder_birnn_forward_l0_t44_o", 
      "attrs": {"act_type": "sigmoid"}, 
      "inputs": [[646, 3, 0]]
    }, 
    {
      "op": "Activation", 
      "name": "encoder_birnn_forward_l0_t44_f", 
      "attrs": {"act_type": "sigmoid"}, 
      "inputs": [[646, 1, 0]]
    }, 
    {
      "op": "elemwise_mul", 
      "name": "_mul88", 
      "inputs": [[648, 0, 0], [639, 0, 0]]
    }, 
    {
      "op": "Activation", 
      "name": "encoder_birnn_forward_l0_t44_i", 
      "attrs": {"act_type": "sigmoid"}, 
      "inputs": [[646, 0, 0]]
    }, 
    {
      "op": "Activation", 
      "name": "encoder_birnn_forward_l0_t44_c", 
      "attrs": {"act_type": "tanh"}, 
      "inputs": [[646, 2, 0]]
    }, 
    {
      "op": "elemwise_mul", 
      "name": "_mul89", 
      "inputs": [[650, 0, 0], [651, 0, 0]]
    }, 
    {
      "op": "elemwise_add", 
      "name": "encoder_birnn_forward_l0_t44_state", 
      "inputs": [[649, 0, 0], [652, 0, 0]]
    }, 
    {
      "op": "Activation", 
      "name": "activation44", 
      "attrs": {"act_type": "tanh"}, 
      "inputs": [[653, 0, 0]]
    }, 
    {
      "op": "elemwise_mul", 
      "name": "encoder_birnn_forward_l0_t44_out", 
      "inputs": [[647, 0, 0], [654, 0, 0]]
    }, 
    {
      "op": "expand_dims", 
      "name": "expand_dims44", 
      "attrs": {"axis": "0"}, 
      "inputs": [[655, 0, 0]]
    }, 
    {
      "op": "FullyConnected", 
      "name": "encoder_birnn_forward_l0_t45_i2h", 
      "attrs": {"num_hidden": "1024"}, 
      "inputs": [[20, 45, 0], [21, 0, 0], [22, 0, 0]]
    }, 
    {
      "op": "FullyConnected", 
      "name": "encoder_birnn_forward_l0_t45_h2h", 
      "attrs": {"num_hidden": "1024"}, 
      "inputs": [[655, 0, 0], [25, 0, 0], [26, 0, 0]]
    }, 
    {
      "op": "elemwise_add", 
      "name": "_plus45", 
      "inputs": [[657, 0, 0], [658, 0, 0]]
    }, 
    {
      "op": "SliceChannel", 
      "name": "encoder_birnn_forward_l0_t45_slice", 
      "attrs": {"num_outputs": "4"}, 
      "inputs": [[659, 0, 0]]
    }, 
    {
      "op": "Activation", 
      "name": "encoder_birnn_forward_l0_t45_o", 
      "attrs": {"act_type": "sigmoid"}, 
      "inputs": [[660, 3, 0]]
    }, 
    {
      "op": "Activation", 
      "name": "encoder_birnn_forward_l0_t45_f", 
      "attrs": {"act_type": "sigmoid"}, 
      "inputs": [[660, 1, 0]]
    }, 
    {
      "op": "elemwise_mul", 
      "name": "_mul90", 
      "inputs": [[662, 0, 0], [653, 0, 0]]
    }, 
    {
      "op": "Activation", 
      "name": "encoder_birnn_forward_l0_t45_i", 
      "attrs": {"act_type": "sigmoid"}, 
      "inputs": [[660, 0, 0]]
    }, 
    {
      "op": "Activation", 
      "name": "encoder_birnn_forward_l0_t45_c", 
      "attrs": {"act_type": "tanh"}, 
      "inputs": [[660, 2, 0]]
    }, 
    {
      "op": "elemwise_mul", 
      "name": "_mul91", 
      "inputs": [[664, 0, 0], [665, 0, 0]]
    }, 
    {
      "op": "elemwise_add", 
      "name": "encoder_birnn_forward_l0_t45_state", 
      "inputs": [[663, 0, 0], [666, 0, 0]]
    }, 
    {
      "op": "Activation", 
      "name": "activation45", 
      "attrs": {"act_type": "tanh"}, 
      "inputs": [[667, 0, 0]]
    }, 
    {
      "op": "elemwise_mul", 
      "name": "encoder_birnn_forward_l0_t45_out", 
      "inputs": [[661, 0, 0], [668, 0, 0]]
    }, 
    {
      "op": "expand_dims", 
      "name": "expand_dims45", 
      "attrs": {"axis": "0"}, 
      "inputs": [[669, 0, 0]]
    }, 
    {
      "op": "FullyConnected", 
      "name": "encoder_birnn_forward_l0_t46_i2h", 
      "attrs": {"num_hidden": "1024"}, 
      "inputs": [[20, 46, 0], [21, 0, 0], [22, 0, 0]]
    }, 
    {
      "op": "FullyConnected", 
      "name": "encoder_birnn_forward_l0_t46_h2h", 
      "attrs": {"num_hidden": "1024"}, 
      "inputs": [[669, 0, 0], [25, 0, 0], [26, 0, 0]]
    }, 
    {
      "op": "elemwise_add", 
      "name": "_plus46", 
      "inputs": [[671, 0, 0], [672, 0, 0]]
    }, 
    {
      "op": "SliceChannel", 
      "name": "encoder_birnn_forward_l0_t46_slice", 
      "attrs": {"num_outputs": "4"}, 
      "inputs": [[673, 0, 0]]
    }, 
    {
      "op": "Activation", 
      "name": "encoder_birnn_forward_l0_t46_o", 
      "attrs": {"act_type": "sigmoid"}, 
      "inputs": [[674, 3, 0]]
    }, 
    {
      "op": "Activation", 
      "name": "encoder_birnn_forward_l0_t46_f", 
      "attrs": {"act_type": "sigmoid"}, 
      "inputs": [[674, 1, 0]]
    }, 
    {
      "op": "elemwise_mul", 
      "name": "_mul92", 
      "inputs": [[676, 0, 0], [667, 0, 0]]
    }, 
    {
      "op": "Activation", 
      "name": "encoder_birnn_forward_l0_t46_i", 
      "attrs": {"act_type": "sigmoid"}, 
      "inputs": [[674, 0, 0]]
    }, 
    {
      "op": "Activation", 
      "name": "encoder_birnn_forward_l0_t46_c", 
      "attrs": {"act_type": "tanh"}, 
      "inputs": [[674, 2, 0]]
    }, 
    {
      "op": "elemwise_mul", 
      "name": "_mul93", 
      "inputs": [[678, 0, 0], [679, 0, 0]]
    }, 
    {
      "op": "elemwise_add", 
      "name": "encoder_birnn_forward_l0_t46_state", 
      "inputs": [[677, 0, 0], [680, 0, 0]]
    }, 
    {
      "op": "Activation", 
      "name": "activation46", 
      "attrs": {"act_type": "tanh"}, 
      "inputs": [[681, 0, 0]]
    }, 
    {
      "op": "elemwise_mul", 
      "name": "encoder_birnn_forward_l0_t46_out", 
      "inputs": [[675, 0, 0], [682, 0, 0]]
    }, 
    {
      "op": "expand_dims", 
      "name": "expand_dims46", 
      "attrs": {"axis": "0"}, 
      "inputs": [[683, 0, 0]]
    }, 
    {
      "op": "FullyConnected", 
      "name": "encoder_birnn_forward_l0_t47_i2h", 
      "attrs": {"num_hidden": "1024"}, 
      "inputs": [[20, 47, 0], [21, 0, 0], [22, 0, 0]]
    }, 
    {
      "op": "FullyConnected", 
      "name": "encoder_birnn_forward_l0_t47_h2h", 
      "attrs": {"num_hidden": "1024"}, 
      "inputs": [[683, 0, 0], [25, 0, 0], [26, 0, 0]]
    }, 
    {
      "op": "elemwise_add", 
      "name": "_plus47", 
      "inputs": [[685, 0, 0], [686, 0, 0]]
    }, 
    {
      "op": "SliceChannel", 
      "name": "encoder_birnn_forward_l0_t47_slice", 
      "attrs": {"num_outputs": "4"}, 
      "inputs": [[687, 0, 0]]
    }, 
    {
      "op": "Activation", 
      "name": "encoder_birnn_forward_l0_t47_o", 
      "attrs": {"act_type": "sigmoid"}, 
      "inputs": [[688, 3, 0]]
    }, 
    {
      "op": "Activation", 
      "name": "encoder_birnn_forward_l0_t47_f", 
      "attrs": {"act_type": "sigmoid"}, 
      "inputs": [[688, 1, 0]]
    }, 
    {
      "op": "elemwise_mul", 
      "name": "_mul94", 
      "inputs": [[690, 0, 0], [681, 0, 0]]
    }, 
    {
      "op": "Activation", 
      "name": "encoder_birnn_forward_l0_t47_i", 
      "attrs": {"act_type": "sigmoid"}, 
      "inputs": [[688, 0, 0]]
    }, 
    {
      "op": "Activation", 
      "name": "encoder_birnn_forward_l0_t47_c", 
      "attrs": {"act_type": "tanh"}, 
      "inputs": [[688, 2, 0]]
    }, 
    {
      "op": "elemwise_mul", 
      "name": "_mul95", 
      "inputs": [[692, 0, 0], [693, 0, 0]]
    }, 
    {
      "op": "elemwise_add", 
      "name": "encoder_birnn_forward_l0_t47_state", 
      "inputs": [[691, 0, 0], [694, 0, 0]]
    }, 
    {
      "op": "Activation", 
      "name": "activation47", 
      "attrs": {"act_type": "tanh"}, 
      "inputs": [[695, 0, 0]]
    }, 
    {
      "op": "elemwise_mul", 
      "name": "encoder_birnn_forward_l0_t47_out", 
      "inputs": [[689, 0, 0], [696, 0, 0]]
    }, 
    {
      "op": "expand_dims", 
      "name": "expand_dims47", 
      "attrs": {"axis": "0"}, 
      "inputs": [[697, 0, 0]]
    }, 
    {
      "op": "FullyConnected", 
      "name": "encoder_birnn_forward_l0_t48_i2h", 
      "attrs": {"num_hidden": "1024"}, 
      "inputs": [[20, 48, 0], [21, 0, 0], [22, 0, 0]]
    }, 
    {
      "op": "FullyConnected", 
      "name": "encoder_birnn_forward_l0_t48_h2h", 
      "attrs": {"num_hidden": "1024"}, 
      "inputs": [[697, 0, 0], [25, 0, 0], [26, 0, 0]]
    }, 
    {
      "op": "elemwise_add", 
      "name": "_plus48", 
      "inputs": [[699, 0, 0], [700, 0, 0]]
    }, 
    {
      "op": "SliceChannel", 
      "name": "encoder_birnn_forward_l0_t48_slice", 
      "attrs": {"num_outputs": "4"}, 
      "inputs": [[701, 0, 0]]
    }, 
    {
      "op": "Activation", 
      "name": "encoder_birnn_forward_l0_t48_o", 
      "attrs": {"act_type": "sigmoid"}, 
      "inputs": [[702, 3, 0]]
    }, 
    {
      "op": "Activation", 
      "name": "encoder_birnn_forward_l0_t48_f", 
      "attrs": {"act_type": "sigmoid"}, 
      "inputs": [[702, 1, 0]]
    }, 
    {
      "op": "elemwise_mul", 
      "name": "_mul96", 
      "inputs": [[704, 0, 0], [695, 0, 0]]
    }, 
    {
      "op": "Activation", 
      "name": "encoder_birnn_forward_l0_t48_i", 
      "attrs": {"act_type": "sigmoid"}, 
      "inputs": [[702, 0, 0]]
    }, 
    {
      "op": "Activation", 
      "name": "encoder_birnn_forward_l0_t48_c", 
      "attrs": {"act_type": "tanh"}, 
      "inputs": [[702, 2, 0]]
    }, 
    {
      "op": "elemwise_mul", 
      "name": "_mul97", 
      "inputs": [[706, 0, 0], [707, 0, 0]]
    }, 
    {
      "op": "elemwise_add", 
      "name": "encoder_birnn_forward_l0_t48_state", 
      "inputs": [[705, 0, 0], [708, 0, 0]]
    }, 
    {
      "op": "Activation", 
      "name": "activation48", 
      "attrs": {"act_type": "tanh"}, 
      "inputs": [[709, 0, 0]]
    }, 
    {
      "op": "elemwise_mul", 
      "name": "encoder_birnn_forward_l0_t48_out", 
      "inputs": [[703, 0, 0], [710, 0, 0]]
    }, 
    {
      "op": "expand_dims", 
      "name": "expand_dims48", 
      "attrs": {"axis": "0"}, 
      "inputs": [[711, 0, 0]]
    }, 
    {
      "op": "FullyConnected", 
      "name": "encoder_birnn_forward_l0_t49_i2h", 
      "attrs": {"num_hidden": "1024"}, 
      "inputs": [[20, 49, 0], [21, 0, 0], [22, 0, 0]]
    }, 
    {
      "op": "FullyConnected", 
      "name": "encoder_birnn_forward_l0_t49_h2h", 
      "attrs": {"num_hidden": "1024"}, 
      "inputs": [[711, 0, 0], [25, 0, 0], [26, 0, 0]]
    }, 
    {
      "op": "elemwise_add", 
      "name": "_plus49", 
      "inputs": [[713, 0, 0], [714, 0, 0]]
    }, 
    {
      "op": "SliceChannel", 
      "name": "encoder_birnn_forward_l0_t49_slice", 
      "attrs": {"num_outputs": "4"}, 
      "inputs": [[715, 0, 0]]
    }, 
    {
      "op": "Activation", 
      "name": "encoder_birnn_forward_l0_t49_o", 
      "attrs": {"act_type": "sigmoid"}, 
      "inputs": [[716, 3, 0]]
    }, 
    {
      "op": "Activation", 
      "name": "encoder_birnn_forward_l0_t49_f", 
      "attrs": {"act_type": "sigmoid"}, 
      "inputs": [[716, 1, 0]]
    }, 
    {
      "op": "elemwise_mul", 
      "name": "_mul98", 
      "inputs": [[718, 0, 0], [709, 0, 0]]
    }, 
    {
      "op": "Activation", 
      "name": "encoder_birnn_forward_l0_t49_i", 
      "attrs": {"act_type": "sigmoid"}, 
      "inputs": [[716, 0, 0]]
    }, 
    {
      "op": "Activation", 
      "name": "encoder_birnn_forward_l0_t49_c", 
      "attrs": {"act_type": "tanh"}, 
      "inputs": [[716, 2, 0]]
    }, 
    {
      "op": "elemwise_mul", 
      "name": "_mul99", 
      "inputs": [[720, 0, 0], [721, 0, 0]]
    }, 
    {
      "op": "elemwise_add", 
      "name": "encoder_birnn_forward_l0_t49_state", 
      "inputs": [[719, 0, 0], [722, 0, 0]]
    }, 
    {
      "op": "Activation", 
      "name": "activation49", 
      "attrs": {"act_type": "tanh"}, 
      "inputs": [[723, 0, 0]]
    }, 
    {
      "op": "elemwise_mul", 
      "name": "encoder_birnn_forward_l0_t49_out", 
      "inputs": [[717, 0, 0], [724, 0, 0]]
    }, 
    {
      "op": "expand_dims", 
      "name": "expand_dims49", 
      "attrs": {"axis": "0"}, 
      "inputs": [[725, 0, 0]]
    }, 
    {
      "op": "FullyConnected", 
      "name": "encoder_birnn_forward_l0_t50_i2h", 
      "attrs": {"num_hidden": "1024"}, 
      "inputs": [[20, 50, 0], [21, 0, 0], [22, 0, 0]]
    }, 
    {
      "op": "FullyConnected", 
      "name": "encoder_birnn_forward_l0_t50_h2h", 
      "attrs": {"num_hidden": "1024"}, 
      "inputs": [[725, 0, 0], [25, 0, 0], [26, 0, 0]]
    }, 
    {
      "op": "elemwise_add", 
      "name": "_plus50", 
      "inputs": [[727, 0, 0], [728, 0, 0]]
    }, 
    {
      "op": "SliceChannel", 
      "name": "encoder_birnn_forward_l0_t50_slice", 
      "attrs": {"num_outputs": "4"}, 
      "inputs": [[729, 0, 0]]
    }, 
    {
      "op": "Activation", 
      "name": "encoder_birnn_forward_l0_t50_o", 
      "attrs": {"act_type": "sigmoid"}, 
      "inputs": [[730, 3, 0]]
    }, 
    {
      "op": "Activation", 
      "name": "encoder_birnn_forward_l0_t50_f", 
      "attrs": {"act_type": "sigmoid"}, 
      "inputs": [[730, 1, 0]]
    }, 
    {
      "op": "elemwise_mul", 
      "name": "_mul100", 
      "inputs": [[732, 0, 0], [723, 0, 0]]
    }, 
    {
      "op": "Activation", 
      "name": "encoder_birnn_forward_l0_t50_i", 
      "attrs": {"act_type": "sigmoid"}, 
      "inputs": [[730, 0, 0]]
    }, 
    {
      "op": "Activation", 
      "name": "encoder_birnn_forward_l0_t50_c", 
      "attrs": {"act_type": "tanh"}, 
      "inputs": [[730, 2, 0]]
    }, 
    {
      "op": "elemwise_mul", 
      "name": "_mul101", 
      "inputs": [[734, 0, 0], [735, 0, 0]]
    }, 
    {
      "op": "elemwise_add", 
      "name": "encoder_birnn_forward_l0_t50_state", 
      "inputs": [[733, 0, 0], [736, 0, 0]]
    }, 
    {
      "op": "Activation", 
      "name": "activation50", 
      "attrs": {"act_type": "tanh"}, 
      "inputs": [[737, 0, 0]]
    }, 
    {
      "op": "elemwise_mul", 
      "name": "encoder_birnn_forward_l0_t50_out", 
      "inputs": [[731, 0, 0], [738, 0, 0]]
    }, 
    {
      "op": "expand_dims", 
      "name": "expand_dims50", 
      "attrs": {"axis": "0"}, 
      "inputs": [[739, 0, 0]]
    }, 
    {
      "op": "FullyConnected", 
      "name": "encoder_birnn_forward_l0_t51_i2h", 
      "attrs": {"num_hidden": "1024"}, 
      "inputs": [[20, 51, 0], [21, 0, 0], [22, 0, 0]]
    }, 
    {
      "op": "FullyConnected", 
      "name": "encoder_birnn_forward_l0_t51_h2h", 
      "attrs": {"num_hidden": "1024"}, 
      "inputs": [[739, 0, 0], [25, 0, 0], [26, 0, 0]]
    }, 
    {
      "op": "elemwise_add", 
      "name": "_plus51", 
      "inputs": [[741, 0, 0], [742, 0, 0]]
    }, 
    {
      "op": "SliceChannel", 
      "name": "encoder_birnn_forward_l0_t51_slice", 
      "attrs": {"num_outputs": "4"}, 
      "inputs": [[743, 0, 0]]
    }, 
    {
      "op": "Activation", 
      "name": "encoder_birnn_forward_l0_t51_o", 
      "attrs": {"act_type": "sigmoid"}, 
      "inputs": [[744, 3, 0]]
    }, 
    {
      "op": "Activation", 
      "name": "encoder_birnn_forward_l0_t51_f", 
      "attrs": {"act_type": "sigmoid"}, 
      "inputs": [[744, 1, 0]]
    }, 
    {
      "op": "elemwise_mul", 
      "name": "_mul102", 
      "inputs": [[746, 0, 0], [737, 0, 0]]
    }, 
    {
      "op": "Activation", 
      "name": "encoder_birnn_forward_l0_t51_i", 
      "attrs": {"act_type": "sigmoid"}, 
      "inputs": [[744, 0, 0]]
    }, 
    {
      "op": "Activation", 
      "name": "encoder_birnn_forward_l0_t51_c", 
      "attrs": {"act_type": "tanh"}, 
      "inputs": [[744, 2, 0]]
    }, 
    {
      "op": "elemwise_mul", 
      "name": "_mul103", 
      "inputs": [[748, 0, 0], [749, 0, 0]]
    }, 
    {
      "op": "elemwise_add", 
      "name": "encoder_birnn_forward_l0_t51_state", 
      "inputs": [[747, 0, 0], [750, 0, 0]]
    }, 
    {
      "op": "Activation", 
      "name": "activation51", 
      "attrs": {"act_type": "tanh"}, 
      "inputs": [[751, 0, 0]]
    }, 
    {
      "op": "elemwise_mul", 
      "name": "encoder_birnn_forward_l0_t51_out", 
      "inputs": [[745, 0, 0], [752, 0, 0]]
    }, 
    {
      "op": "expand_dims", 
      "name": "expand_dims51", 
      "attrs": {"axis": "0"}, 
      "inputs": [[753, 0, 0]]
    }, 
    {
      "op": "FullyConnected", 
      "name": "encoder_birnn_forward_l0_t52_i2h", 
      "attrs": {"num_hidden": "1024"}, 
      "inputs": [[20, 52, 0], [21, 0, 0], [22, 0, 0]]
    }, 
    {
      "op": "FullyConnected", 
      "name": "encoder_birnn_forward_l0_t52_h2h", 
      "attrs": {"num_hidden": "1024"}, 
      "inputs": [[753, 0, 0], [25, 0, 0], [26, 0, 0]]
    }, 
    {
      "op": "elemwise_add", 
      "name": "_plus52", 
      "inputs": [[755, 0, 0], [756, 0, 0]]
    }, 
    {
      "op": "SliceChannel", 
      "name": "encoder_birnn_forward_l0_t52_slice", 
      "attrs": {"num_outputs": "4"}, 
      "inputs": [[757, 0, 0]]
    }, 
    {
      "op": "Activation", 
      "name": "encoder_birnn_forward_l0_t52_o", 
      "attrs": {"act_type": "sigmoid"}, 
      "inputs": [[758, 3, 0]]
    }, 
    {
      "op": "Activation", 
      "name": "encoder_birnn_forward_l0_t52_f", 
      "attrs": {"act_type": "sigmoid"}, 
      "inputs": [[758, 1, 0]]
    }, 
    {
      "op": "elemwise_mul", 
      "name": "_mul104", 
      "inputs": [[760, 0, 0], [751, 0, 0]]
    }, 
    {
      "op": "Activation", 
      "name": "encoder_birnn_forward_l0_t52_i", 
      "attrs": {"act_type": "sigmoid"}, 
      "inputs": [[758, 0, 0]]
    }, 
    {
      "op": "Activation", 
      "name": "encoder_birnn_forward_l0_t52_c", 
      "attrs": {"act_type": "tanh"}, 
      "inputs": [[758, 2, 0]]
    }, 
    {
      "op": "elemwise_mul", 
      "name": "_mul105", 
      "inputs": [[762, 0, 0], [763, 0, 0]]
    }, 
    {
      "op": "elemwise_add", 
      "name": "encoder_birnn_forward_l0_t52_state", 
      "inputs": [[761, 0, 0], [764, 0, 0]]
    }, 
    {
      "op": "Activation", 
      "name": "activation52", 
      "attrs": {"act_type": "tanh"}, 
      "inputs": [[765, 0, 0]]
    }, 
    {
      "op": "elemwise_mul", 
      "name": "encoder_birnn_forward_l0_t52_out", 
      "inputs": [[759, 0, 0], [766, 0, 0]]
    }, 
    {
      "op": "expand_dims", 
      "name": "expand_dims52", 
      "attrs": {"axis": "0"}, 
      "inputs": [[767, 0, 0]]
    }, 
    {
      "op": "FullyConnected", 
      "name": "encoder_birnn_forward_l0_t53_i2h", 
      "attrs": {"num_hidden": "1024"}, 
      "inputs": [[20, 53, 0], [21, 0, 0], [22, 0, 0]]
    }, 
    {
      "op": "FullyConnected", 
      "name": "encoder_birnn_forward_l0_t53_h2h", 
      "attrs": {"num_hidden": "1024"}, 
      "inputs": [[767, 0, 0], [25, 0, 0], [26, 0, 0]]
    }, 
    {
      "op": "elemwise_add", 
      "name": "_plus53", 
      "inputs": [[769, 0, 0], [770, 0, 0]]
    }, 
    {
      "op": "SliceChannel", 
      "name": "encoder_birnn_forward_l0_t53_slice", 
      "attrs": {"num_outputs": "4"}, 
      "inputs": [[771, 0, 0]]
    }, 
    {
      "op": "Activation", 
      "name": "encoder_birnn_forward_l0_t53_o", 
      "attrs": {"act_type": "sigmoid"}, 
      "inputs": [[772, 3, 0]]
    }, 
    {
      "op": "Activation", 
      "name": "encoder_birnn_forward_l0_t53_f", 
      "attrs": {"act_type": "sigmoid"}, 
      "inputs": [[772, 1, 0]]
    }, 
    {
      "op": "elemwise_mul", 
      "name": "_mul106", 
      "inputs": [[774, 0, 0], [765, 0, 0]]
    }, 
    {
      "op": "Activation", 
      "name": "encoder_birnn_forward_l0_t53_i", 
      "attrs": {"act_type": "sigmoid"}, 
      "inputs": [[772, 0, 0]]
    }, 
    {
      "op": "Activation", 
      "name": "encoder_birnn_forward_l0_t53_c", 
      "attrs": {"act_type": "tanh"}, 
      "inputs": [[772, 2, 0]]
    }, 
    {
      "op": "elemwise_mul", 
      "name": "_mul107", 
      "inputs": [[776, 0, 0], [777, 0, 0]]
    }, 
    {
      "op": "elemwise_add", 
      "name": "encoder_birnn_forward_l0_t53_state", 
      "inputs": [[775, 0, 0], [778, 0, 0]]
    }, 
    {
      "op": "Activation", 
      "name": "activation53", 
      "attrs": {"act_type": "tanh"}, 
      "inputs": [[779, 0, 0]]
    }, 
    {
      "op": "elemwise_mul", 
      "name": "encoder_birnn_forward_l0_t53_out", 
      "inputs": [[773, 0, 0], [780, 0, 0]]
    }, 
    {
      "op": "expand_dims", 
      "name": "expand_dims53", 
      "attrs": {"axis": "0"}, 
      "inputs": [[781, 0, 0]]
    }, 
    {
      "op": "FullyConnected", 
      "name": "encoder_birnn_forward_l0_t54_i2h", 
      "attrs": {"num_hidden": "1024"}, 
      "inputs": [[20, 54, 0], [21, 0, 0], [22, 0, 0]]
    }, 
    {
      "op": "FullyConnected", 
      "name": "encoder_birnn_forward_l0_t54_h2h", 
      "attrs": {"num_hidden": "1024"}, 
      "inputs": [[781, 0, 0], [25, 0, 0], [26, 0, 0]]
    }, 
    {
      "op": "elemwise_add", 
      "name": "_plus54", 
      "inputs": [[783, 0, 0], [784, 0, 0]]
    }, 
    {
      "op": "SliceChannel", 
      "name": "encoder_birnn_forward_l0_t54_slice", 
      "attrs": {"num_outputs": "4"}, 
      "inputs": [[785, 0, 0]]
    }, 
    {
      "op": "Activation", 
      "name": "encoder_birnn_forward_l0_t54_o", 
      "attrs": {"act_type": "sigmoid"}, 
      "inputs": [[786, 3, 0]]
    }, 
    {
      "op": "Activation", 
      "name": "encoder_birnn_forward_l0_t54_f", 
      "attrs": {"act_type": "sigmoid"}, 
      "inputs": [[786, 1, 0]]
    }, 
    {
      "op": "elemwise_mul", 
      "name": "_mul108", 
      "inputs": [[788, 0, 0], [779, 0, 0]]
    }, 
    {
      "op": "Activation", 
      "name": "encoder_birnn_forward_l0_t54_i", 
      "attrs": {"act_type": "sigmoid"}, 
      "inputs": [[786, 0, 0]]
    }, 
    {
      "op": "Activation", 
      "name": "encoder_birnn_forward_l0_t54_c", 
      "attrs": {"act_type": "tanh"}, 
      "inputs": [[786, 2, 0]]
    }, 
    {
      "op": "elemwise_mul", 
      "name": "_mul109", 
      "inputs": [[790, 0, 0], [791, 0, 0]]
    }, 
    {
      "op": "elemwise_add", 
      "name": "encoder_birnn_forward_l0_t54_state", 
      "inputs": [[789, 0, 0], [792, 0, 0]]
    }, 
    {
      "op": "Activation", 
      "name": "activation54", 
      "attrs": {"act_type": "tanh"}, 
      "inputs": [[793, 0, 0]]
    }, 
    {
      "op": "elemwise_mul", 
      "name": "encoder_birnn_forward_l0_t54_out", 
      "inputs": [[787, 0, 0], [794, 0, 0]]
    }, 
    {
      "op": "expand_dims", 
      "name": "expand_dims54", 
      "attrs": {"axis": "0"}, 
      "inputs": [[795, 0, 0]]
    }, 
    {
      "op": "FullyConnected", 
      "name": "encoder_birnn_forward_l0_t55_i2h", 
      "attrs": {"num_hidden": "1024"}, 
      "inputs": [[20, 55, 0], [21, 0, 0], [22, 0, 0]]
    }, 
    {
      "op": "FullyConnected", 
      "name": "encoder_birnn_forward_l0_t55_h2h", 
      "attrs": {"num_hidden": "1024"}, 
      "inputs": [[795, 0, 0], [25, 0, 0], [26, 0, 0]]
    }, 
    {
      "op": "elemwise_add", 
      "name": "_plus55", 
      "inputs": [[797, 0, 0], [798, 0, 0]]
    }, 
    {
      "op": "SliceChannel", 
      "name": "encoder_birnn_forward_l0_t55_slice", 
      "attrs": {"num_outputs": "4"}, 
      "inputs": [[799, 0, 0]]
    }, 
    {
      "op": "Activation", 
      "name": "encoder_birnn_forward_l0_t55_o", 
      "attrs": {"act_type": "sigmoid"}, 
      "inputs": [[800, 3, 0]]
    }, 
    {
      "op": "Activation", 
      "name": "encoder_birnn_forward_l0_t55_f", 
      "attrs": {"act_type": "sigmoid"}, 
      "inputs": [[800, 1, 0]]
    }, 
    {
      "op": "elemwise_mul", 
      "name": "_mul110", 
      "inputs": [[802, 0, 0], [793, 0, 0]]
    }, 
    {
      "op": "Activation", 
      "name": "encoder_birnn_forward_l0_t55_i", 
      "attrs": {"act_type": "sigmoid"}, 
      "inputs": [[800, 0, 0]]
    }, 
    {
      "op": "Activation", 
      "name": "encoder_birnn_forward_l0_t55_c", 
      "attrs": {"act_type": "tanh"}, 
      "inputs": [[800, 2, 0]]
    }, 
    {
      "op": "elemwise_mul", 
      "name": "_mul111", 
      "inputs": [[804, 0, 0], [805, 0, 0]]
    }, 
    {
      "op": "elemwise_add", 
      "name": "encoder_birnn_forward_l0_t55_state", 
      "inputs": [[803, 0, 0], [806, 0, 0]]
    }, 
    {
      "op": "Activation", 
      "name": "activation55", 
      "attrs": {"act_type": "tanh"}, 
      "inputs": [[807, 0, 0]]
    }, 
    {
      "op": "elemwise_mul", 
      "name": "encoder_birnn_forward_l0_t55_out", 
      "inputs": [[801, 0, 0], [808, 0, 0]]
    }, 
    {
      "op": "expand_dims", 
      "name": "expand_dims55", 
      "attrs": {"axis": "0"}, 
      "inputs": [[809, 0, 0]]
    }, 
    {
      "op": "FullyConnected", 
      "name": "encoder_birnn_forward_l0_t56_i2h", 
      "attrs": {"num_hidden": "1024"}, 
      "inputs": [[20, 56, 0], [21, 0, 0], [22, 0, 0]]
    }, 
    {
      "op": "FullyConnected", 
      "name": "encoder_birnn_forward_l0_t56_h2h", 
      "attrs": {"num_hidden": "1024"}, 
      "inputs": [[809, 0, 0], [25, 0, 0], [26, 0, 0]]
    }, 
    {
      "op": "elemwise_add", 
      "name": "_plus56", 
      "inputs": [[811, 0, 0], [812, 0, 0]]
    }, 
    {
      "op": "SliceChannel", 
      "name": "encoder_birnn_forward_l0_t56_slice", 
      "attrs": {"num_outputs": "4"}, 
      "inputs": [[813, 0, 0]]
    }, 
    {
      "op": "Activation", 
      "name": "encoder_birnn_forward_l0_t56_o", 
      "attrs": {"act_type": "sigmoid"}, 
      "inputs": [[814, 3, 0]]
    }, 
    {
      "op": "Activation", 
      "name": "encoder_birnn_forward_l0_t56_f", 
      "attrs": {"act_type": "sigmoid"}, 
      "inputs": [[814, 1, 0]]
    }, 
    {
      "op": "elemwise_mul", 
      "name": "_mul112", 
      "inputs": [[816, 0, 0], [807, 0, 0]]
    }, 
    {
      "op": "Activation", 
      "name": "encoder_birnn_forward_l0_t56_i", 
      "attrs": {"act_type": "sigmoid"}, 
      "inputs": [[814, 0, 0]]
    }, 
    {
      "op": "Activation", 
      "name": "encoder_birnn_forward_l0_t56_c", 
      "attrs": {"act_type": "tanh"}, 
      "inputs": [[814, 2, 0]]
    }, 
    {
      "op": "elemwise_mul", 
      "name": "_mul113", 
      "inputs": [[818, 0, 0], [819, 0, 0]]
    }, 
    {
      "op": "elemwise_add", 
      "name": "encoder_birnn_forward_l0_t56_state", 
      "inputs": [[817, 0, 0], [820, 0, 0]]
    }, 
    {
      "op": "Activation", 
      "name": "activation56", 
      "attrs": {"act_type": "tanh"}, 
      "inputs": [[821, 0, 0]]
    }, 
    {
      "op": "elemwise_mul", 
      "name": "encoder_birnn_forward_l0_t56_out", 
      "inputs": [[815, 0, 0], [822, 0, 0]]
    }, 
    {
      "op": "expand_dims", 
      "name": "expand_dims56", 
      "attrs": {"axis": "0"}, 
      "inputs": [[823, 0, 0]]
    }, 
    {
      "op": "FullyConnected", 
      "name": "encoder_birnn_forward_l0_t57_i2h", 
      "attrs": {"num_hidden": "1024"}, 
      "inputs": [[20, 57, 0], [21, 0, 0], [22, 0, 0]]
    }, 
    {
      "op": "FullyConnected", 
      "name": "encoder_birnn_forward_l0_t57_h2h", 
      "attrs": {"num_hidden": "1024"}, 
      "inputs": [[823, 0, 0], [25, 0, 0], [26, 0, 0]]
    }, 
    {
      "op": "elemwise_add", 
      "name": "_plus57", 
      "inputs": [[825, 0, 0], [826, 0, 0]]
    }, 
    {
      "op": "SliceChannel", 
      "name": "encoder_birnn_forward_l0_t57_slice", 
      "attrs": {"num_outputs": "4"}, 
      "inputs": [[827, 0, 0]]
    }, 
    {
      "op": "Activation", 
      "name": "encoder_birnn_forward_l0_t57_o", 
      "attrs": {"act_type": "sigmoid"}, 
      "inputs": [[828, 3, 0]]
    }, 
    {
      "op": "Activation", 
      "name": "encoder_birnn_forward_l0_t57_f", 
      "attrs": {"act_type": "sigmoid"}, 
      "inputs": [[828, 1, 0]]
    }, 
    {
      "op": "elemwise_mul", 
      "name": "_mul114", 
      "inputs": [[830, 0, 0], [821, 0, 0]]
    }, 
    {
      "op": "Activation", 
      "name": "encoder_birnn_forward_l0_t57_i", 
      "attrs": {"act_type": "sigmoid"}, 
      "inputs": [[828, 0, 0]]
    }, 
    {
      "op": "Activation", 
      "name": "encoder_birnn_forward_l0_t57_c", 
      "attrs": {"act_type": "tanh"}, 
      "inputs": [[828, 2, 0]]
    }, 
    {
      "op": "elemwise_mul", 
      "name": "_mul115", 
      "inputs": [[832, 0, 0], [833, 0, 0]]
    }, 
    {
      "op": "elemwise_add", 
      "name": "encoder_birnn_forward_l0_t57_state", 
      "inputs": [[831, 0, 0], [834, 0, 0]]
    }, 
    {
      "op": "Activation", 
      "name": "activation57", 
      "attrs": {"act_type": "tanh"}, 
      "inputs": [[835, 0, 0]]
    }, 
    {
      "op": "elemwise_mul", 
      "name": "encoder_birnn_forward_l0_t57_out", 
      "inputs": [[829, 0, 0], [836, 0, 0]]
    }, 
    {
      "op": "expand_dims", 
      "name": "expand_dims57", 
      "attrs": {"axis": "0"}, 
      "inputs": [[837, 0, 0]]
    }, 
    {
      "op": "FullyConnected", 
      "name": "encoder_birnn_forward_l0_t58_i2h", 
      "attrs": {"num_hidden": "1024"}, 
      "inputs": [[20, 58, 0], [21, 0, 0], [22, 0, 0]]
    }, 
    {
      "op": "FullyConnected", 
      "name": "encoder_birnn_forward_l0_t58_h2h", 
      "attrs": {"num_hidden": "1024"}, 
      "inputs": [[837, 0, 0], [25, 0, 0], [26, 0, 0]]
    }, 
    {
      "op": "elemwise_add", 
      "name": "_plus58", 
      "inputs": [[839, 0, 0], [840, 0, 0]]
    }, 
    {
      "op": "SliceChannel", 
      "name": "encoder_birnn_forward_l0_t58_slice", 
      "attrs": {"num_outputs": "4"}, 
      "inputs": [[841, 0, 0]]
    }, 
    {
      "op": "Activation", 
      "name": "encoder_birnn_forward_l0_t58_o", 
      "attrs": {"act_type": "sigmoid"}, 
      "inputs": [[842, 3, 0]]
    }, 
    {
      "op": "Activation", 
      "name": "encoder_birnn_forward_l0_t58_f", 
      "attrs": {"act_type": "sigmoid"}, 
      "inputs": [[842, 1, 0]]
    }, 
    {
      "op": "elemwise_mul", 
      "name": "_mul116", 
      "inputs": [[844, 0, 0], [835, 0, 0]]
    }, 
    {
      "op": "Activation", 
      "name": "encoder_birnn_forward_l0_t58_i", 
      "attrs": {"act_type": "sigmoid"}, 
      "inputs": [[842, 0, 0]]
    }, 
    {
      "op": "Activation", 
      "name": "encoder_birnn_forward_l0_t58_c", 
      "attrs": {"act_type": "tanh"}, 
      "inputs": [[842, 2, 0]]
    }, 
    {
      "op": "elemwise_mul", 
      "name": "_mul117", 
      "inputs": [[846, 0, 0], [847, 0, 0]]
    }, 
    {
      "op": "elemwise_add", 
      "name": "encoder_birnn_forward_l0_t58_state", 
      "inputs": [[845, 0, 0], [848, 0, 0]]
    }, 
    {
      "op": "Activation", 
      "name": "activation58", 
      "attrs": {"act_type": "tanh"}, 
      "inputs": [[849, 0, 0]]
    }, 
    {
      "op": "elemwise_mul", 
      "name": "encoder_birnn_forward_l0_t58_out", 
      "inputs": [[843, 0, 0], [850, 0, 0]]
    }, 
    {
      "op": "expand_dims", 
      "name": "expand_dims58", 
      "attrs": {"axis": "0"}, 
      "inputs": [[851, 0, 0]]
    }, 
    {
      "op": "FullyConnected", 
      "name": "encoder_birnn_forward_l0_t59_i2h", 
      "attrs": {"num_hidden": "1024"}, 
      "inputs": [[20, 59, 0], [21, 0, 0], [22, 0, 0]]
    }, 
    {
      "op": "FullyConnected", 
      "name": "encoder_birnn_forward_l0_t59_h2h", 
      "attrs": {"num_hidden": "1024"}, 
      "inputs": [[851, 0, 0], [25, 0, 0], [26, 0, 0]]
    }, 
    {
      "op": "elemwise_add", 
      "name": "_plus59", 
      "inputs": [[853, 0, 0], [854, 0, 0]]
    }, 
    {
      "op": "SliceChannel", 
      "name": "encoder_birnn_forward_l0_t59_slice", 
      "attrs": {"num_outputs": "4"}, 
      "inputs": [[855, 0, 0]]
    }, 
    {
      "op": "Activation", 
      "name": "encoder_birnn_forward_l0_t59_o", 
      "attrs": {"act_type": "sigmoid"}, 
      "inputs": [[856, 3, 0]]
    }, 
    {
      "op": "Activation", 
      "name": "encoder_birnn_forward_l0_t59_f", 
      "attrs": {"act_type": "sigmoid"}, 
      "inputs": [[856, 1, 0]]
    }, 
    {
      "op": "elemwise_mul", 
      "name": "_mul118", 
      "inputs": [[858, 0, 0], [849, 0, 0]]
    }, 
    {
      "op": "Activation", 
      "name": "encoder_birnn_forward_l0_t59_i", 
      "attrs": {"act_type": "sigmoid"}, 
      "inputs": [[856, 0, 0]]
    }, 
    {
      "op": "Activation", 
      "name": "encoder_birnn_forward_l0_t59_c", 
      "attrs": {"act_type": "tanh"}, 
      "inputs": [[856, 2, 0]]
    }, 
    {
      "op": "elemwise_mul", 
      "name": "_mul119", 
      "inputs": [[860, 0, 0], [861, 0, 0]]
    }, 
    {
      "op": "elemwise_add", 
      "name": "encoder_birnn_forward_l0_t59_state", 
      "inputs": [[859, 0, 0], [862, 0, 0]]
    }, 
    {
      "op": "Activation", 
      "name": "activation59", 
      "attrs": {"act_type": "tanh"}, 
      "inputs": [[863, 0, 0]]
    }, 
    {
      "op": "elemwise_mul", 
      "name": "encoder_birnn_forward_l0_t59_out", 
      "inputs": [[857, 0, 0], [864, 0, 0]]
    }, 
    {
      "op": "expand_dims", 
      "name": "expand_dims59", 
      "attrs": {"axis": "0"}, 
      "inputs": [[865, 0, 0]]
    }, 
    {
      "op": "FullyConnected", 
      "name": "encoder_birnn_forward_l0_t60_i2h", 
      "attrs": {"num_hidden": "1024"}, 
      "inputs": [[20, 60, 0], [21, 0, 0], [22, 0, 0]]
    }, 
    {
      "op": "FullyConnected", 
      "name": "encoder_birnn_forward_l0_t60_h2h", 
      "attrs": {"num_hidden": "1024"}, 
      "inputs": [[865, 0, 0], [25, 0, 0], [26, 0, 0]]
    }, 
    {
      "op": "elemwise_add", 
      "name": "_plus60", 
      "inputs": [[867, 0, 0], [868, 0, 0]]
    }, 
    {
      "op": "SliceChannel", 
      "name": "encoder_birnn_forward_l0_t60_slice", 
      "attrs": {"num_outputs": "4"}, 
      "inputs": [[869, 0, 0]]
    }, 
    {
      "op": "Activation", 
      "name": "encoder_birnn_forward_l0_t60_o", 
      "attrs": {"act_type": "sigmoid"}, 
      "inputs": [[870, 3, 0]]
    }, 
    {
      "op": "Activation", 
      "name": "encoder_birnn_forward_l0_t60_f", 
      "attrs": {"act_type": "sigmoid"}, 
      "inputs": [[870, 1, 0]]
    }, 
    {
      "op": "elemwise_mul", 
      "name": "_mul120", 
      "inputs": [[872, 0, 0], [863, 0, 0]]
    }, 
    {
      "op": "Activation", 
      "name": "encoder_birnn_forward_l0_t60_i", 
      "attrs": {"act_type": "sigmoid"}, 
      "inputs": [[870, 0, 0]]
    }, 
    {
      "op": "Activation", 
      "name": "encoder_birnn_forward_l0_t60_c", 
      "attrs": {"act_type": "tanh"}, 
      "inputs": [[870, 2, 0]]
    }, 
    {
      "op": "elemwise_mul", 
      "name": "_mul121", 
      "inputs": [[874, 0, 0], [875, 0, 0]]
    }, 
    {
      "op": "elemwise_add", 
      "name": "encoder_birnn_forward_l0_t60_state", 
      "inputs": [[873, 0, 0], [876, 0, 0]]
    }, 
    {
      "op": "Activation", 
      "name": "activation60", 
      "attrs": {"act_type": "tanh"}, 
      "inputs": [[877, 0, 0]]
    }, 
    {
      "op": "elemwise_mul", 
      "name": "encoder_birnn_forward_l0_t60_out", 
      "inputs": [[871, 0, 0], [878, 0, 0]]
    }, 
    {
      "op": "expand_dims", 
      "name": "expand_dims60", 
      "attrs": {"axis": "0"}, 
      "inputs": [[879, 0, 0]]
    }, 
    {
      "op": "FullyConnected", 
      "name": "encoder_birnn_forward_l0_t61_i2h", 
      "attrs": {"num_hidden": "1024"}, 
      "inputs": [[20, 61, 0], [21, 0, 0], [22, 0, 0]]
    }, 
    {
      "op": "FullyConnected", 
      "name": "encoder_birnn_forward_l0_t61_h2h", 
      "attrs": {"num_hidden": "1024"}, 
      "inputs": [[879, 0, 0], [25, 0, 0], [26, 0, 0]]
    }, 
    {
      "op": "elemwise_add", 
      "name": "_plus61", 
      "inputs": [[881, 0, 0], [882, 0, 0]]
    }, 
    {
      "op": "SliceChannel", 
      "name": "encoder_birnn_forward_l0_t61_slice", 
      "attrs": {"num_outputs": "4"}, 
      "inputs": [[883, 0, 0]]
    }, 
    {
      "op": "Activation", 
      "name": "encoder_birnn_forward_l0_t61_o", 
      "attrs": {"act_type": "sigmoid"}, 
      "inputs": [[884, 3, 0]]
    }, 
    {
      "op": "Activation", 
      "name": "encoder_birnn_forward_l0_t61_f", 
      "attrs": {"act_type": "sigmoid"}, 
      "inputs": [[884, 1, 0]]
    }, 
    {
      "op": "elemwise_mul", 
      "name": "_mul122", 
      "inputs": [[886, 0, 0], [877, 0, 0]]
    }, 
    {
      "op": "Activation", 
      "name": "encoder_birnn_forward_l0_t61_i", 
      "attrs": {"act_type": "sigmoid"}, 
      "inputs": [[884, 0, 0]]
    }, 
    {
      "op": "Activation", 
      "name": "encoder_birnn_forward_l0_t61_c", 
      "attrs": {"act_type": "tanh"}, 
      "inputs": [[884, 2, 0]]
    }, 
    {
      "op": "elemwise_mul", 
      "name": "_mul123", 
      "inputs": [[888, 0, 0], [889, 0, 0]]
    }, 
    {
      "op": "elemwise_add", 
      "name": "encoder_birnn_forward_l0_t61_state", 
      "inputs": [[887, 0, 0], [890, 0, 0]]
    }, 
    {
      "op": "Activation", 
      "name": "activation61", 
      "attrs": {"act_type": "tanh"}, 
      "inputs": [[891, 0, 0]]
    }, 
    {
      "op": "elemwise_mul", 
      "name": "encoder_birnn_forward_l0_t61_out", 
      "inputs": [[885, 0, 0], [892, 0, 0]]
    }, 
    {
      "op": "expand_dims", 
      "name": "expand_dims61", 
      "attrs": {"axis": "0"}, 
      "inputs": [[893, 0, 0]]
    }, 
    {
      "op": "FullyConnected", 
      "name": "encoder_birnn_forward_l0_t62_i2h", 
      "attrs": {"num_hidden": "1024"}, 
      "inputs": [[20, 62, 0], [21, 0, 0], [22, 0, 0]]
    }, 
    {
      "op": "FullyConnected", 
      "name": "encoder_birnn_forward_l0_t62_h2h", 
      "attrs": {"num_hidden": "1024"}, 
      "inputs": [[893, 0, 0], [25, 0, 0], [26, 0, 0]]
    }, 
    {
      "op": "elemwise_add", 
      "name": "_plus62", 
      "inputs": [[895, 0, 0], [896, 0, 0]]
    }, 
    {
      "op": "SliceChannel", 
      "name": "encoder_birnn_forward_l0_t62_slice", 
      "attrs": {"num_outputs": "4"}, 
      "inputs": [[897, 0, 0]]
    }, 
    {
      "op": "Activation", 
      "name": "encoder_birnn_forward_l0_t62_o", 
      "attrs": {"act_type": "sigmoid"}, 
      "inputs": [[898, 3, 0]]
    }, 
    {
      "op": "Activation", 
      "name": "encoder_birnn_forward_l0_t62_f", 
      "attrs": {"act_type": "sigmoid"}, 
      "inputs": [[898, 1, 0]]
    }, 
    {
      "op": "elemwise_mul", 
      "name": "_mul124", 
      "inputs": [[900, 0, 0], [891, 0, 0]]
    }, 
    {
      "op": "Activation", 
      "name": "encoder_birnn_forward_l0_t62_i", 
      "attrs": {"act_type": "sigmoid"}, 
      "inputs": [[898, 0, 0]]
    }, 
    {
      "op": "Activation", 
      "name": "encoder_birnn_forward_l0_t62_c", 
      "attrs": {"act_type": "tanh"}, 
      "inputs": [[898, 2, 0]]
    }, 
    {
      "op": "elemwise_mul", 
      "name": "_mul125", 
      "inputs": [[902, 0, 0], [903, 0, 0]]
    }, 
    {
      "op": "elemwise_add", 
      "name": "encoder_birnn_forward_l0_t62_state", 
      "inputs": [[901, 0, 0], [904, 0, 0]]
    }, 
    {
      "op": "Activation", 
      "name": "activation62", 
      "attrs": {"act_type": "tanh"}, 
      "inputs": [[905, 0, 0]]
    }, 
    {
      "op": "elemwise_mul", 
      "name": "encoder_birnn_forward_l0_t62_out", 
      "inputs": [[899, 0, 0], [906, 0, 0]]
    }, 
    {
      "op": "expand_dims", 
      "name": "expand_dims62", 
      "attrs": {"axis": "0"}, 
      "inputs": [[907, 0, 0]]
    }, 
    {
      "op": "FullyConnected", 
      "name": "encoder_birnn_forward_l0_t63_i2h", 
      "attrs": {"num_hidden": "1024"}, 
      "inputs": [[20, 63, 0], [21, 0, 0], [22, 0, 0]]
    }, 
    {
      "op": "FullyConnected", 
      "name": "encoder_birnn_forward_l0_t63_h2h", 
      "attrs": {"num_hidden": "1024"}, 
      "inputs": [[907, 0, 0], [25, 0, 0], [26, 0, 0]]
    }, 
    {
      "op": "elemwise_add", 
      "name": "_plus63", 
      "inputs": [[909, 0, 0], [910, 0, 0]]
    }, 
    {
      "op": "SliceChannel", 
      "name": "encoder_birnn_forward_l0_t63_slice", 
      "attrs": {"num_outputs": "4"}, 
      "inputs": [[911, 0, 0]]
    }, 
    {
      "op": "Activation", 
      "name": "encoder_birnn_forward_l0_t63_o", 
      "attrs": {"act_type": "sigmoid"}, 
      "inputs": [[912, 3, 0]]
    }, 
    {
      "op": "Activation", 
      "name": "encoder_birnn_forward_l0_t63_f", 
      "attrs": {"act_type": "sigmoid"}, 
      "inputs": [[912, 1, 0]]
    }, 
    {
      "op": "elemwise_mul", 
      "name": "_mul126", 
      "inputs": [[914, 0, 0], [905, 0, 0]]
    }, 
    {
      "op": "Activation", 
      "name": "encoder_birnn_forward_l0_t63_i", 
      "attrs": {"act_type": "sigmoid"}, 
      "inputs": [[912, 0, 0]]
    }, 
    {
      "op": "Activation", 
      "name": "encoder_birnn_forward_l0_t63_c", 
      "attrs": {"act_type": "tanh"}, 
      "inputs": [[912, 2, 0]]
    }, 
    {
      "op": "elemwise_mul", 
      "name": "_mul127", 
      "inputs": [[916, 0, 0], [917, 0, 0]]
    }, 
    {
      "op": "elemwise_add", 
      "name": "encoder_birnn_forward_l0_t63_state", 
      "inputs": [[915, 0, 0], [918, 0, 0]]
    }, 
    {
      "op": "Activation", 
      "name": "activation63", 
      "attrs": {"act_type": "tanh"}, 
      "inputs": [[919, 0, 0]]
    }, 
    {
      "op": "elemwise_mul", 
      "name": "encoder_birnn_forward_l0_t63_out", 
      "inputs": [[913, 0, 0], [920, 0, 0]]
    }, 
    {
      "op": "expand_dims", 
      "name": "expand_dims63", 
      "attrs": {"axis": "0"}, 
      "inputs": [[921, 0, 0]]
    }, 
    {
      "op": "FullyConnected", 
      "name": "encoder_birnn_forward_l0_t64_i2h", 
      "attrs": {"num_hidden": "1024"}, 
      "inputs": [[20, 64, 0], [21, 0, 0], [22, 0, 0]]
    }, 
    {
      "op": "FullyConnected", 
      "name": "encoder_birnn_forward_l0_t64_h2h", 
      "attrs": {"num_hidden": "1024"}, 
      "inputs": [[921, 0, 0], [25, 0, 0], [26, 0, 0]]
    }, 
    {
      "op": "elemwise_add", 
      "name": "_plus64", 
      "inputs": [[923, 0, 0], [924, 0, 0]]
    }, 
    {
      "op": "SliceChannel", 
      "name": "encoder_birnn_forward_l0_t64_slice", 
      "attrs": {"num_outputs": "4"}, 
      "inputs": [[925, 0, 0]]
    }, 
    {
      "op": "Activation", 
      "name": "encoder_birnn_forward_l0_t64_o", 
      "attrs": {"act_type": "sigmoid"}, 
      "inputs": [[926, 3, 0]]
    }, 
    {
      "op": "Activation", 
      "name": "encoder_birnn_forward_l0_t64_f", 
      "attrs": {"act_type": "sigmoid"}, 
      "inputs": [[926, 1, 0]]
    }, 
    {
      "op": "elemwise_mul", 
      "name": "_mul128", 
      "inputs": [[928, 0, 0], [919, 0, 0]]
    }, 
    {
      "op": "Activation", 
      "name": "encoder_birnn_forward_l0_t64_i", 
      "attrs": {"act_type": "sigmoid"}, 
      "inputs": [[926, 0, 0]]
    }, 
    {
      "op": "Activation", 
      "name": "encoder_birnn_forward_l0_t64_c", 
      "attrs": {"act_type": "tanh"}, 
      "inputs": [[926, 2, 0]]
    }, 
    {
      "op": "elemwise_mul", 
      "name": "_mul129", 
      "inputs": [[930, 0, 0], [931, 0, 0]]
    }, 
    {
      "op": "elemwise_add", 
      "name": "encoder_birnn_forward_l0_t64_state", 
      "inputs": [[929, 0, 0], [932, 0, 0]]
    }, 
    {
      "op": "Activation", 
      "name": "activation64", 
      "attrs": {"act_type": "tanh"}, 
      "inputs": [[933, 0, 0]]
    }, 
    {
      "op": "elemwise_mul", 
      "name": "encoder_birnn_forward_l0_t64_out", 
      "inputs": [[927, 0, 0], [934, 0, 0]]
    }, 
    {
      "op": "expand_dims", 
      "name": "expand_dims64", 
      "attrs": {"axis": "0"}, 
      "inputs": [[935, 0, 0]]
    }, 
    {
      "op": "FullyConnected", 
      "name": "encoder_birnn_forward_l0_t65_i2h", 
      "attrs": {"num_hidden": "1024"}, 
      "inputs": [[20, 65, 0], [21, 0, 0], [22, 0, 0]]
    }, 
    {
      "op": "FullyConnected", 
      "name": "encoder_birnn_forward_l0_t65_h2h", 
      "attrs": {"num_hidden": "1024"}, 
      "inputs": [[935, 0, 0], [25, 0, 0], [26, 0, 0]]
    }, 
    {
      "op": "elemwise_add", 
      "name": "_plus65", 
      "inputs": [[937, 0, 0], [938, 0, 0]]
    }, 
    {
      "op": "SliceChannel", 
      "name": "encoder_birnn_forward_l0_t65_slice", 
      "attrs": {"num_outputs": "4"}, 
      "inputs": [[939, 0, 0]]
    }, 
    {
      "op": "Activation", 
      "name": "encoder_birnn_forward_l0_t65_o", 
      "attrs": {"act_type": "sigmoid"}, 
      "inputs": [[940, 3, 0]]
    }, 
    {
      "op": "Activation", 
      "name": "encoder_birnn_forward_l0_t65_f", 
      "attrs": {"act_type": "sigmoid"}, 
      "inputs": [[940, 1, 0]]
    }, 
    {
      "op": "elemwise_mul", 
      "name": "_mul130", 
      "inputs": [[942, 0, 0], [933, 0, 0]]
    }, 
    {
      "op": "Activation", 
      "name": "encoder_birnn_forward_l0_t65_i", 
      "attrs": {"act_type": "sigmoid"}, 
      "inputs": [[940, 0, 0]]
    }, 
    {
      "op": "Activation", 
      "name": "encoder_birnn_forward_l0_t65_c", 
      "attrs": {"act_type": "tanh"}, 
      "inputs": [[940, 2, 0]]
    }, 
    {
      "op": "elemwise_mul", 
      "name": "_mul131", 
      "inputs": [[944, 0, 0], [945, 0, 0]]
    }, 
    {
      "op": "elemwise_add", 
      "name": "encoder_birnn_forward_l0_t65_state", 
      "inputs": [[943, 0, 0], [946, 0, 0]]
    }, 
    {
      "op": "Activation", 
      "name": "activation65", 
      "attrs": {"act_type": "tanh"}, 
      "inputs": [[947, 0, 0]]
    }, 
    {
      "op": "elemwise_mul", 
      "name": "encoder_birnn_forward_l0_t65_out", 
      "inputs": [[941, 0, 0], [948, 0, 0]]
    }, 
    {
      "op": "expand_dims", 
      "name": "expand_dims65", 
      "attrs": {"axis": "0"}, 
      "inputs": [[949, 0, 0]]
    }, 
    {
      "op": "FullyConnected", 
      "name": "encoder_birnn_forward_l0_t66_i2h", 
      "attrs": {"num_hidden": "1024"}, 
      "inputs": [[20, 66, 0], [21, 0, 0], [22, 0, 0]]
    }, 
    {
      "op": "FullyConnected", 
      "name": "encoder_birnn_forward_l0_t66_h2h", 
      "attrs": {"num_hidden": "1024"}, 
      "inputs": [[949, 0, 0], [25, 0, 0], [26, 0, 0]]
    }, 
    {
      "op": "elemwise_add", 
      "name": "_plus66", 
      "inputs": [[951, 0, 0], [952, 0, 0]]
    }, 
    {
      "op": "SliceChannel", 
      "name": "encoder_birnn_forward_l0_t66_slice", 
      "attrs": {"num_outputs": "4"}, 
      "inputs": [[953, 0, 0]]
    }, 
    {
      "op": "Activation", 
      "name": "encoder_birnn_forward_l0_t66_o", 
      "attrs": {"act_type": "sigmoid"}, 
      "inputs": [[954, 3, 0]]
    }, 
    {
      "op": "Activation", 
      "name": "encoder_birnn_forward_l0_t66_f", 
      "attrs": {"act_type": "sigmoid"}, 
      "inputs": [[954, 1, 0]]
    }, 
    {
      "op": "elemwise_mul", 
      "name": "_mul132", 
      "inputs": [[956, 0, 0], [947, 0, 0]]
    }, 
    {
      "op": "Activation", 
      "name": "encoder_birnn_forward_l0_t66_i", 
      "attrs": {"act_type": "sigmoid"}, 
      "inputs": [[954, 0, 0]]
    }, 
    {
      "op": "Activation", 
      "name": "encoder_birnn_forward_l0_t66_c", 
      "attrs": {"act_type": "tanh"}, 
      "inputs": [[954, 2, 0]]
    }, 
    {
      "op": "elemwise_mul", 
      "name": "_mul133", 
      "inputs": [[958, 0, 0], [959, 0, 0]]
    }, 
    {
      "op": "elemwise_add", 
      "name": "encoder_birnn_forward_l0_t66_state", 
      "inputs": [[957, 0, 0], [960, 0, 0]]
    }, 
    {
      "op": "Activation", 
      "name": "activation66", 
      "attrs": {"act_type": "tanh"}, 
      "inputs": [[961, 0, 0]]
    }, 
    {
      "op": "elemwise_mul", 
      "name": "encoder_birnn_forward_l0_t66_out", 
      "inputs": [[955, 0, 0], [962, 0, 0]]
    }, 
    {
      "op": "expand_dims", 
      "name": "expand_dims66", 
      "attrs": {"axis": "0"}, 
      "inputs": [[963, 0, 0]]
    }, 
    {
      "op": "FullyConnected", 
      "name": "encoder_birnn_forward_l0_t67_i2h", 
      "attrs": {"num_hidden": "1024"}, 
      "inputs": [[20, 67, 0], [21, 0, 0], [22, 0, 0]]
    }, 
    {
      "op": "FullyConnected", 
      "name": "encoder_birnn_forward_l0_t67_h2h", 
      "attrs": {"num_hidden": "1024"}, 
      "inputs": [[963, 0, 0], [25, 0, 0], [26, 0, 0]]
    }, 
    {
      "op": "elemwise_add", 
      "name": "_plus67", 
      "inputs": [[965, 0, 0], [966, 0, 0]]
    }, 
    {
      "op": "SliceChannel", 
      "name": "encoder_birnn_forward_l0_t67_slice", 
      "attrs": {"num_outputs": "4"}, 
      "inputs": [[967, 0, 0]]
    }, 
    {
      "op": "Activation", 
      "name": "encoder_birnn_forward_l0_t67_o", 
      "attrs": {"act_type": "sigmoid"}, 
      "inputs": [[968, 3, 0]]
    }, 
    {
      "op": "Activation", 
      "name": "encoder_birnn_forward_l0_t67_f", 
      "attrs": {"act_type": "sigmoid"}, 
      "inputs": [[968, 1, 0]]
    }, 
    {
      "op": "elemwise_mul", 
      "name": "_mul134", 
      "inputs": [[970, 0, 0], [961, 0, 0]]
    }, 
    {
      "op": "Activation", 
      "name": "encoder_birnn_forward_l0_t67_i", 
      "attrs": {"act_type": "sigmoid"}, 
      "inputs": [[968, 0, 0]]
    }, 
    {
      "op": "Activation", 
      "name": "encoder_birnn_forward_l0_t67_c", 
      "attrs": {"act_type": "tanh"}, 
      "inputs": [[968, 2, 0]]
    }, 
    {
      "op": "elemwise_mul", 
      "name": "_mul135", 
      "inputs": [[972, 0, 0], [973, 0, 0]]
    }, 
    {
      "op": "elemwise_add", 
      "name": "encoder_birnn_forward_l0_t67_state", 
      "inputs": [[971, 0, 0], [974, 0, 0]]
    }, 
    {
      "op": "Activation", 
      "name": "activation67", 
      "attrs": {"act_type": "tanh"}, 
      "inputs": [[975, 0, 0]]
    }, 
    {
      "op": "elemwise_mul", 
      "name": "encoder_birnn_forward_l0_t67_out", 
      "inputs": [[969, 0, 0], [976, 0, 0]]
    }, 
    {
      "op": "expand_dims", 
      "name": "expand_dims67", 
      "attrs": {"axis": "0"}, 
      "inputs": [[977, 0, 0]]
    }, 
    {
      "op": "FullyConnected", 
      "name": "encoder_birnn_forward_l0_t68_i2h", 
      "attrs": {"num_hidden": "1024"}, 
      "inputs": [[20, 68, 0], [21, 0, 0], [22, 0, 0]]
    }, 
    {
      "op": "FullyConnected", 
      "name": "encoder_birnn_forward_l0_t68_h2h", 
      "attrs": {"num_hidden": "1024"}, 
      "inputs": [[977, 0, 0], [25, 0, 0], [26, 0, 0]]
    }, 
    {
      "op": "elemwise_add", 
      "name": "_plus68", 
      "inputs": [[979, 0, 0], [980, 0, 0]]
    }, 
    {
      "op": "SliceChannel", 
      "name": "encoder_birnn_forward_l0_t68_slice", 
      "attrs": {"num_outputs": "4"}, 
      "inputs": [[981, 0, 0]]
    }, 
    {
      "op": "Activation", 
      "name": "encoder_birnn_forward_l0_t68_o", 
      "attrs": {"act_type": "sigmoid"}, 
      "inputs": [[982, 3, 0]]
    }, 
    {
      "op": "Activation", 
      "name": "encoder_birnn_forward_l0_t68_f", 
      "attrs": {"act_type": "sigmoid"}, 
      "inputs": [[982, 1, 0]]
    }, 
    {
      "op": "elemwise_mul", 
      "name": "_mul136", 
      "inputs": [[984, 0, 0], [975, 0, 0]]
    }, 
    {
      "op": "Activation", 
      "name": "encoder_birnn_forward_l0_t68_i", 
      "attrs": {"act_type": "sigmoid"}, 
      "inputs": [[982, 0, 0]]
    }, 
    {
      "op": "Activation", 
      "name": "encoder_birnn_forward_l0_t68_c", 
      "attrs": {"act_type": "tanh"}, 
      "inputs": [[982, 2, 0]]
    }, 
    {
      "op": "elemwise_mul", 
      "name": "_mul137", 
      "inputs": [[986, 0, 0], [987, 0, 0]]
    }, 
    {
      "op": "elemwise_add", 
      "name": "encoder_birnn_forward_l0_t68_state", 
      "inputs": [[985, 0, 0], [988, 0, 0]]
    }, 
    {
      "op": "Activation", 
      "name": "activation68", 
      "attrs": {"act_type": "tanh"}, 
      "inputs": [[989, 0, 0]]
    }, 
    {
      "op": "elemwise_mul", 
      "name": "encoder_birnn_forward_l0_t68_out", 
      "inputs": [[983, 0, 0], [990, 0, 0]]
    }, 
    {
      "op": "expand_dims", 
      "name": "expand_dims68", 
      "attrs": {"axis": "0"}, 
      "inputs": [[991, 0, 0]]
    }, 
    {
      "op": "FullyConnected", 
      "name": "encoder_birnn_forward_l0_t69_i2h", 
      "attrs": {"num_hidden": "1024"}, 
      "inputs": [[20, 69, 0], [21, 0, 0], [22, 0, 0]]
    }, 
    {
      "op": "FullyConnected", 
      "name": "encoder_birnn_forward_l0_t69_h2h", 
      "attrs": {"num_hidden": "1024"}, 
      "inputs": [[991, 0, 0], [25, 0, 0], [26, 0, 0]]
    }, 
    {
      "op": "elemwise_add", 
      "name": "_plus69", 
      "inputs": [[993, 0, 0], [994, 0, 0]]
    }, 
    {
      "op": "SliceChannel", 
      "name": "encoder_birnn_forward_l0_t69_slice", 
      "attrs": {"num_outputs": "4"}, 
      "inputs": [[995, 0, 0]]
    }, 
    {
      "op": "Activation", 
      "name": "encoder_birnn_forward_l0_t69_o", 
      "attrs": {"act_type": "sigmoid"}, 
      "inputs": [[996, 3, 0]]
    }, 
    {
      "op": "Activation", 
      "name": "encoder_birnn_forward_l0_t69_f", 
      "attrs": {"act_type": "sigmoid"}, 
      "inputs": [[996, 1, 0]]
    }, 
    {
      "op": "elemwise_mul", 
      "name": "_mul138", 
      "inputs": [[998, 0, 0], [989, 0, 0]]
    }, 
    {
      "op": "Activation", 
      "name": "encoder_birnn_forward_l0_t69_i", 
      "attrs": {"act_type": "sigmoid"}, 
      "inputs": [[996, 0, 0]]
    }, 
    {
      "op": "Activation", 
      "name": "encoder_birnn_forward_l0_t69_c", 
      "attrs": {"act_type": "tanh"}, 
      "inputs": [[996, 2, 0]]
    }, 
    {
      "op": "elemwise_mul", 
      "name": "_mul139", 
      "inputs": [[1000, 0, 0], [1001, 0, 0]]
    }, 
    {
      "op": "elemwise_add", 
      "name": "encoder_birnn_forward_l0_t69_state", 
      "inputs": [[999, 0, 0], [1002, 0, 0]]
    }, 
    {
      "op": "Activation", 
      "name": "activation69", 
      "attrs": {"act_type": "tanh"}, 
      "inputs": [[1003, 0, 0]]
    }, 
    {
      "op": "elemwise_mul", 
      "name": "encoder_birnn_forward_l0_t69_out", 
      "inputs": [[997, 0, 0], [1004, 0, 0]]
    }, 
    {
      "op": "expand_dims", 
      "name": "expand_dims69", 
      "attrs": {"axis": "0"}, 
      "inputs": [[1005, 0, 0]]
    }, 
    {
      "op": "FullyConnected", 
      "name": "encoder_birnn_forward_l0_t70_i2h", 
      "attrs": {"num_hidden": "1024"}, 
      "inputs": [[20, 70, 0], [21, 0, 0], [22, 0, 0]]
    }, 
    {
      "op": "FullyConnected", 
      "name": "encoder_birnn_forward_l0_t70_h2h", 
      "attrs": {"num_hidden": "1024"}, 
      "inputs": [[1005, 0, 0], [25, 0, 0], [26, 0, 0]]
    }, 
    {
      "op": "elemwise_add", 
      "name": "_plus70", 
      "inputs": [[1007, 0, 0], [1008, 0, 0]]
    }, 
    {
      "op": "SliceChannel", 
      "name": "encoder_birnn_forward_l0_t70_slice", 
      "attrs": {"num_outputs": "4"}, 
      "inputs": [[1009, 0, 0]]
    }, 
    {
      "op": "Activation", 
      "name": "encoder_birnn_forward_l0_t70_o", 
      "attrs": {"act_type": "sigmoid"}, 
      "inputs": [[1010, 3, 0]]
    }, 
    {
      "op": "Activation", 
      "name": "encoder_birnn_forward_l0_t70_f", 
      "attrs": {"act_type": "sigmoid"}, 
      "inputs": [[1010, 1, 0]]
    }, 
    {
      "op": "elemwise_mul", 
…
    24050, 
    24051, 
    24052, 
    24053, 
    24057, 
    24058, 
    24059, 
    24060, 
    24061, 
    24062, 
    24063, 
    24064, 
    24065, 
    24066, 
    24067, 
    24068, 
    24069, 
    24073, 
    24074, 
    24075, 
    24076, 
    24077, 
    24078, 
    24079, 
    24080, 
    24081, 
    24082, 
    24083, 
    24084, 
    24085, 
    24089, 
    24090, 
    24091, 
    24092, 
    24093, 
    24094, 
    24095, 
    24096, 
    24097, 
    24098, 
    24099, 
    24100, 
    24101, 
    24102, 
    24103, 
    24104, 
    24105, 
    24106, 
    24107, 
    24108, 
    24109, 
    24110, 
    24111, 
    24115, 
    24116, 
    24117, 
    24118, 
    24119, 
    24120, 
    24121, 
    24122, 
    24123, 
    24124, 
    24125, 
    24126, 
    24127, 
    24131, 
    24132, 
    24133, 
    24134, 
    24135, 
    24136, 
    24137, 
    24138, 
    24139, 
    24140, 
    24141, 
    24142, 
    24143, 
    24147, 
    24148, 
    24149, 
    24150, 
    24151, 
    24152, 
    24153, 
    24154, 
    24155, 
    24156, 
    24157, 
    24158, 
    24159, 
    24163, 
    24164, 
    24165, 
    24166, 
    24167, 
    24168, 
    24169, 
    24170, 
    24171, 
    24172, 
    24173, 
    24174, 
    24175, 
    24179, 
    24180, 
    24181, 
    24182, 
    24183, 
    24184, 
    24185, 
    24186, 
    24187, 
    24188, 
    24189, 
    24190, 
    24191, 
    24195, 
    24196, 
    24197, 
    24198, 
    24199, 
    24200, 
    24201, 
    24202, 
    24203, 
    24204, 
    24205, 
    24206, 
    24207, 
    24211, 
    24212, 
    24213, 
    24214, 
    24215, 
    24216, 
    24217, 
    24218, 
    24219, 
    24220, 
    24221, 
    24222, 
    24223, 
    24227, 
    24228, 
    24229, 
    24230, 
    24231, 
    24232, 
    24233, 
    24234, 
    24235, 
    24236, 
    24237, 
    24238, 
    24239, 
    24240, 
    24241, 
    24242, 
    24243, 
    24244, 
    24245, 
    24246, 
    24247, 
    24248, 
    24249, 
    24253, 
    24254, 
    24255, 
    24256, 
    24257, 
    24258, 
    24259, 
    24260, 
    24261, 
    24262, 
    24263, 
    24264, 
    24265, 
    24269, 
    24270, 
    24271, 
    24272, 
    24273, 
    24274, 
    24275, 
    24276, 
    24277, 
    24278, 
    24279, 
    24280, 
    24281, 
    24285, 
    24286, 
    24287, 
    24288, 
    24289, 
    24290, 
    24291, 
    24292, 
    24293, 
    24294, 
    24295, 
    24296, 
    24297, 
    24301, 
    24302, 
    24303, 
    24304, 
    24305, 
    24306, 
    24307, 
    24308, 
    24309, 
    24310, 
    24311, 
    24312, 
    24313, 
    24317, 
    24318, 
    24319, 
    24320, 
    24321, 
    24322, 
    24323, 
    24324, 
    24325, 
    24326, 
    24327, 
    24328, 
    24329, 
    24333, 
    24334, 
    24335, 
    24336, 
    24337, 
    24338, 
    24339, 
    24340, 
    24341, 
    24342, 
    24343, 
    24344, 
    24345, 
    24349, 
    24350, 
    24351, 
    24352, 
    24353, 
    24354, 
    24355, 
    24356, 
    24357, 
    24358, 
    24359, 
    24360, 
    24361, 
    24365, 
    24366, 
    24367, 
    24368, 
    24369, 
    24370, 
    24371, 
    24372, 
    24373, 
    24374, 
    24375, 
    24376, 
    24377, 
    24378, 
    24379, 
    24380, 
    24381, 
    24382, 
    24383, 
    24384, 
    24385, 
    24386, 
    24387, 
    24391, 
    24392, 
    24393, 
    24394, 
    24395, 
    24396, 
    24397, 
    24398, 
    24399, 
    24400, 
    24401, 
    24402, 
    24403, 
    24407, 
    24408, 
    24409, 
    24410, 
    24411, 
    24412, 
    24413, 
    24414, 
    24415, 
    24416, 
    24417, 
    24418, 
    24419, 
    24423, 
    24424, 
    24425, 
    24426, 
    24427, 
    24428, 
    24429, 
    24430, 
    24431, 
    24432, 
    24433, 
    24434, 
    24435, 
    24439, 
    24440, 
    24441, 
    24442, 
    24443, 
    24444, 
    24445, 
    24446, 
    24447, 
    24448, 
    24449, 
    24450, 
    24451, 
    24455, 
    24456, 
    24457, 
    24458, 
    24459, 
    24460, 
    24461, 
    24462, 
    24463, 
    24464, 
    24465, 
    24466, 
    24467, 
    24471, 
    24472, 
    24473, 
    24474, 
    24475, 
    24476, 
    24477, 
    24478, 
    24479, 
    24480, 
    24481, 
    24482, 
    24483, 
    24487, 
    24488, 
    24489, 
    24490, 
    24491, 
    24492, 
    24493, 
    24494, 
    24495, 
    24496, 
    24497, 
    24498, 
    24499, 
    24503, 
    24504, 
    24505, 
    24506, 
    24507, 
    24508, 
    24509, 
    24510, 
    24511, 
    24512, 
    24513, 
    24514, 
    24515, 
    24516, 
    24517, 
    24518, 
    24519, 
    24520, 
    24521, 
    24522, 
    24523, 
    24524, 
    24525, 
    24529, 
    24530, 
    24531, 
    24532, 
    24533, 
    24534, 
    24535, 
    24536, 
    24537, 
    24538, 
    24539, 
    24540, 
    24541, 
    24545, 
    24546, 
    24547, 
    24548, 
    24549, 
    24550, 
    24551, 
    24552, 
    24553, 
    24554, 
    24555, 
    24556, 
    24557, 
    24561, 
    24562, 
    24563, 
    24564, 
    24565, 
    24566, 
    24567, 
    24568, 
    24569, 
    24570, 
    24571, 
    24572, 
    24573, 
    24577, 
    24578, 
    24579, 
    24580, 
    24581, 
    24582, 
    24583, 
    24584, 
    24585, 
    24586, 
    24587, 
    24588, 
    24589, 
    24593, 
    24594, 
    24595, 
    24596, 
    24597, 
    24598, 
    24599, 
    24600, 
    24601, 
    24602, 
    24603, 
    24604, 
    24605, 
    24609, 
    24610, 
    24611, 
    24612, 
    24613, 
    24614, 
    24615, 
    24616, 
    24617, 
    24618, 
    24619, 
    24620, 
    24621, 
    24625, 
    24626, 
    24627, 
    24628, 
    24629, 
    24630, 
    24631, 
    24632, 
    24633, 
    24634, 
    24635, 
    24636, 
    24637, 
    24641, 
    24642, 
    24643, 
    24644, 
    24645, 
    24646, 
    24647, 
    24648, 
    24649, 
    24650, 
    24651, 
    24652, 
    24653, 
    24654, 
    24655, 
    24656, 
    24657, 
    24658, 
    24659, 
    24660, 
    24661, 
    24662, 
    24663, 
    24667, 
    24668, 
    24669, 
    24670, 
    24671, 
    24672, 
    24673, 
    24674, 
    24675, 
    24676, 
    24677, 
    24678, 
    24679, 
    24683, 
    24684, 
    24685, 
    24686, 
    24687, 
    24688, 
    24689, 
    24690, 
    24691, 
    24692, 
    24693, 
    24694, 
    24695, 
    24699, 
    24700, 
    24701, 
    24702, 
    24703, 
    24704, 
    24705, 
    24706, 
    24707, 
    24708, 
    24709, 
    24710, 
    24711, 
    24715, 
    24716, 
    24717, 
    24718, 
    24719, 
    24720, 
    24721, 
    24722, 
    24723, 
    24724, 
    24725, 
    24726, 
    24727, 
    24731, 
    24732, 
    24733, 
    24734, 
    24735, 
    24736, 
    24737, 
    24738, 
    24739, 
    24740, 
    24741, 
    24742, 
    24743, 
    24747, 
    24748, 
    24749, 
    24750, 
    24751, 
    24752, 
    24753, 
    24754, 
    24755, 
    24756, 
    24757, 
    24758, 
    24759, 
    24763, 
    24764, 
    24765, 
    24766, 
    24767, 
    24768, 
    24769, 
    24770, 
    24771, 
    24772, 
    24773, 
    24774, 
    24775, 
    24779, 
    24780, 
    24781, 
    24782, 
    24783, 
    24784, 
    24785, 
    24786, 
    24787, 
    24788, 
    24789, 
    24790, 
    24791, 
    24792, 
    24793, 
    24794, 
    24795, 
    24796, 
    24797, 
    24798, 
    24799, 
    24800, 
    24801, 
    24805, 
    24806, 
    24807, 
    24808, 
    24809, 
    24810, 
    24811, 
    24812, 
    24813, 
    24814, 
    24815, 
    24816, 
    24817, 
    24821, 
    24822, 
    24823, 
    24824, 
    24825, 
    24826, 
    24827, 
    24828, 
    24829, 
    24830, 
    24831, 
    24832, 
    24833, 
    24837, 
    24838, 
    24839, 
    24840, 
    24841, 
    24842, 
    24843, 
    24844, 
    24845, 
    24846, 
    24847, 
    24848, 
    24849, 
    24853, 
    24854, 
    24855, 
    24856, 
    24857, 
    24858, 
    24859, 
    24860, 
    24861, 
    24862, 
    24863, 
    24864, 
    24865, 
    24869, 
    24870, 
    24871, 
    24872, 
    24873, 
    24874, 
    24875, 
    24876, 
    24877, 
    24878, 
    24879, 
    24880, 
    24881, 
    24885, 
    24886, 
    24887, 
    24888, 
    24889, 
    24890, 
    24891, 
    24892, 
    24893, 
    24894, 
    24895, 
    24896, 
    24897, 
    24901, 
    24902, 
    24903, 
    24904, 
    24905, 
    24906, 
    24907, 
    24908, 
    24909, 
    24910, 
    24911, 
    24912, 
    24913, 
    24917, 
    24918, 
    24919, 
    24920, 
    24921, 
    24922, 
    24923, 
    24924, 
    24925, 
    24926, 
    24927, 
    24928, 
    24929, 
    24930, 
    24931, 
    24932, 
    24933, 
    24934, 
    24935, 
    24936, 
    24937, 
    24938, 
    24939, 
    24943, 
    24944, 
    24945, 
    24946, 
    24947, 
    24948, 
    24949, 
    24950, 
    24951, 
    24952, 
    24953, 
    24954, 
    24955, 
    24959, 
    24960, 
    24961, 
    24962, 
    24963, 
    24964, 
    24965, 
    24966, 
    24967, 
    24968, 
    24969, 
    24970, 
    24971, 
    24975, 
    24976, 
    24977, 
    24978, 
    24979, 
    24980, 
    24981, 
    24982, 
    24983, 
    24984, 
    24985, 
    24986, 
    24987, 
    24991, 
    24992, 
    24993, 
    24994, 
    24995, 
    24996, 
    24997, 
    24998, 
    24999, 
    25000, 
    25001, 
    25002, 
    25003, 
    25007, 
    25008, 
    25009, 
    25010, 
    25011, 
    25012, 
    25013, 
    25014, 
    25015, 
    25016, 
    25017, 
    25018, 
    25019, 
    25023, 
    25024, 
    25025, 
    25026, 
    25027, 
    25028, 
    25029, 
    25030, 
    25031, 
    25032, 
    25033, 
    25034, 
    25035, 
    25039, 
    25040, 
    25041, 
    25042, 
    25043, 
    25044, 
    25045, 
    25046, 
    25047, 
    25048, 
    25049, 
    25050, 
    25051, 
    25055, 
    25056, 
    25057, 
    25058, 
    25059, 
    25060, 
    25061, 
    25062, 
    25063, 
    25064, 
    25065, 
    25066, 
    25067, 
    25068, 
    25069, 
    25070, 
    25071, 
    25072, 
    25073, 
    25074, 
    25075, 
    25076, 
    25077, 
    25081, 
    25082, 
    25083, 
    25084, 
    25085, 
    25086, 
    25087, 
    25088, 
    25089, 
    25090, 
    25091, 
    25092, 
    25093, 
    25097, 
    25098, 
    25099, 
    25100, 
    25101, 
    25102, 
    25103, 
    25104, 
    25105, 
    25106, 
    25107, 
    25108, 
    25109, 
    25113, 
    25114, 
    25115, 
    25116, 
    25117, 
    25118, 
    25119, 
    25120, 
    25121, 
    25122, 
    25123, 
    25124, 
    25125, 
    25129, 
    25130, 
    25131, 
    25132, 
    25133, 
    25134, 
    25135, 
    25136, 
    25137, 
    25138, 
    25139, 
    25140, 
    25141, 
    25145, 
    25146, 
    25147, 
    25148, 
    25149, 
    25150, 
    25151, 
    25152, 
    25153, 
    25154, 
    25155, 
    25156, 
    25157, 
    25161, 
    25162, 
    25163, 
    25164, 
    25165, 
    25166, 
    25167, 
    25168, 
    25169, 
    25170, 
    25171, 
    25172, 
    25173, 
    25177, 
    25178, 
    25179, 
    25180, 
    25181, 
    25182, 
    25183, 
    25184, 
    25185, 
    25186, 
    25187, 
    25188, 
    25189, 
    25193, 
    25194, 
    25195, 
    25196, 
    25197, 
    25198, 
    25199, 
    25200, 
    25201, 
    25202, 
    25203, 
    25204, 
    25205, 
    25206, 
    25207, 
    25208, 
    25209, 
    25210, 
    25211, 
    25212, 
    25213, 
    25214, 
    25215, 
    25219, 
    25220, 
    25221, 
    25222, 
    25223, 
    25224, 
    25225, 
    25226, 
    25227, 
    25228, 
    25229, 
    25230, 
    25231, 
    25235, 
    25236, 
    25237, 
    25238, 
    25239, 
    25240, 
    25241, 
    25242, 
    25243, 
    25244, 
    25245, 
    25246, 
    25247, 
    25251, 
    25252, 
    25253, 
    25254, 
    25255, 
    25256, 
    25257, 
    25258, 
    25259, 
    25260, 
    25261, 
    25262, 
    25263, 
    25267, 
    25268, 
    25269, 
    25270, 
    25271, 
    25272, 
    25273, 
    25274, 
    25275, 
    25276, 
    25277, 
    25278, 
    25279, 
    25283, 
    25284, 
    25285, 
    25286, 
    25287, 
    25288, 
    25289, 
    25290, 
    25291, 
    25292, 
    25293, 
    25294, 
    25295, 
    25299, 
    25300, 
    25301, 
    25302, 
    25303, 
    25304, 
    25305, 
    25306, 
    25307, 
    25308, 
    25309, 
    25310, 
    25311, 
    25315, 
    25316, 
    25317, 
    25318, 
    25319, 
    25320, 
    25321, 
    25322, 
    25323, 
    25324, 
    25325, 
    25326, 
    25327, 
    25331, 
    25332, 
    25333, 
    25334, 
    25335, 
    25336, 
    25337, 
    25338, 
    25339, 
    25340, 
    25341, 
    25342, 
    25343, 
    25344, 
    25345, 
    25346, 
    25347, 
    25348, 
    25349, 
    25350, 
    25351, 
    25352, 
    25353, 
    25357, 
    25358, 
    25359, 
    25360, 
    25361, 
    25362, 
    25363, 
    25364, 
    25365, 
    25366, 
    25367, 
    25368, 
    25369, 
    25373, 
    25374, 
    25375, 
    25376, 
    25377, 
    25378, 
    25379, 
    25380, 
    25381, 
    25382, 
    25383, 
    25384, 
    25385, 
    25389, 
    25390, 
    25391, 
    25392, 
    25393, 
    25394, 
    25395, 
    25396, 
    25397, 
    25398, 
    25399, 
    25400, 
    25401, 
    25405, 
    25406, 
    25407, 
    25408, 
    25409, 
    25410, 
    25411, 
    25412, 
    25413, 
    25414, 
    25415, 
    25416, 
    25417, 
    25421, 
    25422, 
    25423, 
    25424, 
    25425, 
    25426, 
    25427, 
    25428, 
    25429, 
    25430, 
    25431, 
    25432, 
    25433, 
    25437, 
    25438, 
    25439, 
    25440, 
    25441, 
    25442, 
    25443, 
    25444, 
    25445, 
    25446, 
    25447, 
    25448, 
    25449, 
    25453, 
    25454, 
    25455, 
    25456, 
    25457, 
    25458, 
    25459, 
    25460, 
    25461, 
    25462, 
    25463, 
    25464, 
    25465, 
    25469, 
    25470, 
    25471, 
    25472, 
    25473, 
    25474, 
    25475, 
    25476, 
    25477, 
    25478, 
    25479, 
    25480, 
    25481, 
    25482, 
    25483, 
    25484, 
    25485, 
    25486, 
    25487, 
    25488, 
    25489, 
    25490, 
    25491, 
    25495, 
    25496, 
    25497, 
    25498, 
    25499, 
    25500, 
    25501, 
    25502, 
    25503, 
    25504, 
    25505, 
    25506, 
    25507, 
    25511, 
    25512, 
    25513, 
    25514, 
    25515, 
    25516, 
    25517, 
    25518, 
    25519, 
    25520, 
    25521, 
    25522, 
    25523, 
    25527, 
    25528, 
    25529, 
    25530, 
    25531, 
    25532, 
    25533, 
    25534, 
    25535, 
    25536, 
    25537, 
    25538, 
    25539, 
    25543, 
    25544, 
    25545, 
    25546, 
    25547, 
    25548, 
    25549, 
    25550, 
    25551, 
    25552, 
    25553, 
    25554, 
    25555, 
    25559, 
    25560, 
    25561, 
    25562, 
    25563, 
    25564, 
    25565, 
    25566, 
    25567, 
    25568, 
    25569, 
    25570, 
    25571, 
    25575, 
    25576, 
    25577, 
    25578, 
    25579, 
    25580, 
    25581, 
    25582, 
    25583, 
    25584, 
    25585, 
    25586, 
    25587, 
    25591, 
    25592, 
    25593, 
    25594, 
    25595, 
    25596, 
    25597, 
    25598, 
    25599, 
    25600, 
    25601, 
    25602, 
    25603, 
    25607, 
    25608, 
    25609, 
    25610, 
    25611, 
    25612, 
    25613, 
    25614, 
    25615, 
    25616, 
    25617, 
    25618, 
    25619, 
    25620, 
    25621, 
    25622, 
    25623, 
    25624, 
    25625, 
    25626, 
    25627, 
    25628, 
    25629, 
    25633, 
    25634, 
    25635, 
    25636, 
    25637, 
    25638, 
    25639, 
    25640, 
    25641, 
    25642, 
    25643, 
    25644, 
    25645, 
    25649, 
    25650, 
    25651, 
    25652, 
    25653, 
    25654, 
    25655, 
    25656, 
    25657, 
    25658, 
    25659, 
    25660, 
    25661, 
    25665, 
    25666, 
    25667, 
    25668, 
    25669, 
    25670, 
    25671, 
    25672, 
    25673, 
    25674, 
    25675, 
    25676, 
    25677, 
    25681, 
    25682, 
    25683, 
    25684, 
    25685, 
    25686, 
    25687, 
    25688, 
    25689, 
    25690, 
    25691, 
    25692, 
    25693, 
    25697, 
    25698, 
    25699, 
    25700, 
    25701, 
    25702, 
    25703, 
    25704, 
    25705, 
    25706, 
    25707, 
    25708, 
    25709, 
    25713, 
    25714, 
    25715, 
    25716, 
    25717, 
    25718, 
    25719, 
    25720, 
    25721, 
    25722, 
    25723, 
    25724, 
    25725, 
    25729, 
    25730, 
    25731, 
    25732, 
    25733, 
    25734, 
    25735, 
    25736, 
    25737, 
    25738, 
    25739, 
    25740, 
    25741, 
    25745, 
    25746, 
    25747, 
    25748, 
    25749, 
    25750, 
    25751, 
    25752, 
    25753, 
    25754, 
    25755, 
    25756, 
    25757, 
    25758, 
    25759, 
    25760, 
    25761, 
    25762, 
    25763, 
    25764, 
    25765, 
    25766, 
    25767, 
    25771, 
    25772, 
    25773, 
    25774, 
    25775, 
    25776, 
    25777, 
    25778, 
    25779, 
    25780, 
    25781, 
    25782, 
    25783, 
    25787, 
    25788, 
    25789, 
    25790, 
    25791, 
    25792, 
    25793, 
    25794, 
    25795, 
    25796, 
    25797, 
    25798, 
    25799, 
    25803, 
    25804, 
    25805, 
    25806, 
    25807, 
    25808, 
    25809, 
    25810, 
    25811, 
    25812, 
    25813, 
    25814, 
    25815, 
    25819, 
    25820, 
    25821, 
    25822, 
    25823, 
    25824, 
    25825, 
    25826, 
    25827, 
    25828, 
    25829, 
    25830, 
    25831, 
    25835, 
    25836, 
    25837, 
    25838, 
    25839, 
    25840, 
    25841, 
    25842, 
    25843, 
    25844, 
    25845, 
    25846, 
    25847, 
    25851, 
    25852, 
    25853, 
    25854, 
    25855, 
    25856, 
    25857, 
    25858, 
    25859, 
    25860, 
    25861, 
    25862, 
    25863, 
    25867, 
    25868, 
    25869, 
    25870, 
    25871, 
    25872, 
    25873, 
    25874, 
    25875, 
    25876, 
    25877, 
    25878, 
    25879, 
    25883, 
    25884, 
    25885, 
    25886, 
    25887, 
    25888, 
    25889, 
    25890, 
    25891, 
    25892, 
    25893, 
    25894, 
    25895, 
    25896, 
    25897, 
    25898, 
    25899, 
    25900, 
    25901, 
    25902, 
    25903, 
    25904, 
    25905, 
    25909, 
    25910, 
    25911, 
    25912, 
    25913, 
    25914, 
    25915, 
    25916, 
    25917, 
    25918, 
    25919, 
    25920, 
    25921, 
    25925, 
    25926, 
    25927, 
    25928, 
    25929, 
    25930, 
    25931, 
    25932, 
    25933, 
    25934, 
    25935, 
    25936, 
    25937, 
    25941, 
    25942, 
    25943, 
    25944, 
    25945, 
    25946, 
    25947, 
    25948, 
    25949, 
    25950, 
    25951, 
    25952, 
    25953, 
    25957, 
    25958, 
    25959, 
    25960, 
    25961, 
    25962, 
    25963, 
    25964, 
    25965, 
    25966, 
    25967, 
    25968, 
    25969, 
    25973, 
    25974, 
    25975, 
    25976, 
    25977, 
    25978, 
    25979, 
    25980, 
    25981, 
    25982, 
    25983, 
    25984, 
    25985, 
    25989, 
    25990, 
    25991, 
    25992, 
    25993, 
    25994, 
    25995, 
    25996, 
    25997, 
    25998, 
    25999, 
    26000, 
    26001, 
    26005, 
    26006, 
    26007, 
    26008, 
    26009, 
    26010, 
    26011, 
    26012, 
    26013, 
    26014, 
    26015, 
    26016, 
    26017, 
    26021, 
    26022, 
    26023, 
    26024, 
    26025, 
    26026, 
    26027, 
    26028, 
    26029, 
    26030, 
    26031, 
    26032, 
    26033, 
    26034, 
    26035, 
    26036, 
    26037, 
    26038, 
    26039, 
    26040, 
    26041, 
    26042, 
    26043, 
    26047, 
    26048, 
    26049, 
    26050, 
    26051, 
    26052, 
    26053, 
    26054, 
    26055, 
    26056, 
    26057, 
    26058, 
    26059, 
    26063, 
    26064, 
    26065, 
    26066, 
    26067, 
    26068, 
    26069, 
    26070, 
    26071, 
    26072, 
    26073, 
    26074, 
    26075, 
    26079, 
    26080, 
    26081, 
    26082, 
    26083, 
    26084, 
    26085, 
    26086, 
    26087, 
    26088, 
    26089, 
    26090, 
    26091, 
    26095, 
    26096, 
    26097, 
    26098, 
    26099, 
    26100, 
    26101, 
    26102, 
    26103, 
    26104, 
    26105, 
    26106, 
    26107, 
    26111, 
    26112, 
    26113, 
    26114, 
    26115, 
    26116, 
    26117, 
    26118, 
    26119, 
    26120, 
    26121, 
    26122, 
    26123, 
    26127, 
    26128, 
    26129, 
    26130, 
    26131, 
    26132, 
    26133, 
    26134, 
    26135, 
    26136, 
    26137, 
    26138, 
    26139, 
    26143, 
    26144, 
    26145, 
    26146, 
    26147, 
    26148, 
    26149, 
    26150, 
    26151, 
    26152, 
    26153, 
    26154, 
    26155, 
    26159, 
    26160, 
    26161, 
    26162, 
    26163, 
    26164, 
    26165, 
    26166, 
    26167, 
    26168, 
    26169, 
    26170, 
    26171, 
    26172, 
    26173, 
    26174, 
    26175, 
    26176, 
    26177, 
    26178, 
    26179, 
    26180, 
    26181, 
    26185, 
    26186, 
    26187, 
    26188, 
    26189, 
    26190, 
    26191, 
    26192, 
    26193, 
    26194, 
    26195, 
    26196, 
    26197, 
    26201, 
    26202, 
    26203, 
    26204, 
    26205, 
    26206, 
    26207, 
    26208, 
    26209, 
    26210, 
    26211, 
    26212, 
    26213, 
    26217, 
    26218, 
    26219, 
    26220, 
    26221, 
    26222, 
    26223, 
    26224, 
    26225, 
    26226, 
    26227, 
    26228, 
    26229, 
    26233, 
    26234, 
    26235, 
    26236, 
    26237, 
    26238, 
    26239, 
    26240, 
    26241, 
    26242, 
    26243, 
    26244, 
    26245, 
    26249, 
    26250, 
    26251, 
    26252, 
    26253, 
    26254, 
    26255, 
    26256, 
    26257, 
    26258, 
    26259, 
    26260, 
    26261, 
    26265, 
    26266, 
    26267, 
    26268, 
    26269, 
    26270, 
    26271, 
    26272, 
    26273, 
    26274, 
    26275, 
    26276, 
    26277, 
    26281, 
    26282, 
    26283, 
    26284, 
    26285, 
    26286, 
    26287, 
    26288, 
    26289, 
    26290, 
    26291, 
    26292, 
    26293, 
    26297, 
    26298, 
    26299, 
    26300, 
    26301, 
    26302, 
    26303, 
    26304, 
    26305, 
    26306, 
    26307, 
    26308, 
    26309, 
    26310, 
    26311, 
    26312, 
    26313, 
    26314, 
    26315, 
    26316, 
    26317, 
    26318, 
    26319, 
    26323, 
    26324, 
    26325, 
    26326, 
    26327, 
    26328, 
    26329, 
    26330, 
    26331, 
    26332, 
    26333, 
    26334, 
    26335, 
    26339, 
    26340, 
    26341, 
    26342, 
    26343, 
    26344, 
    26345, 
    26346, 
    26347, 
    26348, 
    26349, 
    26350, 
    26351, 
    26355, 
    26356, 
    26357, 
    26358, 
    26359, 
    26360, 
    26361, 
    26362, 
    26363, 
    26364, 
    26365, 
    26366, 
    26367, 
    26371, 
    26372, 
    26373, 
    26374, 
    26375, 
    26376, 
    26377, 
    26378, 
    26379, 
    26380, 
    26381, 
    26382, 
    26383, 
    26387, 
    26388, 
    26389, 
    26390, 
    26391, 
    26392, 
    26393, 
    26394, 
    26395, 
    26396, 
    26397, 
    26398, 
    26399, 
    26403, 
    26404, 
    26405, 
    26406, 
    26407, 
    26408, 
    26409, 
    26410, 
    26411, 
    26412, 
    26413, 
    26414, 
    26415, 
    26419, 
    26420, 
    26421, 
    26422, 
    26423, 
    26424, 
    26425, 
    26426, 
    26427, 
    26428, 
    26429, 
    26430, 
    26431, 
    26435, 
    26436, 
    26437, 
    26438, 
    26439, 
    26440, 
    26441, 
    26442, 
    26443, 
    26444, 
    26445, 
    26446, 
    26447, 
    26448, 
    26449, 
    26450, 
    26451, 
    26452, 
    26453, 
    26454, 
    26455, 
    26456, 
    26457, 
    26461, 
    26462, 
    26463, 
    26464, 
    26465, 
    26466, 
    26467, 
    26468, 
    26469, 
    26470, 
    26471, 
    26472, 
    26473, 
    26477, 
    26478, 
    26479, 
    26480, 
    26481, 
    26482, 
    26483, 
    26484, 
    26485, 
    26486, 
    26487, 
    26488, 
    26489, 
    26493, 
    26494, 
    26495, 
    26496, 
    26497, 
    26498, 
    26499, 
    26500, 
    26501, 
    26502, 
    26503, 
    26504, 
    26505, 
    26509, 
    26510, 
    26511, 
    26512, 
    26513, 
    26514, 
    26515, 
    26516, 
    26517, 
    26518, 
    26519, 
    26520, 
    26521, 
    26525, 
    26526, 
    26527, 
    26528, 
    26529, 
    26530, 
    26531, 
    26532, 
    26533, 
    26534, 
    26535, 
    26536, 
    26537, 
    26541, 
    26542, 
    26543, 
    26544, 
    26545, 
    26546, 
    26547, 
    26548, 
    26549, 
    26550, 
    26551, 
    26552, 
    26553, 
    26557, 
    26558, 
    26559, 
    26560, 
    26561, 
    26562, 
    26563, 
    26564, 
    26565, 
    26566, 
    26567, 
    26568, 
    26569, 
    26573, 
    26574, 
    26575, 
    26576, 
    26577, 
    26578, 
    26579, 
    26580, 
    26581, 
    26582, 
    26583, 
    26584, 
    26585, 
    26586, 
    26587, 
    26588, 
    26589, 
    26590, 
    26591, 
    26592, 
    26593, 
    26594, 
    26595, 
    26599, 
    26600, 
    26601, 
    26602, 
    26603, 
    26604, 
    26605, 
    26606, 
    26607, 
    26608, 
    26609, 
    26610, 
    26611, 
    26615, 
    26616, 
    26617, 
    26618, 
    26619, 
    26620, 
    26621, 
    26622, 
    26623, 
    26624, 
    26625, 
    26626, 
    26627, 
    26631, 
    26632, 
    26633, 
    26634, 
    26635, 
    26636, 
    26637, 
    26638, 
    26639, 
    26640, 
    26641, 
    26642, 
    26643, 
    26647, 
    26648, 
    26649, 
    26650, 
    26651, 
    26652, 
    26653, 
    26654, 
    26655, 
    26656, 
    26657, 
    26658, 
    26659, 
    26663, 
    26664, 
    26665, 
    26666, 
    26667, 
    26668, 
    26669, 
    26670, 
    26671, 
    26672, 
    26673, 
    26674, 
    26675, 
    26679, 
    26680, 
    26681, 
    26682, 
    26683, 
    26684, 
    26685, 
    26686, 
    26687, 
    26688, 
    26689, 
    26690, 
    26691, 
    26695, 
    26696, 
    26697, 
    26698, 
    26699, 
    26700, 
    26701, 
    26702, 
    26703, 
    26704, 
    26705, 
    26706, 
    26707, 
    26711, 
    26712, 
    26713, 
    26714, 
    26715, 
    26716, 
    26717, 
    26718, 
    26719, 
    26720, 
    26721, 
    26722, 
    26723, 
    26724, 
    26725, 
    26726, 
    26727, 
    26728, 
    26729, 
    26730, 
    26731, 
    26732, 
    26733, 
    26737, 
    26738, 
    26739, 
    26740, 
    26741, 
    26742, 
    26743, 
    26744, 
    26745, 
    26746, 
    26747, 
    26748, 
    26749, 
    26753, 
    26754, 
    26755, 
    26756, 
    26757, 
    26758, 
    26759, 
    26760, 
    26761, 
    26762, 
    26763, 
    26764, 
    26765, 
    26769, 
    26770, 
    26771, 
    26772, 
    26773, 
    26774, 
    26775, 
    26776, 
    26777, 
    26778, 
    26779, 
    26780, 
    26781, 
    26785, 
    26786, 
    26787, 
    26788, 
    26789, 
    26790, 
    26791, 
    26792, 
    26793, 
    26794, 
    26795, 
    26796, 
    26797, 
    26801, 
    26802, 
    26803, 
    26804, 
    26805, 
    26806, 
    26807, 
    26808, 
    26809, 
    26810, 
    26811, 
    26812, 
    26813, 
    26817, 
    26818, 
    26819, 
    26820, 
    26821, 
    26822, 
    26823, 
    26824, 
    26825, 
    26826, 
    26827, 
    26828, 
    26829, 
    26833, 
    26834, 
    26835, 
    26836, 
    26837, 
    26838, 
    26839, 
    26840, 
    26841, 
    26842, 
    26843, 
    26844, 
    26845, 
    26849, 
    26850, 
    26851, 
    26852, 
    26853, 
    26854, 
    26855, 
    26856, 
    26857, 
    26858, 
    26859, 
    26860, 
    26861, 
    26862, 
    26863, 
    26864, 
    26865, 
    26866, 
    26867, 
    26868, 
    26869, 
    26870, 
    26871, 
    26875, 
    26876, 
    26877, 
    26878, 
    26879, 
    26880, 
    26881, 
    26882, 
    26883, 
    26884, 
    26885, 
    26886, 
    26887, 
    26891, 
    26892, 
    26893, 
    26894, 
    26895, 
    26896, 
    26897, 
    26898, 
    26899, 
    26900, 
    26901, 
    26902, 
    26903, 
    26907, 
    26908, 
    26909, 
    26910, 
    26911, 
    26912, 
    26913, 
    26914, 
    26915, 
    26916, 
    26917, 
    26918, 
    26919, 
    26923, 
    26924, 
    26925, 
    26926, 
    26927, 
    26928, 
    26929, 
    26930, 
    26931, 
    26932, 
    26933, 
    26934, 
    26935, 
    26939, 
    26940, 
    26941, 
    26942, 
    26943, 
    26944, 
    26945, 
    26946, 
    26947, 
    26948, 
    26949, 
    26950, 
    26951, 
    26955, 
    26956, 
    26957, 
    26958, 
    26959, 
    26960, 
    26961, 
    26962, 
    26963, 
    26964, 
    26965, 
    26966, 
    26967, 
    26971, 
    26972, 
    26973, 
    26974, 
    26975, 
    26976, 
    26977, 
    26978, 
    26979, 
    26980, 
    26981, 
    26982, 
    26983, 
    26987, 
    26988, 
    26989, 
    26990, 
    26991, 
    26992, 
    26993, 
    26994, 
    26995, 
    26996, 
    26997, 
    26998, 
    26999, 
    27000, 
    27001, 
    27002, 
    27003, 
    27004, 
    27005, 
    27006, 
    27007, 
    27008, 
    27009, 
    27013, 
    27014, 
    27015, 
    27016, 
    27017, 
    27018, 
    27019, 
    27020, 
    27021, 
    27022, 
    27023, 
    27024, 
    27025, 
    27029, 
    27030, 
    27031, 
    27032, 
    27033, 
    27034, 
    27035, 
    27036, 
    27037, 
    27038, 
    27039, 
    27040, 
    27041, 
    27045, 
    27046, 
    27047, 
    27048, 
    27049, 
    27050, 
    27051, 
    27052, 
    27053, 
    27054, 
    27055, 
    27056, 
    27057, 
    27061, 
    27062, 
    27063, 
    27064, 
    27065, 
    27066, 
    27067, 
    27068, 
    27069, 
    27070, 
    27071, 
    27072, 
    27073, 
    27077, 
    27078, 
    27079, 
    27080, 
    27081, 
    27082, 
    27083, 
    27084, 
    27085, 
    27086, 
    27087, 
    27088, 
    27089, 
    27093, 
    27094, 
    27095, 
    27096, 
    27097, 
    27098, 
    27099, 
    27100, 
    27101, 
    27102, 
    27103, 
    27104, 
    27105, 
    27109, 
    27110, 
    27111, 
    27112, 
    27113, 
    27114, 
    27115, 
    27116, 
    27117, 
    27118, 
    27119, 
    27120, 
    27121, 
    27125, 
    27126, 
    27127, 
    27128, 
    27129, 
    27130, 
    27131, 
    27132, 
    27133, 
    27134, 
    27135, 
    27136, 
    27137, 
    27138, 
    27139, 
    27140, 
    27141, 
    27142, 
    27143, 
    27144, 
    27145, 
    27146, 
    27147, 
    27151, 
    27152, 
    27153, 
    27154, 
    27155, 
    27156, 
    27157, 
    27158, 
    27159, 
    27160, 
    27161, 
    27162, 
    27163, 
    27167, 
    27168, 
    27169, 
    27170, 
    27171, 
    27172, 
    27173, 
    27174, 
    27175, 
    27176, 
    27177, 
    27178, 
    27179, 
    27183, 
    27184, 
    27185, 
    27186, 
    27187, 
    27188, 
    27189, 
    27190, 
    27191, 
    27192, 
    27193, 
    27194, 
    27195, 
    27199, 
    27200, 
    27201, 
    27202, 
    27203, 
    27204, 
    27205, 
    27206, 
    27207, 
    27208, 
    27209, 
    27210, 
    27211, 
    27215, 
    27216, 
    27217, 
    27218, 
    27219, 
    27220, 
    27221, 
    27222, 
    27223, 
    27224, 
    27225, 
    27226, 
    27227, 
    27231, 
    27232, 
    27233, 
    27234, 
    27235, 
    27236, 
    27237, 
    27238, 
    27239, 
    27240, 
    27241, 
    27242, 
    27243, 
    27247, 
    27248, 
    27249, 
    27250, 
    27251, 
    27252, 
    27253, 
    27254, 
    27255, 
    27256, 
    27257, 
    27258, 
    27259, 
    27263, 
    27264, 
    27265, 
    27266, 
    27267, 
    27268, 
    27269, 
    27270, 
    27271, 
    27272, 
    27273, 
    27274, 
    27275, 
    27276, 
    27277, 
    27278, 
    27279, 
    27280, 
    27281, 
    27282, 
    27283, 
    27284, 
    27285, 
    27289, 
    27290, 
    27291, 
    27292, 
    27293, 
    27294, 
    27295, 
    27296, 
    27297, 
    27298, 
    27299, 
    27300, 
    27301, 
    27305, 
    27306, 
    27307, 
    27308, 
    27309, 
    27310, 
    27311, 
    27312, 
    27313, 
    27314, 
    27315, 
    27316, 
    27317, 
    27321, 
    27322, 
    27323, 
    27324, 
    27325, 
    27326, 
    27327, 
    27328, 
    27329, 
    27330, 
    27331, 
    27332, 
    27333, 
    27337, 
    27338, 
    27339, 
    27340, 
    27341, 
    27342, 
    27343, 
    27344, 
    27345, 
    27346, 
    27347, 
    27348, 
    27349, 
    27353, 
    27354, 
    27355, 
    27356, 
    27357, 
    27358, 
    27359, 
    27360, 
    27361, 
    27362, 
    27363, 
    27364, 
    27365, 
    27369, 
    27370, 
    27371, 
    27372, 
    27373, 
    27374, 
    27375, 
    27376, 
    27377, 
    27378, 
    27379, 
    27380, 
    27381, 
    27385, 
    27386, 
    27387, 
    27388, 
    27389, 
    27390, 
    27391, 
    27392, 
    27393, 
    27394, 
    27395, 
    27396, 
    27397, 
    27401, 
    27402, 
    27403, 
    27404, 
    27405, 
    27406, 
    27407, 
    27408, 
    27409, 
    27410, 
    27411, 
    27412, 
    27413, 
    27414, 
    27415, 
    27416, 
    27417, 
    27418, 
    27419, 
    27420, 
    27421, 
    27422, 
    27423, 
    27427, 
    27428, 
    27429, 
    27430, 
    27431, 
    27432, 
    27433, 
    27434, 
    27435, 
    27436, 
    27437, 
    27438, 
    27439, 
    27443, 
    27444, 
    27445, 
    27446, 
    27447, 
    27448, 
    27449, 
    27450, 
    27451, 
    27452, 
    27453, 
    27454, 
    27455, 
    27459, 
    27460, 
    27461, 
    27462, 
    27463, 
    27464, 
    27465, 
    27466, 
    27467, 
    27468, 
    27469, 
    27470, 
    27471, 
    27475, 
    27476, 
    27477, 
    27478, 
    27479, 
    27480, 
    27481, 
    27482, 
    27483, 
    27484, 
    27485, 
    27486, 
    27487, 
    27491, 
    27492, 
    27493, 
    27494, 
    27495, 
    27496, 
    27497, 
    27498, 
    27499, 
    27500, 
    27501, 
    27502, 
    27503, 
    27507, 
    27508, 
    27509, 
    27510, 
    27511, 
    27512, 
    27513, 
    27514, 
    27515, 
    27516, 
    27517, 
    27518, 
    27519, 
    27523, 
    27524, 
    27525, 
    27526, 
    27527, 
    27528, 
    27529, 
    27530, 
    27531, 
    27532, 
    27533, 
    27534, 
    27535, 
    27539, 
    27540, 
    27541, 
    27542, 
    27543, 
    27544, 
    27545, 
    27546, 
    27547, 
    27548, 
    27549, 
    27550, 
    27551, 
    27552, 
    27553, 
    27554, 
    27555, 
    27556, 
    27557, 
    27558, 
    27559, 
    27560, 
    27561, 
    27565, 
    27566, 
    27567, 
    27568, 
    27569, 
    27570, 
    27571, 
    27572, 
    27573, 
    27574, 
    27575, 
    27576, 
    27577, 
    27581, 
    27582, 
    27583, 
    27584, 
    27585, 
    27586, 
    27587, 
    27588, 
    27589, 
    27590, 
    27591, 
    27592, 
    27593, 
    27597, 
    27598, 
    27599, 
    27600, 
    27601, 
    27602, 
    27603, 
    27604, 
    27605, 
    27606, 
    27607, 
    27608, 
    27609, 
    27613, 
    27614, 
    27615, 
    27616, 
    27617, 
    27618, 
    27619, 
    27620, 
    27621, 
    27622, 
    27623, 
    27624, 
    27625, 
    27629, 
    27630, 
    27631, 
    27632, 
    27633, 
    27634, 
    27635, 
    27636, 
    27637, 
    27638, 
    27639, 
    27640, 
    27641, 
    27645, 
    27646, 
    27647, 
    27648, 
    27649, 
    27650, 
    27651, 
    27652, 
    27653, 
    27654, 
    27655, 
    27656, 
    27657, 
    27661, 
    27662, 
    27663, 
    27664, 
    27665, 
    27666, 
    27667, 
    27668, 
    27669, 
    27670, 
    27671, 
    27672, 
    27673, 
    27677, 
    27678, 
    27679, 
    27680, 
    27681, 
    27682, 
    27683, 
    27684, 
    27685, 
    27686, 
    27687, 
    27688, 
    27689, 
    27690, 
    27691, 
    27692, 
    27693, 
    27694, 
    27695, 
    27696, 
    27697, 
    27698, 
    27699, 
    27703, 
    27704, 
    27705, 
    27706, 
    27707, 
    27708, 
    27709, 
    27710, 
    27711, 
    27712, 
    27713, 
    27714, 
    27715, 
    27719, 
    27720, 
    27721, 
    27722, 
    27723, 
    27724, 
    27725, 
    27726, 
    27727, 
    27728, 
    27729, 
    27730, 
    27731, 
    27735, 
    27736, 
    27737, 
    27738, 
    27739, 
    27740, 
    27741, 
    27742, 
    27743, 
    27744, 
    27745, 
    27746, 
    27747, 
    27751, 
    27752, 
    27753, 
    27754, 
    27755, 
    27756, 
    27757, 
    27758, 
    27759, 
    27760, 
    27761, 
    27762, 
    27763, 
    27767, 
    27768, 
    27769, 
    27770, 
    27771, 
    27772, 
    27773, 
    27774, 
    27775, 
    27776, 
    27777, 
    27778, 
    27779, 
    27783, 
    27784, 
    27785, 
    27786, 
    27787, 
    27788, 
    27789, 
    27790, 
    27791, 
    27792, 
    27793, 
    27794, 
    27795, 
    27799, 
    27800, 
    27801, 
    27802, 
    27803, 
    27804, 
    27805, 
    27806, 
    27807, 
    27808, 
    27809, 
    27810, 
    27811, 
    27815, 
    27816, 
    27817, 
    27818, 
    27819, 
    27820, 
    27821, 
    27822, 
    27823, 
    27824, 
    27825, 
    27826, 
    27827, 
    27828, 
    27829, 
    27830, 
    27831, 
    27832, 
    27833, 
    27834, 
    27835, 
    27836, 
    27837, 
    27841, 
    27842, 
    27843, 
    27844, 
    27845, 
    27846, 
    27847, 
    27848, 
    27849, 
    27850, 
    27851, 
    27852, 
    27853, 
    27857, 
    27858, 
    27859, 
    27860, 
    27861, 
    27862, 
    27863, 
    27864, 
    27865, 
    27866, 
    27867, 
    27868, 
    27869, 
    27873, 
    27874, 
    27875, 
    27876, 
    27877, 
    27878, 
    27879, 
    27880, 
    27881, 
    27882, 
    27883, 
    27884, 
    27885, 
    27889, 
    27890, 
    27891, 
    27892, 
    27893, 
    27894, 
    27895, 
    27896, 
    27897, 
    27898, 
    27899, 
    27900, 
    27901, 
    27905, 
    27906, 
    27907, 
    27908, 
    27909, 
    27910, 
    27911, 
    27912, 
    27913, 
    27914, 
    27915, 
    27916, 
    27917, 
    27921, 
    27922, 
    27923, 
    27924, 
    27925, 
    27926, 
    27927, 
    27928, 
    27929, 
    27930, 
    27931, 
    27932, 
    27933, 
    27937, 
    27938, 
    27939, 
    27940, 
    27941, 
    27942, 
    27943, 
    27944, 
    27945, 
    27946, 
    27947, 
    27948, 
    27949, 
    27953, 
    27954, 
    27955, 
    27956, 
    27957, 
    27958, 
    27959, 
    27960, 
    27961, 
    27962, 
    27963, 
    27964, 
    27965, 
    27966, 
    27967, 
    27968, 
    27969, 
    27970, 
    27971, 
    27972, 
    27973, 
    27974, 
    27975, 
    27979, 
    27980, 
    27981, 
    27982, 
    27983, 
    27984, 
    27985, 
    27986, 
    27987, 
    27988, 
    27989, 
    27990, 
    27991, 
    27995, 
    27996, 
    27997, 
    27998, 
    27999, 
    28000, 
    28001, 
    28002, 
    28003, 
    28004, 
    28005, 
    28006, 
    28007, 
    28011, 
    28012, 
    28013, 
    28014, 
    28015, 
    28016, 
    28017, 
    28018, 
    28019, 
    28020, 
    28021, 
    28022, 
    28023, 
    28027, 
    28028, 
    28029, 
    28030, 
    28031, 
    28032, 
    28033, 
    28034, 
    28035, 
    28036, 
    28037, 
    28038, 
    28039, 
    28043, 
    28044, 
    28045, 
    28046, 
    28047, 
    28048, 
    28049, 
    28050, 
    28051, 
    28052, 
    28053, 
    28054, 
    28055, 
    28059, 
    28060, 
    28061, 
    28062, 
    28063, 
    28064, 
    28065, 
    28066, 
    28067, 
    28068, 
    28069, 
    28070, 
    28071, 
    28075, 
    28076, 
    28077, 
    28078, 
    28079, 
    28080, 
    28081, 
    28082, 
    28083, 
    28084, 
    28085, 
    28086, 
    28087, 
    28091, 
    28092, 
    28093, 
    28094, 
    28095, 
    28096, 
    28097, 
    28098, 
    28099, 
    28100, 
    28101, 
    28102, 
    28103, 
    28104, 
    28105, 
    28106, 
    28107, 
    28108, 
    28109, 
    28110, 
    28111, 
    28112, 
    28113, 
    28117, 
    28118, 
    28119, 
    28120, 
    28121, 
    28122, 
    28123, 
    28124, 
    28125, 
    28126, 
    28127, 
    28128, 
    28129, 
    28133, 
    28134, 
    28135, 
    28136, 
    28137, 
    28138, 
    28139, 
    28140, 
    28141, 
    28142, 
    28143, 
    28144, 
    28145, 
    28149, 
    28150, 
    28151, 
    28152, 
    28153, 
    28154, 
    28155, 
    28156, 
    28157, 
    28158, 
    28159, 
    28160, 
    28161, 
    28165, 
    28166, 
    28167, 
    28168, 
    28169, 
    28170, 
    28171, 
    28172, 
    28173, 
    28174, 
    28175, 
    28176, 
    28177, 
    28181, 
    28182, 
    28183, 
    28184, 
    28185, 
    28186, 
    28187, 
    28188, 
    28189, 
    28190, 
    28191, 
    28192, 
    28193, 
    28197, 
    28198, 
    28199, 
    28200, 
    28201, 
    28202, 
    28203, 
    28204, 
    28205, 
    28206, 
    28207, 
    28208, 
    28209, 
    28213, 
    28214, 
    28215, 
    28216, 
    28217, 
    28218, 
    28219, 
    28220, 
    28221, 
    28222, 
    28223, 
    28224, 
    28225, 
    28229, 
    28230, 
    28231, 
    28232, 
    28233, 
    28234, 
    28235, 
    28236, 
    28237, 
    28238, 
    28239, 
    28240, 
    28241, 
    28242, 
    28243, 
    28244, 
    28245, 
    28246, 
    28247, 
    28248, 
    28249, 
    28250, 
    28251, 
    28255, 
    28256, 
    28257, 
    28258, 
    28259, 
    28260, 
    28261, 
    28262, 
    28263, 
    28264, 
    28265, 
    28266, 
    28267, 
    28271, 
    28272, 
    28273, 
    28274, 
    28275, 
    28276, 
    28277, 
    28278, 
    28279, 
    28280, 
    28281, 
    28282, 
    28283, 
    28287, 
    28288, 
    28289, 
    28290, 
    28291, 
    28292, 
    28293, 
    28294, 
    28295, 
    28296, 
    28297, 
    28298, 
    28299, 
    28303, 
    28304, 
    28305, 
    28306, 
    28307, 
    28308, 
    28309, 
    28310, 
    28311, 
    28312, 
    28313, 
    28314, 
    28315, 
    28319, 
    28320, 
    28321, 
    28322, 
    28323, 
    28324, 
    28325, 
    28326, 
    28327, 
    28328, 
    28329, 
    28330, 
    28331, 
    28335, 
    28336, 
    28337, 
    28338, 
    28339, 
    28340, 
    28341, 
    28342, 
    28343, 
    28344, 
    28345, 
    28346, 
    28347, 
    28351, 
    28352, 
    28353, 
    28354, 
    28355, 
    28356, 
    28357, 
    28358, 
    28359, 
    28360, 
    28361, 
    28362, 
    28363, 
    28367, 
    28368, 
    28369, 
    28370, 
    28371, 
    28372, 
    28373, 
    28374, 
    28375, 
    28376, 
    28377, 
    28378, 
    28379, 
    28380, 
    28381, 
    28382, 
    28383, 
    28384, 
    28385, 
    28386, 
    28387, 
    28388, 
    28389, 
    28393, 
    28394, 
    28395, 
    28396, 
    28397, 
    28398, 
    28399, 
    28400, 
    28401, 
    28402, 
    28403, 
    28404, 
    28405, 
    28409, 
    28410, 
    28411, 
    28412, 
    28413, 
    28414, 
    28415, 
    28416, 
    28417, 
    28418, 
    28419, 
    28420, 
    28421, 
    28425, 
    28426, 
    28427, 
    28428, 
    28429, 
    28430, 
    28431, 
    28432, 
    28433, 
    28434, 
    28435, 
    28436, 
    28437, 
    28441, 
    28442, 
    28443, 
    28444, 
    28445, 
    28446, 
    28447, 
    28448, 
    28449, 
    28450, 
    28451, 
    28452, 
    28453, 
    28457, 
    28458, 
    28459, 
    28460, 
    28461, 
    28462, 
    28463, 
    28464, 
    28465, 
    28466, 
    28467, 
    28468, 
    28469, 
    28473, 
    28474, 
    28475, 
    28476, 
    28477, 
    28478, 
    28479, 
    28480, 
    28481, 
    28482, 
    28483, 
    28484, 
    28485, 
    28489, 
    28490, 
    28491, 
    28492, 
    28493, 
    28494, 
    28495, 
    28496, 
    28497, 
    28498, 
    28499, 
    28500, 
    28501, 
    28505, 
    28506, 
    28507, 
    28508, 
    28509, 
    28510, 
    28511, 
    28512, 
    28513, 
    28514, 
    28515, 
    28516, 
    28517, 
    28518, 
    28519, 
    28520, 
    28521, 
    28522, 
    28523, 
    28524, 
    28525, 
    28526, 
    28527, 
    28531, 
    28532, 
    28533, 
    28534, 
    28535, 
    28536, 
    28537, 
    28538, 
    28539, 
    28540, 
    28541, 
    28542, 
    28543, 
    28547, 
    28548, 
    28549, 
    28550, 
    28551, 
    28552, 
    28553, 
    28554, 
    28555, 
    28556, 
    28557, 
    28558, 
    28559, 
    28563, 
    28564, 
    28565, 
    28566, 
    28567, 
    28568, 
    28569, 
    28570, 
    28571, 
    28572, 
    28573, 
    28574, 
    28575, 
    28579, 
    28580, 
    28581, 
    28582, 
    28583, 
    28584, 
    28585, 
    28586, 
    28587, 
    28588, 
    28589, 
    28590, 
    28591, 
    28595, 
    28596, 
    28597, 
    28598, 
    28599, 
    28600, 
    28601, 
    28602, 
    28603, 
    28604, 
    28605, 
    28606, 
    28607, 
    28611, 
    28612, 
    28613, 
    28614, 
    28615, 
    28616, 
    28617, 
    28618, 
    28619, 
    28620, 
    28621, 
    28622, 
    28623, 
    28627, 
    28628, 
    28629, 
    28630, 
    28631, 
    28632, 
    28633, 
    28634, 
    28635, 
    28636, 
    28637, 
    28638, 
    28639, 
    28643, 
    28644, 
    28645, 
    28646, 
    28647, 
    28648, 
    28649, 
    28650, 
    28651, 
    28652, 
    28653, 
    28654, 
    28655, 
    28656, 
    28657, 
    28658, 
    28659, 
    28660, 
    28661, 
    28662, 
    28663, 
    28664, 
    28665, 
    28669, 
    28670, 
    28671, 
    28672, 
    28673, 
    28674, 
    28675, 
    28676, 
    28677, 
    28678, 
    28679, 
    28680, 
    28681, 
    28685, 
    28686, 
    28687, 
    28688, 
    28689, 
    28690, 
    28691, 
    28692, 
    28693, 
    28694, 
    28695, 
    28696, 
    28697, 
    28701, 
    28702, 
    28703, 
    28704, 
    28705, 
    28706, 
    28707, 
    28708, 
    28709, 
    28710, 
    28711, 
    28712, 
    28713, 
    28717, 
    28718, 
    28719, 
    28720, 
    28721, 
    28722, 
    28723, 
    28724, 
    28725, 
    28726, 
    28727, 
    28728, 
    28729, 
    28733, 
    28734, 
    28735, 
    28736, 
    28737, 
    28738, 
    28739, 
    28740, 
    28741, 
    28742, 
    28743, 
    28744, 
    28745, 
    28749, 
    28750, 
    28751, 
    28752, 
    28753, 
    28754, 
    28755, 
    28756, 
    28757, 
    28758, 
    28759, 
    28760, 
    28761, 
    28765, 
    28766, 
    28767, 
    28768, 
    28769, 
    28770, 
    28771, 
    28772, 
    28773, 
    28774, 
    28775, 
    28776, 
    28777, 
    28781, 
    28782, 
    28783, 
    28784, 
    28785, 
    28786, 
    28787, 
    28788, 
    28789, 
    28790, 
    28791, 
    28792, 
    28793, 
    28794, 
    28795, 
    28796, 
    28797, 
    28798, 
    28799, 
    28800, 
    28801, 
    28802, 
    28803, 
    28807, 
    28808, 
    28809, 
    28810, 
    28811, 
    28812, 
    28813, 
    28814, 
    28815, 
    28816, 
    28817, 
    28818, 
    28819, 
    28823, 
    28824, 
    28825, 
    28826, 
    28827, 
    28828, 
    28829, 
    28830, 
    28831, 
    28832, 
    28833, 
    28834, 
    28835, 
    28839, 
    28840, 
    28841, 
    28842, 
    28843, 
    28844, 
    28845, 
    28846, 
    28847, 
    28848, 
    28849, 
    28850, 
    28851, 
    28855, 
    28856, 
    28857, 
    28858, 
    28859, 
    28860, 
    28861, 
    28862, 
    28863, 
    28864, 
    28865, 
    28866, 
    28867, 
    28871, 
    28872, 
    28873, 
    28874, 
    28875, 
    28876, 
    28877, 
    28878, 
    28879, 
    28880, 
    28881, 
    28882, 
    28883, 
    28887, 
    28888, 
    28889, 
    28890, 
    28891, 
    28892, 
    28893, 
    28894, 
    28895, 
    28896, 
    28897, 
    28898, 
    28899, 
    28903, 
    28904, 
    28905, 
    28906, 
    28907, 
    28908, 
    28909, 
    28910, 
    28911, 
    28912, 
    28913, 
    28914, 
    28915, 
    28919, 
    28920, 
    28921, 
    28922, 
    28923, 
    28924, 
    28925, 
    28926, 
    28927, 
    28928, 
    28929, 
    28930, 
    28931, 
    28932, 
    28933, 
    28934, 
    28935, 
    28936, 
    28937, 
    28938, 
    28939, 
    28940, 
    28941, 
    28945, 
    28946, 
    28947, 
    28948, 
    28949, 
    28950, 
    28951, 
    28952, 
    28953, 
    28954, 
    28955, 
    28956, 
    28957, 
    28961, 
    28962, 
    28963, 
    28964, 
    28965, 
    28966, 
    28967, 
    28968, 
    28969, 
    28970, 
    28971, 
    28972, 
    28973, 
    28977, 
    28978, 
    28979, 
    28980, 
    28981, 
    28982, 
    28983, 
    28984, 
    28985, 
    28986, 
    28987, 
    28988, 
    28989, 
    28993, 
    28994, 
    28995, 
    28996, 
    28997, 
    28998, 
    28999, 
    29000, 
    29001, 
    29002, 
    29003, 
    29004, 
    29005, 
    29009, 
    29010, 
    29011, 
    29012, 
    29013, 
    29014, 
    29015, 
    29016, 
    29017, 
    29018, 
    29019, 
    29020, 
    29021, 
    29025, 
    29026, 
    29027, 
    29028, 
    29029, 
    29030, 
    29031, 
    29032, 
    29033, 
    29034, 
    29035, 
    29036, 
    29037, 
    29041, 
    29042, 
    29043, 
    29044, 
    29045, 
    29046, 
    29047, 
    29048, 
    29049, 
    29050, 
    29051, 
    29052, 
    29053, 
    29057, 
    29058, 
    29059, 
    29060, 
    29061, 
    29062, 
    29063, 
    29064, 
    29065, 
    29066, 
    29067, 
    29068, 
    29069, 
    29070, 
    29071, 
    29072, 
    29073, 
    29074, 
    29075, 
    29076, 
    29077, 
    29078, 
    29079, 
    29080, 
    29081, 
    29082, 
    29083
  ], 
  "heads": [[23586, 0, 0]], 
  "attrs": {"mxnet_version": ["int", 10300]}
}