{
  "nodes": [
    {
      "op": "null", 
      "name": "target", 
      "inputs": []
    }, 
    {
      "op": "null", 
      "name": "target_embed_weight", 
      "attrs": {"__shape__": "(22666, 512)"}, 
      "inputs": []
    }, 
    {
      "op": "Embedding", 
      "name": "target_embed_embed", 
      "attrs": {
        "input_dim": "22666", 
        "output_dim": "512"
      }, 
      "inputs": [[0, 0, 0], [1, 0, 0]]
    }, 
    {
      "op": "_mul_scalar", 
      "name": "_mulscalar7", 
      "attrs": {"scalar": "22.627416997969522"}, 
      "inputs": [[2, 0, 0]]
    }, 
    {
      "op": "Custom", 
      "name": "target_pos_embed_positional_encodings", 
      "attrs": {
        "depth": "512", 
        "length": "100", 
        "op_type": "positional_encodings"
      }, 
      "inputs": []
    }, 
    {
      "op": "BlockGrad", 
      "name": "blockgrad2", 
      "inputs": [[4, 0, 0]]
    }, 
    {
      "op": "broadcast_add", 
      "name": "broadcast_add1", 
      "inputs": [[3, 0, 0], [5, 0, 0]]
    }, 
    {
      "op": "null", 
      "name": "decoder_transformer_0_att_self_i2h_weight", 
      "inputs": []
    }, 
    {
      "op": "FullyConnected", 
      "name": "decoder_transformer_0_att_self_qkv_transform", 
      "attrs": {
        "flatten": "False", 
        "no_bias": "True", 
        "num_hidden": "1536"
      }, 
      "inputs": [[6, 0, 0], [7, 0, 0]]
    }, 
    {
      "op": "SliceChannel", 
      "name": "split7", 
      "attrs": {
        "axis": "2", 
        "num_outputs": "3"
      }, 
      "inputs": [[8, 0, 0]]
    }, 
    {
      "op": "_mul_scalar", 
      "name": "_mulscalar8", 
      "attrs": {"scalar": "0.125"}, 
      "inputs": [[9, 0, 0]]
    }, 
    {
      "op": "Reshape", 
      "name": "reshape51", 
      "attrs": {"shape": "(0, -1, 8, 64)"}, 
      "inputs": [[10, 0, 0]]
    }, 
    {
      "op": "transpose", 
      "name": "transpose24", 
      "attrs": {"axes": "(0, 2, 1, 3)"}, 
      "inputs": [[11, 0, 0]]
    }, 
    {
      "op": "Reshape", 
      "name": "reshape52", 
      "attrs": {"shape": "(-3, -1, 64)"}, 
      "inputs": [[12, 0, 0]]
    }, 
    {
      "op": "Reshape", 
      "name": "reshape53", 
      "attrs": {"shape": "(0, -1, 8, 64)"}, 
      "inputs": [[9, 1, 0]]
    }, 
    {
      "op": "transpose", 
      "name": "transpose25", 
      "attrs": {"axes": "(0, 2, 1, 3)"}, 
      "inputs": [[14, 0, 0]]
    }, 
    {
      "op": "Reshape", 
      "name": "reshape54", 
      "attrs": {"shape": "(-3, -1, 64)"}, 
      "inputs": [[15, 0, 0]]
    }, 
    {
      "op": "batch_dot", 
      "name": "decoder_transformer_0_att_self_dot", 
      "attrs": {"transpose_b": "True"}, 
      "inputs": [[13, 0, 0], [16, 0, 0]]
    }, 
    {
      "op": "Custom", 
      "name": "decoder_transformer_target_bias", 
      "attrs": {
        "length": "100", 
        "op_type": "auto_regressive_bias"
      }, 
      "inputs": []
    }, 
    {
      "op": "BlockGrad", 
      "name": "blockgrad1", 
      "inputs": [[18, 0, 0]]
    }, 
    {
      "op": "broadcast_add", 
      "name": "decoder_transformer_0_att_self_bias_add", 
      "inputs": [[17, 0, 0], [19, 0, 0]]
    }, 
    {
      "op": "softmax", 
      "name": "softmax6", 
      "attrs": {"axis": "-1"}, 
      "inputs": [[20, 0, 0]]
    }, 
    {
      "op": "Reshape", 
      "name": "reshape55", 
      "attrs": {"shape": "(0, -1, 8, 64)"}, 
      "inputs": [[9, 2, 0]]
    }, 
    {
      "op": "transpose", 
      "name": "transpose26", 
      "attrs": {"axes": "(0, 2, 1, 3)"}, 
      "inputs": [[22, 0, 0]]
    }, 
    {
      "op": "Reshape", 
      "name": "reshape56", 
      "attrs": {"shape": "(-3, -1, 64)"}, 
      "inputs": [[23, 0, 0]]
    }, 
    {
      "op": "batch_dot", 
      "name": "decoder_transformer_0_att_self_contexts", 
      "inputs": [[21, 0, 0], [24, 0, 0]]
    }, 
    {
      "op": "Reshape", 
      "name": "reshape57", 
      "attrs": {"shape": "(-4, -1, 8, 0, 64)"}, 
      "inputs": [[25, 0, 0]]
    }, 
    {
      "op": "transpose", 
      "name": "transpose27", 
      "attrs": {"axes": "(0, 2, 1, 3)"}, 
      "inputs": [[26, 0, 0]]
    }, 
    {
      "op": "Reshape", 
      "name": "reshape58", 
      "attrs": {"shape": "(-1, 0, 512)"}, 
      "inputs": [[27, 0, 0]]
    }, 
    {
      "op": "null", 
      "name": "decoder_transformer_0_att_self_h2o_weight", 
      "inputs": []
    }, 
    {
      "op": "FullyConnected", 
      "name": "fullyconnected18", 
      "attrs": {
        "flatten": "False", 
        "no_bias": "True", 
        "num_hidden": "512"
      }, 
      "inputs": [[28, 0, 0], [29, 0, 0]]
    }, 
    {
      "op": "elemwise_add", 
      "name": "decoder_transformer_0_att_self_post_residual", 
      "inputs": [[30, 0, 0], [6, 0, 0]]
    }, 
    {
      "op": "mean", 
      "name": "mean24", 
      "attrs": {
        "axis": "-1", 
        "keepdims": "True"
      }, 
      "inputs": [[31, 0, 0]]
    }, 
    {
      "op": "broadcast_sub", 
      "name": "decoder_transformer_0_att_self_post_norminp_minus_mean", 
      "inputs": [[31, 0, 0], [32, 0, 0]]
    }, 
    {
      "op": "broadcast_sub", 
      "name": "broadcast_minus12", 
      "inputs": [[31, 0, 0], [32, 0, 0]]
    }, 
    {
      "op": "square", 
      "name": "square12", 
      "inputs": [[34, 0, 0]]
    }, 
    {
      "op": "mean", 
      "name": "mean25", 
      "attrs": {
        "axis": "-1", 
        "keepdims": "True"
      }, 
      "inputs": [[35, 0, 0]]
    }, 
    {
      "op": "_plus_scalar", 
      "name": "_plusscalar12", 
      "attrs": {"scalar": "1e-06"}, 
      "inputs": [[36, 0, 0]]
    }, 
    {
      "op": "rsqrt", 
      "name": "rsqrt12", 
      "inputs": [[37, 0, 0]]
    }, 
    {
      "op": "broadcast_mul", 
      "name": "decoder_transformer_0_att_self_post_norminp_norm", 
      "inputs": [[33, 0, 0], [38, 0, 0]]
    }, 
    {
      "op": "null", 
      "name": "decoder_transformer_0_att_self_post_norm_gamma", 
      "attrs": {
        "__init__": "[\"constant\", {\"value\": 1.0}]", 
        "__shape__": "(512,)"
      }, 
      "inputs": []
    }, 
    {
      "op": "broadcast_mul", 
      "name": "decoder_transformer_0_att_self_post_norminp_norm_scaled", 
      "inputs": [[39, 0, 0], [40, 0, 0]]
    }, 
    {
      "op": "null", 
      "name": "decoder_transformer_0_att_self_post_norm_beta", 
      "attrs": {
        "__init__": "[\"constant\", {\"value\": 0.0}]", 
        "__shape__": "(512,)"
      }, 
      "inputs": []
    }, 
    {
      "op": "broadcast_add", 
      "name": "decoder_transformer_0_att_self_post_norminp_norm_scaled_shifted", 
      "inputs": [[41, 0, 0], [42, 0, 0]]
    }, 
    {
      "op": "null", 
      "name": "decoder_transformer_0_att_enc_q2h_weight", 
      "inputs": []
    }, 
    {
      "op": "FullyConnected", 
      "name": "decoder_transformer_0_att_enc_q_transform", 
      "attrs": {
        "flatten": "False", 
        "no_bias": "True", 
        "num_hidden": "512"
      }, 
      "inputs": [[43, 0, 0], [44, 0, 0]]
    }, 
    {
      "op": "_mul_scalar", 
      "name": "_mulscalar9", 
      "attrs": {"scalar": "0.125"}, 
      "inputs": [[45, 0, 0]]
    }, 
    {
      "op": "Reshape", 
      "name": "reshape59", 
      "attrs": {"shape": "(0, -1, 8, 64)"}, 
      "inputs": [[46, 0, 0]]
    }, 
    {
      "op": "transpose", 
      "name": "transpose28", 
      "attrs": {"axes": "(0, 2, 1, 3)"}, 
      "inputs": [[47, 0, 0]]
    }, 
    {
      "op": "Reshape", 
      "name": "reshape60", 
      "attrs": {"shape": "(-3, -1, 64)"}, 
      "inputs": [[48, 0, 0]]
    }, 
    {
      "op": "null", 
      "name": "source", 
      "inputs": []
    }, 
    {
      "op": "SliceChannel", 
      "name": "source_embed_factor_split", 
      "attrs": {
        "axis": "2", 
        "num_outputs": "1", 
        "squeeze_axis": "True"
      }, 
      "inputs": [[50, 0, 0]]
    }, 
    {
      "op": "null", 
      "name": "source_embed_weight", 
      "attrs": {"__shape__": "(29350, 512)"}, 
      "inputs": []
    }, 
    {
      "op": "Embedding", 
      "name": "source_embed_embed", 
      "attrs": {
        "input_dim": "29350", 
        "output_dim": "512"
      }, 
      "inputs": [[51, 0, 0], [52, 0, 0]]
    }, 
    {
      "op": "_mul_scalar", 
      "name": "_mulscalar0", 
      "attrs": {"scalar": "22.627416997969522"}, 
      "inputs": [[53, 0, 0]]
    }, 
    {
      "op": "Custom", 
      "name": "source_pos_embed_positional_encodings", 
      "attrs": {
        "depth": "512", 
        "length": "100", 
        "op_type": "positional_encodings"
      }, 
      "inputs": []
    }, 
    {
      "op": "BlockGrad", 
      "name": "blockgrad0", 
      "inputs": [[55, 0, 0]]
    }, 
    {
      "op": "broadcast_add", 
      "name": "broadcast_add0", 
      "inputs": [[54, 0, 0], [56, 0, 0]]
    }, 
    {
      "op": "null", 
      "name": "encoder_transformer_0_att_self_i2h_weight", 
      "inputs": []
    }, 
    {
      "op": "FullyConnected", 
      "name": "encoder_transformer_0_att_self_qkv_transform", 
      "attrs": {
        "flatten": "False", 
        "no_bias": "True", 
        "num_hidden": "1536"
      }, 
      "inputs": [[57, 0, 0], [58, 0, 0]]
    }, 
    {
      "op": "SliceChannel", 
      "name": "split1", 
      "attrs": {
        "axis": "2", 
        "num_outputs": "3"
      }, 
      "inputs": [[59, 0, 0]]
    }, 
    {
      "op": "_mul_scalar", 
      "name": "_mulscalar1", 
      "attrs": {"scalar": "0.125"}, 
      "inputs": [[60, 0, 0]]
    }, 
    {
      "op": "Reshape", 
      "name": "reshape2", 
      "attrs": {"shape": "(0, -1, 8, 64)"}, 
      "inputs": [[61, 0, 0]]
    }, 
    {
      "op": "transpose", 
      "name": "transpose0", 
      "attrs": {"axes": "(0, 2, 1, 3)"}, 
      "inputs": [[62, 0, 0]]
    }, 
    {
      "op": "Reshape", 
      "name": "reshape3", 
      "attrs": {"shape": "(-3, -1, 64)"}, 
      "inputs": [[63, 0, 0]]
    }, 
    {
      "op": "Reshape", 
      "name": "reshape4", 
      "attrs": {"shape": "(0, -1, 8, 64)"}, 
      "inputs": [[60, 1, 0]]
    }, 
    {
      "op": "transpose", 
      "name": "transpose1", 
      "attrs": {"axes": "(0, 2, 1, 3)"}, 
      "inputs": [[65, 0, 0]]
    }, 
    {
      "op": "Reshape", 
      "name": "reshape5", 
      "attrs": {"shape": "(-3, -1, 64)"}, 
      "inputs": [[66, 0, 0]]
    }, 
    {
      "op": "batch_dot", 
      "name": "encoder_transformer_0_att_self_dot", 
      "attrs": {"transpose_b": "True"}, 
      "inputs": [[64, 0, 0], [67, 0, 0]]
    }, 
    {
      "op": "SliceChannel", 
      "name": "split0", 
      "attrs": {
        "axis": "2", 
        "num_outputs": "1", 
        "squeeze_axis": "True"
      }, 
      "inputs": [[50, 0, 0]]
    }, 
    {
      "op": "_zeros", 
      "name": "_zeros0", 
      "attrs": {
        "dtype": "float32", 
        "shape": "(1,)"
      }, 
      "inputs": []
    }, 
    {
      "op": "broadcast_not_equal", 
      "name": "broadcast_not_equal0", 
      "inputs": [[69, 0, 0], [70, 0, 0]]
    }, 
    {
      "op": "sum", 
      "name": "sum0", 
      "attrs": {"axis": "1"}, 
      "inputs": [[71, 0, 0]]
    }, 
    {
      "op": "Custom", 
      "name": "custom0", 
      "attrs": {
        "max_length": "100", 
        "op_type": "variable_length_bias"
      }, 
      "inputs": [[72, 0, 0]]
    }, 
    {
      "op": "expand_dims", 
      "name": "expand_dims0", 
      "attrs": {"axis": "1"}, 
      "inputs": [[73, 0, 0]]
    }, 
    {
      "op": "broadcast_to", 
      "name": "broadcast_to0", 
      "attrs": {"shape": "[0, 8, 0]"}, 
      "inputs": [[74, 0, 0]]
    }, 
    {
      "op": "Reshape", 
      "name": "reshape1", 
      "attrs": {"shape": "[-3, 0]"}, 
      "inputs": [[75, 0, 0]]
    }, 
    {
      "op": "BlockGrad", 
      "name": "encoder_transformer_biasbias", 
      "inputs": [[76, 0, 0]]
    }, 
    {
      "op": "expand_dims", 
      "name": "expand_dims1", 
      "attrs": {"axis": "1"}, 
      "inputs": [[77, 0, 0]]
    }, 
    {
      "op": "broadcast_add", 
      "name": "encoder_transformer_0_att_self_bias_add", 
      "inputs": [[68, 0, 0], [78, 0, 0]]
    }, 
    {
      "op": "softmax", 
      "name": "softmax0", 
      "attrs": {"axis": "-1"}, 
      "inputs": [[79, 0, 0]]
    }, 
    {
      "op": "Reshape", 
      "name": "reshape6", 
      "attrs": {"shape": "(0, -1, 8, 64)"}, 
      "inputs": [[60, 2, 0]]
    }, 
    {
      "op": "transpose", 
      "name": "transpose2", 
      "attrs": {"axes": "(0, 2, 1, 3)"}, 
      "inputs": [[81, 0, 0]]
    }, 
    {
      "op": "Reshape", 
      "name": "reshape7", 
      "attrs": {"shape": "(-3, -1, 64)"}, 
      "inputs": [[82, 0, 0]]
    }, 
    {
      "op": "batch_dot", 
      "name": "encoder_transformer_0_att_self_contexts", 
      "inputs": [[80, 0, 0], [83, 0, 0]]
    }, 
    {
      "op": "Reshape", 
      "name": "reshape8", 
      "attrs": {"shape": "(-4, -1, 8, 0, 64)"}, 
      "inputs": [[84, 0, 0]]
    }, 
    {
      "op": "transpose", 
      "name": "transpose3", 
      "attrs": {"axes": "(0, 2, 1, 3)"}, 
      "inputs": [[85, 0, 0]]
    }, 
    {
      "op": "Reshape", 
      "name": "reshape9", 
      "attrs": {"shape": "(-1, 0, 512)"}, 
      "inputs": [[86, 0, 0]]
    }, 
    {
      "op": "null", 
      "name": "encoder_transformer_0_att_self_h2o_weight", 
      "inputs": []
    }, 
    {
      "op": "FullyConnected", 
      "name": "fullyconnected0", 
      "attrs": {
        "flatten": "False", 
        "no_bias": "True", 
        "num_hidden": "512"
      }, 
      "inputs": [[87, 0, 0], [88, 0, 0]]
    }, 
    {
      "op": "elemwise_add", 
      "name": "encoder_transformer_0_att_self_post_residual", 
      "inputs": [[89, 0, 0], [57, 0, 0]]
    }, 
    {
      "op": "mean", 
      "name": "mean0", 
      "attrs": {
        "axis": "-1", 
        "keepdims": "True"
      }, 
      "inputs": [[90, 0, 0]]
    }, 
    {
      "op": "broadcast_sub", 
      "name": "encoder_transformer_0_att_self_post_norminp_minus_mean", 
      "inputs": [[90, 0, 0], [91, 0, 0]]
    }, 
    {
      "op": "broadcast_sub", 
      "name": "broadcast_minus0", 
      "inputs": [[90, 0, 0], [91, 0, 0]]
    }, 
    {
      "op": "square", 
      "name": "square0", 
      "inputs": [[93, 0, 0]]
    }, 
    {
      "op": "mean", 
      "name": "mean1", 
      "attrs": {
        "axis": "-1", 
        "keepdims": "True"
      }, 
      "inputs": [[94, 0, 0]]
    }, 
    {
      "op": "_plus_scalar", 
      "name": "_plusscalar0", 
      "attrs": {"scalar": "1e-06"}, 
      "inputs": [[95, 0, 0]]
    }, 
    {
      "op": "rsqrt", 
      "name": "rsqrt0", 
      "inputs": [[96, 0, 0]]
    }, 
    {
      "op": "broadcast_mul", 
      "name": "encoder_transformer_0_att_self_post_norminp_norm", 
      "inputs": [[92, 0, 0], [97, 0, 0]]
    }, 
    {
      "op": "null", 
      "name": "encoder_transformer_0_att_self_post_norm_gamma", 
      "attrs": {
        "__init__": "[\"constant\", {\"value\": 1.0}]", 
        "__shape__": "(512,)"
      }, 
      "inputs": []
    }, 
    {
      "op": "broadcast_mul", 
      "name": "encoder_transformer_0_att_self_post_norminp_norm_scaled", 
      "inputs": [[98, 0, 0], [99, 0, 0]]
    }, 
    {
      "op": "null", 
      "name": "encoder_transformer_0_att_self_post_norm_beta", 
      "attrs": {
        "__init__": "[\"constant\", {\"value\": 0.0}]", 
        "__shape__": "(512,)"
      }, 
      "inputs": []
    }, 
    {
      "op": "broadcast_add", 
      "name": "encoder_transformer_0_att_self_post_norminp_norm_scaled_shifted", 
      "inputs": [[100, 0, 0], [101, 0, 0]]
    }, 
    {
      "op": "null", 
      "name": "encoder_transformer_0_ff_i2h_weight", 
      "inputs": []
    }, 
    {
      "op": "null", 
      "name": "encoder_transformer_0_ff_i2h_bias", 
      "inputs": []
    }, 
    {
      "op": "FullyConnected", 
      "name": "fullyconnected1", 
      "attrs": {
        "flatten": "False", 
        "num_hidden": "2048"
      }, 
      "inputs": [[102, 0, 0], [103, 0, 0], [104, 0, 0]]
    }, 
    {
      "op": "Activation", 
      "name": "activation0", 
      "attrs": {"act_type": "relu"}, 
      "inputs": [[105, 0, 0]]
    }, 
    {
      "op": "null", 
      "name": "encoder_transformer_0_ff_h2o_weight", 
      "inputs": []
    }, 
    {
      "op": "null", 
      "name": "encoder_transformer_0_ff_h2o_bias", 
      "inputs": []
    }, 
    {
      "op": "FullyConnected", 
      "name": "fullyconnected2", 
      "attrs": {
        "flatten": "False", 
        "num_hidden": "512"
      }, 
      "inputs": [[106, 0, 0], [107, 0, 0], [108, 0, 0]]
    }, 
    {
      "op": "elemwise_add", 
      "name": "encoder_transformer_0_ff_post_residual", 
      "inputs": [[109, 0, 0], [102, 0, 0]]
    }, 
    {
      "op": "mean", 
      "name": "mean2", 
      "attrs": {
        "axis": "-1", 
        "keepdims": "True"
      }, 
      "inputs": [[110, 0, 0]]
    }, 
    {
      "op": "broadcast_sub", 
      "name": "encoder_transformer_0_ff_post_norminp_minus_mean", 
      "inputs": [[110, 0, 0], [111, 0, 0]]
    }, 
    {
      "op": "broadcast_sub", 
      "name": "broadcast_minus1", 
      "inputs": [[110, 0, 0], [111, 0, 0]]
    }, 
    {
      "op": "square", 
      "name": "square1", 
      "inputs": [[113, 0, 0]]
    }, 
    {
      "op": "mean", 
      "name": "mean3", 
      "attrs": {
        "axis": "-1", 
        "keepdims": "True"
      }, 
      "inputs": [[114, 0, 0]]
    }, 
    {
      "op": "_plus_scalar", 
      "name": "_plusscalar1", 
      "attrs": {"scalar": "1e-06"}, 
      "inputs": [[115, 0, 0]]
    }, 
    {
      "op": "rsqrt", 
      "name": "rsqrt1", 
      "inputs": [[116, 0, 0]]
    }, 
    {
      "op": "broadcast_mul", 
      "name": "encoder_transformer_0_ff_post_norminp_norm", 
      "inputs": [[112, 0, 0], [117, 0, 0]]
    }, 
    {
      "op": "null", 
      "name": "encoder_transformer_0_ff_post_norm_gamma", 
      "attrs": {
        "__init__": "[\"constant\", {\"value\": 1.0}]", 
        "__shape__": "(512,)"
      }, 
      "inputs": []
    }, 
    {
      "op": "broadcast_mul", 
      "name": "encoder_transformer_0_ff_post_norminp_norm_scaled", 
      "inputs": [[118, 0, 0], [119, 0, 0]]
    }, 
    {
      "op": "null", 
      "name": "encoder_transformer_0_ff_post_norm_beta", 
      "attrs": {
        "__init__": "[\"constant\", {\"value\": 0.0}]", 
        "__shape__": "(512,)"
      }, 
      "inputs": []
    }, 
    {
      "op": "broadcast_add", 
      "name": "encoder_transformer_0_ff_post_norminp_norm_scaled_shifted", 
      "inputs": [[120, 0, 0], [121, 0, 0]]
    }, 
    {
      "op": "null", 
      "name": "encoder_transformer_1_att_self_i2h_weight", 
      "inputs": []
    }, 
    {
      "op": "FullyConnected", 
      "name": "encoder_transformer_1_att_self_qkv_transform", 
      "attrs": {
        "flatten": "False", 
        "no_bias": "True", 
        "num_hidden": "1536"
      }, 
      "inputs": [[122, 0, 0], [123, 0, 0]]
    }, 
    {
      "op": "SliceChannel", 
      "name": "split2", 
      "attrs": {
        "axis": "2", 
        "num_outputs": "3"
      }, 
      "inputs": [[124, 0, 0]]
    }, 
    {
      "op": "_mul_scalar", 
      "name": "_mulscalar2", 
      "attrs": {"scalar": "0.125"}, 
      "inputs": [[125, 0, 0]]
    }, 
    {
      "op": "Reshape", 
      "name": "reshape10", 
      "attrs": {"shape": "(0, -1, 8, 64)"}, 
      "inputs": [[126, 0, 0]]
    }, 
    {
      "op": "transpose", 
      "name": "transpose4", 
      "attrs": {"axes": "(0, 2, 1, 3)"}, 
      "inputs": [[127, 0, 0]]
    }, 
    {
      "op": "Reshape", 
      "name": "reshape11", 
      "attrs": {"shape": "(-3, -1, 64)"}, 
      "inputs": [[128, 0, 0]]
    }, 
    {
      "op": "Reshape", 
      "name": "reshape12", 
      "attrs": {"shape": "(0, -1, 8, 64)"}, 
      "inputs": [[125, 1, 0]]
    }, 
    {
      "op": "transpose", 
      "name": "transpose5", 
      "attrs": {"axes": "(0, 2, 1, 3)"}, 
      "inputs": [[130, 0, 0]]
    }, 
    {
      "op": "Reshape", 
      "name": "reshape13", 
      "attrs": {"shape": "(-3, -1, 64)"}, 
      "inputs": [[131, 0, 0]]
    }, 
    {
      "op": "batch_dot", 
      "name": "encoder_transformer_1_att_self_dot", 
      "attrs": {"transpose_b": "True"}, 
      "inputs": [[129, 0, 0], [132, 0, 0]]
    }, 
    {
      "op": "broadcast_add", 
      "name": "encoder_transformer_1_att_self_bias_add", 
      "inputs": [[133, 0, 0], [78, 0, 0]]
    }, 
    {
      "op": "softmax", 
      "name": "softmax1", 
      "attrs": {"axis": "-1"}, 
      "inputs": [[134, 0, 0]]
    }, 
    {
      "op": "Reshape", 
      "name": "reshape14", 
      "attrs": {"shape": "(0, -1, 8, 64)"}, 
      "inputs": [[125, 2, 0]]
    }, 
    {
      "op": "transpose", 
      "name": "transpose6", 
      "attrs": {"axes": "(0, 2, 1, 3)"}, 
      "inputs": [[136, 0, 0]]
    }, 
    {
      "op": "Reshape", 
      "name": "reshape15", 
      "attrs": {"shape": "(-3, -1, 64)"}, 
      "inputs": [[137, 0, 0]]
    }, 
    {
      "op": "batch_dot", 
      "name": "encoder_transformer_1_att_self_contexts", 
      "inputs": [[135, 0, 0], [138, 0, 0]]
    }, 
    {
      "op": "Reshape", 
      "name": "reshape16", 
      "attrs": {"shape": "(-4, -1, 8, 0, 64)"}, 
      "inputs": [[139, 0, 0]]
    }, 
    {
      "op": "transpose", 
      "name": "transpose7", 
      "attrs": {"axes": "(0, 2, 1, 3)"}, 
      "inputs": [[140, 0, 0]]
    }, 
    {
      "op": "Reshape", 
      "name": "reshape17", 
      "attrs": {"shape": "(-1, 0, 512)"}, 
      "inputs": [[141, 0, 0]]
    }, 
    {
      "op": "null", 
      "name": "encoder_transformer_1_att_self_h2o_weight", 
      "inputs": []
    }, 
    {
      "op": "FullyConnected", 
      "name": "fullyconnected3", 
      "attrs": {
        "flatten": "False", 
        "no_bias": "True", 
        "num_hidden": "512"
      }, 
      "inputs": [[142, 0, 0], [143, 0, 0]]
    }, 
    {
      "op": "elemwise_add", 
      "name": "encoder_transformer_1_att_self_post_residual", 
      "inputs": [[144, 0, 0], [122, 0, 0]]
    }, 
    {
      "op": "mean", 
      "name": "mean4", 
      "attrs": {
        "axis": "-1", 
        "keepdims": "True"
      }, 
      "inputs": [[145, 0, 0]]
    }, 
    {
      "op": "broadcast_sub", 
      "name": "encoder_transformer_1_att_self_post_norminp_minus_mean", 
      "inputs": [[145, 0, 0], [146, 0, 0]]
    }, 
    {
      "op": "broadcast_sub", 
      "name": "broadcast_minus2", 
      "inputs": [[145, 0, 0], [146, 0, 0]]
    }, 
    {
      "op": "square", 
      "name": "square2", 
      "inputs": [[148, 0, 0]]
    }, 
    {
      "op": "mean", 
      "name": "mean5", 
      "attrs": {
        "axis": "-1", 
        "keepdims": "True"
      }, 
      "inputs": [[149, 0, 0]]
    }, 
    {
      "op": "_plus_scalar", 
      "name": "_plusscalar2", 
      "attrs": {"scalar": "1e-06"}, 
      "inputs": [[150, 0, 0]]
    }, 
    {
      "op": "rsqrt", 
      "name": "rsqrt2", 
      "inputs": [[151, 0, 0]]
    }, 
    {
      "op": "broadcast_mul", 
      "name": "encoder_transformer_1_att_self_post_norminp_norm", 
      "inputs": [[147, 0, 0], [152, 0, 0]]
    }, 
    {
      "op": "null", 
      "name": "encoder_transformer_1_att_self_post_norm_gamma", 
      "attrs": {
        "__init__": "[\"constant\", {\"value\": 1.0}]", 
        "__shape__": "(512,)"
      }, 
      "inputs": []
    }, 
    {
      "op": "broadcast_mul", 
      "name": "encoder_transformer_1_att_self_post_norminp_norm_scaled", 
      "inputs": [[153, 0, 0], [154, 0, 0]]
    }, 
    {
      "op": "null", 
      "name": "encoder_transformer_1_att_self_post_norm_beta", 
      "attrs": {
        "__init__": "[\"constant\", {\"value\": 0.0}]", 
        "__shape__": "(512,)"
      }, 
      "inputs": []
    }, 
    {
      "op": "broadcast_add", 
      "name": "encoder_transformer_1_att_self_post_norminp_norm_scaled_shifted", 
      "inputs": [[155, 0, 0], [156, 0, 0]]
    }, 
    {
      "op": "null", 
      "name": "encoder_transformer_1_ff_i2h_weight", 
      "inputs": []
    }, 
    {
      "op": "null", 
      "name": "encoder_transformer_1_ff_i2h_bias", 
      "inputs": []
    }, 
    {
      "op": "FullyConnected", 
      "name": "fullyconnected4", 
      "attrs": {
        "flatten": "False", 
        "num_hidden": "2048"
      }, 
      "inputs": [[157, 0, 0], [158, 0, 0], [159, 0, 0]]
    }, 
    {
      "op": "Activation", 
      "name": "activation1", 
      "attrs": {"act_type": "relu"}, 
      "inputs": [[160, 0, 0]]
    }, 
    {
      "op": "null", 
      "name": "encoder_transformer_1_ff_h2o_weight", 
      "inputs": []
    }, 
    {
      "op": "null", 
      "name": "encoder_transformer_1_ff_h2o_bias", 
      "inputs": []
    }, 
    {
      "op": "FullyConnected", 
      "name": "fullyconnected5", 
      "attrs": {
        "flatten": "False", 
        "num_hidden": "512"
      }, 
      "inputs": [[161, 0, 0], [162, 0, 0], [163, 0, 0]]
    }, 
    {
      "op": "elemwise_add", 
      "name": "encoder_transformer_1_ff_post_residual", 
      "inputs": [[164, 0, 0], [157, 0, 0]]
    }, 
    {
      "op": "mean", 
      "name": "mean6", 
      "attrs": {
        "axis": "-1", 
        "keepdims": "True"
      }, 
      "inputs": [[165, 0, 0]]
    }, 
    {
      "op": "broadcast_sub", 
      "name": "encoder_transformer_1_ff_post_norminp_minus_mean", 
      "inputs": [[165, 0, 0], [166, 0, 0]]
    }, 
    {
      "op": "broadcast_sub", 
      "name": "broadcast_minus3", 
      "inputs": [[165, 0, 0], [166, 0, 0]]
    }, 
    {
      "op": "square", 
      "name": "square3", 
      "inputs": [[168, 0, 0]]
    }, 
    {
      "op": "mean", 
      "name": "mean7", 
      "attrs": {
        "axis": "-1", 
        "keepdims": "True"
      }, 
      "inputs": [[169, 0, 0]]
    }, 
    {
      "op": "_plus_scalar", 
      "name": "_plusscalar3", 
      "attrs": {"scalar": "1e-06"}, 
      "inputs": [[170, 0, 0]]
    }, 
    {
      "op": "rsqrt", 
      "name": "rsqrt3", 
      "inputs": [[171, 0, 0]]
    }, 
    {
      "op": "broadcast_mul", 
      "name": "encoder_transformer_1_ff_post_norminp_norm", 
      "inputs": [[167, 0, 0], [172, 0, 0]]
    }, 
    {
      "op": "null", 
      "name": "encoder_transformer_1_ff_post_norm_gamma", 
      "attrs": {
        "__init__": "[\"constant\", {\"value\": 1.0}]", 
        "__shape__": "(512,)"
      }, 
      "inputs": []
    }, 
    {
      "op": "broadcast_mul", 
      "name": "encoder_transformer_1_ff_post_norminp_norm_scaled", 
      "inputs": [[173, 0, 0], [174, 0, 0]]
    }, 
    {
      "op": "null", 
      "name": "encoder_transformer_1_ff_post_norm_beta", 
      "attrs": {
        "__init__": "[\"constant\", {\"value\": 0.0}]", 
        "__shape__": "(512,)"
      }, 
      "inputs": []
    }, 
    {
      "op": "broadcast_add", 
      "name": "encoder_transformer_1_ff_post_norminp_norm_scaled_shifted", 
      "inputs": [[175, 0, 0], [176, 0, 0]]
    }, 
    {
      "op": "null", 
      "name": "encoder_transformer_2_att_self_i2h_weight", 
      "inputs": []
    }, 
    {
      "op": "FullyConnected", 
      "name": "encoder_transformer_2_att_self_qkv_transform", 
      "attrs": {
        "flatten": "False", 
        "no_bias": "True", 
        "num_hidden": "1536"
      }, 
      "inputs": [[177, 0, 0], [178, 0, 0]]
    }, 
    {
      "op": "SliceChannel", 
      "name": "split3", 
      "attrs": {
        "axis": "2", 
        "num_outputs": "3"
      }, 
      "inputs": [[179, 0, 0]]
    }, 
    {
      "op": "_mul_scalar", 
      "name": "_mulscalar3", 
      "attrs": {"scalar": "0.125"}, 
      "inputs": [[180, 0, 0]]
    }, 
    {
      "op": "Reshape", 
      "name": "reshape18", 
      "attrs": {"shape": "(0, -1, 8, 64)"}, 
      "inputs": [[181, 0, 0]]
    }, 
    {
      "op": "transpose", 
      "name": "transpose8", 
      "attrs": {"axes": "(0, 2, 1, 3)"}, 
      "inputs": [[182, 0, 0]]
    }, 
    {
      "op": "Reshape", 
      "name": "reshape19", 
      "attrs": {"shape": "(-3, -1, 64)"}, 
      "inputs": [[183, 0, 0]]
    }, 
    {
      "op": "Reshape", 
      "name": "reshape20", 
      "attrs": {"shape": "(0, -1, 8, 64)"}, 
      "inputs": [[180, 1, 0]]
    }, 
    {
      "op": "transpose", 
      "name": "transpose9", 
      "attrs": {"axes": "(0, 2, 1, 3)"}, 
      "inputs": [[185, 0, 0]]
    }, 
    {
      "op": "Reshape", 
      "name": "reshape21", 
      "attrs": {"shape": "(-3, -1, 64)"}, 
      "inputs": [[186, 0, 0]]
    }, 
    {
      "op": "batch_dot", 
      "name": "encoder_transformer_2_att_self_dot", 
      "attrs": {"transpose_b": "True"}, 
      "inputs": [[184, 0, 0], [187, 0, 0]]
    }, 
    {
      "op": "broadcast_add", 
      "name": "encoder_transformer_2_att_self_bias_add", 
      "inputs": [[188, 0, 0], [78, 0, 0]]
    }, 
    {
      "op": "softmax", 
      "name": "softmax2", 
      "attrs": {"axis": "-1"}, 
      "inputs": [[189, 0, 0]]
    }, 
    {
      "op": "Reshape", 
      "name": "reshape22", 
      "attrs": {"shape": "(0, -1, 8, 64)"}, 
      "inputs": [[180, 2, 0]]
    }, 
    {
      "op": "transpose", 
      "name": "transpose10", 
      "attrs": {"axes": "(0, 2, 1, 3)"}, 
      "inputs": [[191, 0, 0]]
    }, 
    {
      "op": "Reshape", 
      "name": "reshape23", 
      "attrs": {"shape": "(-3, -1, 64)"}, 
      "inputs": [[192, 0, 0]]
    }, 
    {
      "op": "batch_dot", 
      "name": "encoder_transformer_2_att_self_contexts", 
      "inputs": [[190, 0, 0], [193, 0, 0]]
    }, 
    {
      "op": "Reshape", 
      "name": "reshape24", 
      "attrs": {"shape": "(-4, -1, 8, 0, 64)"}, 
      "inputs": [[194, 0, 0]]
    }, 
    {
      "op": "transpose", 
      "name": "transpose11", 
      "attrs": {"axes": "(0, 2, 1, 3)"}, 
      "inputs": [[195, 0, 0]]
    }, 
    {
      "op": "Reshape", 
      "name": "reshape25", 
      "attrs": {"shape": "(-1, 0, 512)"}, 
      "inputs": [[196, 0, 0]]
    }, 
    {
      "op": "null", 
      "name": "encoder_transformer_2_att_self_h2o_weight", 
      "inputs": []
    }, 
    {
      "op": "FullyConnected", 
      "name": "fullyconnected6", 
      "attrs": {
        "flatten": "False", 
        "no_bias": "True", 
        "num_hidden": "512"
      }, 
      "inputs": [[197, 0, 0], [198, 0, 0]]
    }, 
    {
      "op": "elemwise_add", 
      "name": "encoder_transformer_2_att_self_post_residual", 
      "inputs": [[199, 0, 0], [177, 0, 0]]
    }, 
    {
      "op": "mean", 
      "name": "mean8", 
      "attrs": {
        "axis": "-1", 
        "keepdims": "True"
      }, 
      "inputs": [[200, 0, 0]]
    }, 
    {
      "op": "broadcast_sub", 
      "name": "encoder_transformer_2_att_self_post_norminp_minus_mean", 
      "inputs": [[200, 0, 0], [201, 0, 0]]
    }, 
    {
      "op": "broadcast_sub", 
      "name": "broadcast_minus4", 
      "inputs": [[200, 0, 0], [201, 0, 0]]
    }, 
    {
      "op": "square", 
      "name": "square4", 
      "inputs": [[203, 0, 0]]
    }, 
    {
      "op": "mean", 
      "name": "mean9", 
      "attrs": {
        "axis": "-1", 
        "keepdims": "True"
      }, 
      "inputs": [[204, 0, 0]]
    }, 
    {
      "op": "_plus_scalar", 
      "name": "_plusscalar4", 
      "attrs": {"scalar": "1e-06"}, 
      "inputs": [[205, 0, 0]]
    }, 
    {
      "op": "rsqrt", 
      "name": "rsqrt4", 
      "inputs": [[206, 0, 0]]
    }, 
    {
      "op": "broadcast_mul", 
      "name": "encoder_transformer_2_att_self_post_norminp_norm", 
      "inputs": [[202, 0, 0], [207, 0, 0]]
    }, 
    {
      "op": "null", 
      "name": "encoder_transformer_2_att_self_post_norm_gamma", 
      "attrs": {
        "__init__": "[\"constant\", {\"value\": 1.0}]", 
        "__shape__": "(512,)"
      }, 
      "inputs": []
    }, 
    {
      "op": "broadcast_mul", 
      "name": "encoder_transformer_2_att_self_post_norminp_norm_scaled", 
      "inputs": [[208, 0, 0], [209, 0, 0]]
    }, 
    {
      "op": "null", 
      "name": "encoder_transformer_2_att_self_post_norm_beta", 
      "attrs": {
        "__init__": "[\"constant\", {\"value\": 0.0}]", 
        "__shape__": "(512,)"
      }, 
      "inputs": []
    }, 
    {
      "op": "broadcast_add", 
      "name": "encoder_transformer_2_att_self_post_norminp_norm_scaled_shifted", 
      "inputs": [[210, 0, 0], [211, 0, 0]]
    }, 
    {
      "op": "null", 
      "name": "encoder_transformer_2_ff_i2h_weight", 
      "inputs": []
    }, 
    {
      "op": "null", 
      "name": "encoder_transformer_2_ff_i2h_bias", 
      "inputs": []
    }, 
    {
      "op": "FullyConnected", 
      "name": "fullyconnected7", 
      "attrs": {
        "flatten": "False", 
        "num_hidden": "2048"
      }, 
      "inputs": [[212, 0, 0], [213, 0, 0], [214, 0, 0]]
    }, 
    {
      "op": "Activation", 
      "name": "activation2", 
      "attrs": {"act_type": "relu"}, 
      "inputs": [[215, 0, 0]]
    }, 
    {
      "op": "null", 
      "name": "encoder_transformer_2_ff_h2o_weight", 
      "inputs": []
    }, 
    {
      "op": "null", 
      "name": "encoder_transformer_2_ff_h2o_bias", 
      "inputs": []
    }, 
    {
      "op": "FullyConnected", 
      "name": "fullyconnected8", 
      "attrs": {
        "flatten": "False", 
        "num_hidden": "512"
      }, 
      "inputs": [[216, 0, 0], [217, 0, 0], [218, 0, 0]]
    }, 
    {
      "op": "elemwise_add", 
      "name": "encoder_transformer_2_ff_post_residual", 
      "inputs": [[219, 0, 0], [212, 0, 0]]
    }, 
    {
      "op": "mean", 
      "name": "mean10", 
      "attrs": {
        "axis": "-1", 
        "keepdims": "True"
      }, 
      "inputs": [[220, 0, 0]]
    }, 
    {
      "op": "broadcast_sub", 
      "name": "encoder_transformer_2_ff_post_norminp_minus_mean", 
      "inputs": [[220, 0, 0], [221, 0, 0]]
    }, 
    {
      "op": "broadcast_sub", 
      "name": "broadcast_minus5", 
      "inputs": [[220, 0, 0], [221, 0, 0]]
    }, 
    {
      "op": "square", 
      "name": "square5", 
      "inputs": [[223, 0, 0]]
    }, 
    {
      "op": "mean", 
      "name": "mean11", 
      "attrs": {
        "axis": "-1", 
        "keepdims": "True"
      }, 
      "inputs": [[224, 0, 0]]
    }, 
    {
      "op": "_plus_scalar", 
      "name": "_plusscalar5", 
      "attrs": {"scalar": "1e-06"}, 
      "inputs": [[225, 0, 0]]
    }, 
    {
      "op": "rsqrt", 
      "name": "rsqrt5", 
      "inputs": [[226, 0, 0]]
    }, 
    {
      "op": "broadcast_mul", 
      "name": "encoder_transformer_2_ff_post_norminp_norm", 
      "inputs": [[222, 0, 0], [227, 0, 0]]
    }, 
    {
      "op": "null", 
      "name": "encoder_transformer_2_ff_post_norm_gamma", 
      "attrs": {
        "__init__": "[\"constant\", {\"value\": 1.0}]", 
        "__shape__": "(512,)"
      }, 
      "inputs": []
    }, 
    {
      "op": "broadcast_mul", 
      "name": "encoder_transformer_2_ff_post_norminp_norm_scaled", 
      "inputs": [[228, 0, 0], [229, 0, 0]]
    }, 
    {
      "op": "null", 
      "name": "encoder_transformer_2_ff_post_norm_beta", 
      "attrs": {
        "__init__": "[\"constant\", {\"value\": 0.0}]", 
        "__shape__": "(512,)"
      }, 
      "inputs": []
    }, 
    {
      "op": "broadcast_add", 
      "name": "encoder_transformer_2_ff_post_norminp_norm_scaled_shifted", 
      "inputs": [[230, 0, 0], [231, 0, 0]]
    }, 
    {
      "op": "null", 
      "name": "encoder_transformer_3_att_self_i2h_weight", 
      "inputs": []
    }, 
    {
      "op": "FullyConnected", 
      "name": "encoder_transformer_3_att_self_qkv_transform", 
      "attrs": {
        "flatten": "False", 
        "no_bias": "True", 
        "num_hidden": "1536"
      }, 
      "inputs": [[232, 0, 0], [233, 0, 0]]
    }, 
    {
      "op": "SliceChannel", 
      "name": "split4", 
      "attrs": {
        "axis": "2", 
        "num_outputs": "3"
      }, 
      "inputs": [[234, 0, 0]]
    }, 
    {
      "op": "_mul_scalar", 
      "name": "_mulscalar4", 
      "attrs": {"scalar": "0.125"}, 
      "inputs": [[235, 0, 0]]
    }, 
    {
      "op": "Reshape", 
      "name": "reshape26", 
      "attrs": {"shape": "(0, -1, 8, 64)"}, 
      "inputs": [[236, 0, 0]]
    }, 
    {
      "op": "transpose", 
      "name": "transpose12", 
      "attrs": {"axes": "(0, 2, 1, 3)"}, 
      "inputs": [[237, 0, 0]]
    }, 
    {
      "op": "Reshape", 
      "name": "reshape27", 
      "attrs": {"shape": "(-3, -1, 64)"}, 
      "inputs": [[238, 0, 0]]
    }, 
    {
      "op": "Reshape", 
      "name": "reshape28", 
      "attrs": {"shape": "(0, -1, 8, 64)"}, 
      "inputs": [[235, 1, 0]]
    }, 
    {
      "op": "transpose", 
      "name": "transpose13", 
      "attrs": {"axes": "(0, 2, 1, 3)"}, 
      "inputs": [[240, 0, 0]]
    }, 
    {
      "op": "Reshape", 
      "name": "reshape29", 
      "attrs": {"shape": "(-3, -1, 64)"}, 
      "inputs": [[241, 0, 0]]
    }, 
    {
      "op": "batch_dot", 
      "name": "encoder_transformer_3_att_self_dot", 
      "attrs": {"transpose_b": "True"}, 
      "inputs": [[239, 0, 0], [242, 0, 0]]
    }, 
    {
      "op": "broadcast_add", 
      "name": "encoder_transformer_3_att_self_bias_add", 
      "inputs": [[243, 0, 0], [78, 0, 0]]
    }, 
    {
      "op": "softmax", 
      "name": "softmax3", 
      "attrs": {"axis": "-1"}, 
      "inputs": [[244, 0, 0]]
    }, 
    {
      "op": "Reshape", 
      "name": "reshape30", 
      "attrs": {"shape": "(0, -1, 8, 64)"}, 
      "inputs": [[235, 2, 0]]
    }, 
    {
      "op": "transpose", 
      "name": "transpose14", 
      "attrs": {"axes": "(0, 2, 1, 3)"}, 
      "inputs": [[246, 0, 0]]
    }, 
    {
      "op": "Reshape", 
      "name": "reshape31", 
      "attrs": {"shape": "(-3, -1, 64)"}, 
      "inputs": [[247, 0, 0]]
    }, 
    {
      "op": "batch_dot", 
      "name": "encoder_transformer_3_att_self_contexts", 
      "inputs": [[245, 0, 0], [248, 0, 0]]
    }, 
    {
      "op": "Reshape", 
      "name": "reshape32", 
      "attrs": {"shape": "(-4, -1, 8, 0, 64)"}, 
      "inputs": [[249, 0, 0]]
    }, 
    {
      "op": "transpose", 
      "name": "transpose15", 
      "attrs": {"axes": "(0, 2, 1, 3)"}, 
      "inputs": [[250, 0, 0]]
    }, 
    {
      "op": "Reshape", 
      "name": "reshape33", 
      "attrs": {"shape": "(-1, 0, 512)"}, 
      "inputs": [[251, 0, 0]]
    }, 
    {
      "op": "null", 
      "name": "encoder_transformer_3_att_self_h2o_weight", 
      "inputs": []
    }, 
    {
      "op": "FullyConnected", 
      "name": "fullyconnected9", 
      "attrs": {
        "flatten": "False", 
        "no_bias": "True", 
        "num_hidden": "512"
      }, 
      "inputs": [[252, 0, 0], [253, 0, 0]]
    }, 
    {
      "op": "elemwise_add", 
      "name": "encoder_transformer_3_att_self_post_residual", 
      "inputs": [[254, 0, 0], [232, 0, 0]]
    }, 
    {
      "op": "mean", 
      "name": "mean12", 
      "attrs": {
        "axis": "-1", 
        "keepdims": "True"
      }, 
      "inputs": [[255, 0, 0]]
    }, 
    {
      "op": "broadcast_sub", 
      "name": "encoder_transformer_3_att_self_post_norminp_minus_mean", 
      "inputs": [[255, 0, 0], [256, 0, 0]]
    }, 
    {
      "op": "broadcast_sub", 
      "name": "broadcast_minus6", 
      "inputs": [[255, 0, 0], [256, 0, 0]]
    }, 
    {
      "op": "square", 
      "name": "square6", 
      "inputs": [[258, 0, 0]]
    }, 
    {
      "op": "mean", 
      "name": "mean13", 
      "attrs": {
        "axis": "-1", 
        "keepdims": "True"
      }, 
      "inputs": [[259, 0, 0]]
    }, 
    {
      "op": "_plus_scalar", 
      "name": "_plusscalar6", 
      "attrs": {"scalar": "1e-06"}, 
      "inputs": [[260, 0, 0]]
    }, 
    {
      "op": "rsqrt", 
      "name": "rsqrt6", 
      "inputs": [[261, 0, 0]]
    }, 
    {
      "op": "broadcast_mul", 
      "name": "encoder_transformer_3_att_self_post_norminp_norm", 
      "inputs": [[257, 0, 0], [262, 0, 0]]
    }, 
    {
      "op": "null", 
      "name": "encoder_transformer_3_att_self_post_norm_gamma", 
      "attrs": {
        "__init__": "[\"constant\", {\"value\": 1.0}]", 
        "__shape__": "(512,)"
      }, 
      "inputs": []
    }, 
    {
      "op": "broadcast_mul", 
      "name": "encoder_transformer_3_att_self_post_norminp_norm_scaled", 
      "inputs": [[263, 0, 0], [264, 0, 0]]
    }, 
    {
      "op": "null", 
      "name": "encoder_transformer_3_att_self_post_norm_beta", 
      "attrs": {
        "__init__": "[\"constant\", {\"value\": 0.0}]", 
        "__shape__": "(512,)"
      }, 
      "inputs": []
    }, 
    {
      "op": "broadcast_add", 
      "name": "encoder_transformer_3_att_self_post_norminp_norm_scaled_shifted", 
      "inputs": [[265, 0, 0], [266, 0, 0]]
    }, 
    {
      "op": "null", 
      "name": "encoder_transformer_3_ff_i2h_weight", 
      "inputs": []
    }, 
    {
      "op": "null", 
      "name": "encoder_transformer_3_ff_i2h_bias", 
      "inputs": []
    }, 
    {
      "op": "FullyConnected", 
      "name": "fullyconnected10", 
      "attrs": {
        "flatten": "False", 
        "num_hidden": "2048"
      }, 
      "inputs": [[267, 0, 0], [268, 0, 0], [269, 0, 0]]
    }, 
    {
      "op": "Activation", 
      "name": "activation3", 
      "attrs": {"act_type": "relu"}, 
      "inputs": [[270, 0, 0]]
    }, 
    {
      "op": "null", 
      "name": "encoder_transformer_3_ff_h2o_weight", 
      "inputs": []
    }, 
    {
      "op": "null", 
      "name": "encoder_transformer_3_ff_h2o_bias", 
      "inputs": []
    }, 
    {
      "op": "FullyConnected", 
      "name": "fullyconnected11", 
      "attrs": {
        "flatten": "False", 
        "num_hidden": "512"
      }, 
      "inputs": [[271, 0, 0], [272, 0, 0], [273, 0, 0]]
    }, 
    {
      "op": "elemwise_add", 
      "name": "encoder_transformer_3_ff_post_residual", 
      "inputs": [[274, 0, 0], [267, 0, 0]]
    }, 
    {
      "op": "mean", 
      "name": "mean14", 
      "attrs": {
        "axis": "-1", 
        "keepdims": "True"
      }, 
      "inputs": [[275, 0, 0]]
    }, 
    {
      "op": "broadcast_sub", 
      "name": "encoder_transformer_3_ff_post_norminp_minus_mean", 
      "inputs": [[275, 0, 0], [276, 0, 0]]
    }, 
    {
      "op": "broadcast_sub", 
      "name": "broadcast_minus7", 
      "inputs": [[275, 0, 0], [276, 0, 0]]
    }, 
    {
      "op": "square", 
      "name": "square7", 
      "inputs": [[278, 0, 0]]
    }, 
    {
      "op": "mean", 
      "name": "mean15", 
      "attrs": {
        "axis": "-1", 
        "keepdims": "True"
      }, 
      "inputs": [[279, 0, 0]]
    }, 
    {
      "op": "_plus_scalar", 
      "name": "_plusscalar7", 
      "attrs": {"scalar": "1e-06"}, 
      "inputs": [[280, 0, 0]]
    }, 
    {
      "op": "rsqrt", 
      "name": "rsqrt7", 
      "inputs": [[281, 0, 0]]
    }, 
    {
      "op": "broadcast_mul", 
      "name": "encoder_transformer_3_ff_post_norminp_norm", 
      "inputs": [[277, 0, 0], [282, 0, 0]]
    }, 
    {
      "op": "null", 
      "name": "encoder_transformer_3_ff_post_norm_gamma", 
      "attrs": {
        "__init__": "[\"constant\", {\"value\": 1.0}]", 
        "__shape__": "(512,)"
      }, 
      "inputs": []
    }, 
    {
      "op": "broadcast_mul", 
      "name": "encoder_transformer_3_ff_post_norminp_norm_scaled", 
      "inputs": [[283, 0, 0], [284, 0, 0]]
    }, 
    {
      "op": "null", 
      "name": "encoder_transformer_3_ff_post_norm_beta", 
      "attrs": {
        "__init__": "[\"constant\", {\"value\": 0.0}]", 
        "__shape__": "(512,)"
      }, 
      "inputs": []
    }, 
    {
      "op": "broadcast_add", 
      "name": "encoder_transformer_3_ff_post_norminp_norm_scaled_shifted", 
      "inputs": [[285, 0, 0], [286, 0, 0]]
    }, 
    {
      "op": "null", 
      "name": "encoder_transformer_4_att_self_i2h_weight", 
      "inputs": []
    }, 
    {
      "op": "FullyConnected", 
      "name": "encoder_transformer_4_att_self_qkv_transform", 
      "attrs": {
        "flatten": "False", 
        "no_bias": "True", 
        "num_hidden": "1536"
      }, 
      "inputs": [[287, 0, 0], [288, 0, 0]]
    }, 
    {
      "op": "SliceChannel", 
      "name": "split5", 
      "attrs": {
        "axis": "2", 
        "num_outputs": "3"
      }, 
      "inputs": [[289, 0, 0]]
    }, 
    {
      "op": "_mul_scalar", 
      "name": "_mulscalar5", 
      "attrs": {"scalar": "0.125"}, 
      "inputs": [[290, 0, 0]]
    }, 
    {
      "op": "Reshape", 
      "name": "reshape34", 
      "attrs": {"shape": "(0, -1, 8, 64)"}, 
      "inputs": [[291, 0, 0]]
    }, 
    {
      "op": "transpose", 
      "name": "transpose16", 
      "attrs": {"axes": "(0, 2, 1, 3)"}, 
      "inputs": [[292, 0, 0]]
    }, 
    {
      "op": "Reshape", 
      "name": "reshape35", 
      "attrs": {"shape": "(-3, -1, 64)"}, 
      "inputs": [[293, 0, 0]]
    }, 
    {
      "op": "Reshape", 
      "name": "reshape36", 
      "attrs": {"shape": "(0, -1, 8, 64)"}, 
      "inputs": [[290, 1, 0]]
    }, 
    {
      "op": "transpose", 
      "name": "transpose17", 
      "attrs": {"axes": "(0, 2, 1, 3)"}, 
      "inputs": [[295, 0, 0]]
    }, 
    {
      "op": "Reshape", 
      "name": "reshape37", 
      "attrs": {"shape": "(-3, -1, 64)"}, 
      "inputs": [[296, 0, 0]]
    }, 
    {
      "op": "batch_dot", 
      "name": "encoder_transformer_4_att_self_dot", 
      "attrs": {"transpose_b": "True"}, 
      "inputs": [[294, 0, 0], [297, 0, 0]]
    }, 
    {
      "op": "broadcast_add", 
      "name": "encoder_transformer_4_att_self_bias_add", 
      "inputs": [[298, 0, 0], [78, 0, 0]]
    }, 
    {
      "op": "softmax", 
      "name": "softmax4", 
      "attrs": {"axis": "-1"}, 
      "inputs": [[299, 0, 0]]
    }, 
    {
      "op": "Reshape", 
      "name": "reshape38", 
      "attrs": {"shape": "(0, -1, 8, 64)"}, 
      "inputs": [[290, 2, 0]]
    }, 
    {
      "op": "transpose", 
      "name": "transpose18", 
      "attrs": {"axes": "(0, 2, 1, 3)"}, 
      "inputs": [[301, 0, 0]]
    }, 
    {
      "op": "Reshape", 
      "name": "reshape39", 
      "attrs": {"shape": "(-3, -1, 64)"}, 
      "inputs": [[302, 0, 0]]
    }, 
    {
      "op": "batch_dot", 
      "name": "encoder_transformer_4_att_self_contexts", 
      "inputs": [[300, 0, 0], [303, 0, 0]]
    }, 
    {
      "op": "Reshape", 
      "name": "reshape40", 
      "attrs": {"shape": "(-4, -1, 8, 0, 64)"}, 
      "inputs": [[304, 0, 0]]
    }, 
    {
      "op": "transpose", 
      "name": "transpose19", 
      "attrs": {"axes": "(0, 2, 1, 3)"}, 
      "inputs": [[305, 0, 0]]
    }, 
    {
      "op": "Reshape", 
      "name": "reshape41", 
      "attrs": {"shape": "(-1, 0, 512)"}, 
      "inputs": [[306, 0, 0]]
    }, 
    {
      "op": "null", 
      "name": "encoder_transformer_4_att_self_h2o_weight", 
      "inputs": []
    }, 
    {
      "op": "FullyConnected", 
      "name": "fullyconnected12", 
      "attrs": {
        "flatten": "False", 
        "no_bias": "True", 
        "num_hidden": "512"
      }, 
      "inputs": [[307, 0, 0], [308, 0, 0]]
    }, 
    {
      "op": "elemwise_add", 
      "name": "encoder_transformer_4_att_self_post_residual", 
      "inputs": [[309, 0, 0], [287, 0, 0]]
    }, 
    {
      "op": "mean", 
      "name": "mean16", 
      "attrs": {
        "axis": "-1", 
        "keepdims": "True"
      }, 
      "inputs": [[310, 0, 0]]
    }, 
    {
      "op": "broadcast_sub", 
      "name": "encoder_transformer_4_att_self_post_norminp_minus_mean", 
      "inputs": [[310, 0, 0], [311, 0, 0]]
    }, 
    {
      "op": "broadcast_sub", 
      "name": "broadcast_minus8", 
      "inputs": [[310, 0, 0], [311, 0, 0]]
    }, 
    {
      "op": "square", 
      "name": "square8", 
      "inputs": [[313, 0, 0]]
    }, 
    {
      "op": "mean", 
      "name": "mean17", 
      "attrs": {
        "axis": "-1", 
        "keepdims": "True"
      }, 
      "inputs": [[314, 0, 0]]
    }, 
    {
      "op": "_plus_scalar", 
      "name": "_plusscalar8", 
      "attrs": {"scalar": "1e-06"}, 
      "inputs": [[315, 0, 0]]
    }, 
    {
      "op": "rsqrt", 
      "name": "rsqrt8", 
      "inputs": [[316, 0, 0]]
    }, 
    {
      "op": "broadcast_mul", 
      "name": "encoder_transformer_4_att_self_post_norminp_norm", 
      "inputs": [[312, 0, 0], [317, 0, 0]]
    }, 
    {
      "op": "null", 
      "name": "encoder_transformer_4_att_self_post_norm_gamma", 
      "attrs": {
        "__init__": "[\"constant\", {\"value\": 1.0}]", 
        "__shape__": "(512,)"
      }, 
      "inputs": []
    }, 
    {
      "op": "broadcast_mul", 
      "name": "encoder_transformer_4_att_self_post_norminp_norm_scaled", 
      "inputs": [[318, 0, 0], [319, 0, 0]]
    }, 
    {
      "op": "null", 
      "name": "encoder_transformer_4_att_self_post_norm_beta", 
      "attrs": {
        "__init__": "[\"constant\", {\"value\": 0.0}]", 
        "__shape__": "(512,)"
      }, 
      "inputs": []
    }, 
    {
      "op": "broadcast_add", 
      "name": "encoder_transformer_4_att_self_post_norminp_norm_scaled_shifted", 
      "inputs": [[320, 0, 0], [321, 0, 0]]
    }, 
    {
      "op": "null", 
      "name": "encoder_transformer_4_ff_i2h_weight", 
      "inputs": []
    }, 
    {
      "op": "null", 
      "name": "encoder_transformer_4_ff_i2h_bias", 
      "inputs": []
    }, 
    {
      "op": "FullyConnected", 
      "name": "fullyconnected13", 
      "attrs": {
        "flatten": "False", 
        "num_hidden": "2048"
      }, 
      "inputs": [[322, 0, 0], [323, 0, 0], [324, 0, 0]]
    }, 
    {
      "op": "Activation", 
      "name": "activation4", 
      "attrs": {"act_type": "relu"}, 
      "inputs": [[325, 0, 0]]
    }, 
    {
      "op": "null", 
      "name": "encoder_transformer_4_ff_h2o_weight", 
      "inputs": []
    }, 
    {
      "op": "null", 
      "name": "encoder_transformer_4_ff_h2o_bias", 
      "inputs": []
    }, 
    {
      "op": "FullyConnected", 
      "name": "fullyconnected14", 
      "attrs": {
        "flatten": "False", 
        "num_hidden": "512"
      }, 
      "inputs": [[326, 0, 0], [327, 0, 0], [328, 0, 0]]
    }, 
    {
      "op": "elemwise_add", 
      "name": "encoder_transformer_4_ff_post_residual", 
      "inputs": [[329, 0, 0], [322, 0, 0]]
    }, 
    {
      "op": "mean", 
      "name": "mean18", 
      "attrs": {
        "axis": "-1", 
        "keepdims": "True"
      }, 
      "inputs": [[330, 0, 0]]
    }, 
    {
      "op": "broadcast_sub", 
      "name": "encoder_transformer_4_ff_post_norminp_minus_mean", 
      "inputs": [[330, 0, 0], [331, 0, 0]]
    }, 
    {
      "op": "broadcast_sub", 
      "name": "broadcast_minus9", 
      "inputs": [[330, 0, 0], [331, 0, 0]]
    }, 
    {
      "op": "square", 
      "name": "square9", 
      "inputs": [[333, 0, 0]]
    }, 
    {
      "op": "mean", 
      "name": "mean19", 
      "attrs": {
        "axis": "-1", 
        "keepdims": "True"
      }, 
      "inputs": [[334, 0, 0]]
    }, 
    {
      "op": "_plus_scalar", 
      "name": "_plusscalar9", 
      "attrs": {"scalar": "1e-06"}, 
      "inputs": [[335, 0, 0]]
    }, 
    {
      "op": "rsqrt", 
      "name": "rsqrt9", 
      "inputs": [[336, 0, 0]]
    }, 
    {
      "op": "broadcast_mul", 
      "name": "encoder_transformer_4_ff_post_norminp_norm", 
      "inputs": [[332, 0, 0], [337, 0, 0]]
    }, 
    {
      "op": "null", 
      "name": "encoder_transformer_4_ff_post_norm_gamma", 
      "attrs": {
        "__init__": "[\"constant\", {\"value\": 1.0}]", 
        "__shape__": "(512,)"
      }, 
      "inputs": []
    }, 
    {
      "op": "broadcast_mul", 
      "name": "encoder_transformer_4_ff_post_norminp_norm_scaled", 
      "inputs": [[338, 0, 0], [339, 0, 0]]
    }, 
    {
      "op": "null", 
      "name": "encoder_transformer_4_ff_post_norm_beta", 
      "attrs": {
        "__init__": "[\"constant\", {\"value\": 0.0}]", 
        "__shape__": "(512,)"
      }, 
      "inputs": []
    }, 
    {
      "op": "broadcast_add", 
      "name": "encoder_transformer_4_ff_post_norminp_norm_scaled_shifted", 
      "inputs": [[340, 0, 0], [341, 0, 0]]
    }, 
    {
      "op": "null", 
      "name": "encoder_transformer_5_att_self_i2h_weight", 
      "inputs": []
    }, 
    {
      "op": "FullyConnected", 
      "name": "encoder_transformer_5_att_self_qkv_transform", 
      "attrs": {
        "flatten": "False", 
        "no_bias": "True", 
        "num_hidden": "1536"
      }, 
      "inputs": [[342, 0, 0], [343, 0, 0]]
    }, 
    {
      "op": "SliceChannel", 
      "name": "split6", 
      "attrs": {
        "axis": "2", 
        "num_outputs": "3"
      }, 
      "inputs": [[344, 0, 0]]
    }, 
    {
      "op": "_mul_scalar", 
      "name": "_mulscalar6", 
      "attrs": {"scalar": "0.125"}, 
      "inputs": [[345, 0, 0]]
    }, 
    {
      "op": "Reshape", 
      "name": "reshape42", 
      "attrs": {"shape": "(0, -1, 8, 64)"}, 
      "inputs": [[346, 0, 0]]
    }, 
    {
      "op": "transpose", 
      "name": "transpose20", 
      "attrs": {"axes": "(0, 2, 1, 3)"}, 
      "inputs": [[347, 0, 0]]
    }, 
    {
      "op": "Reshape", 
      "name": "reshape43", 
      "attrs": {"shape": "(-3, -1, 64)"}, 
      "inputs": [[348, 0, 0]]
    }, 
    {
      "op": "Reshape", 
      "name": "reshape44", 
      "attrs": {"shape": "(0, -1, 8, 64)"}, 
      "inputs": [[345, 1, 0]]
    }, 
    {
      "op": "transpose", 
      "name": "transpose21", 
      "attrs": {"axes": "(0, 2, 1, 3)"}, 
      "inputs": [[350, 0, 0]]
    }, 
    {
      "op": "Reshape", 
      "name": "reshape45", 
      "attrs": {"shape": "(-3, -1, 64)"}, 
      "inputs": [[351, 0, 0]]
    }, 
    {
      "op": "batch_dot", 
      "name": "encoder_transformer_5_att_self_dot", 
      "attrs": {"transpose_b": "True"}, 
      "inputs": [[349, 0, 0], [352, 0, 0]]
    }, 
    {
      "op": "broadcast_add", 
      "name": "encoder_transformer_5_att_self_bias_add", 
      "inputs": [[353, 0, 0], [78, 0, 0]]
    }, 
    {
      "op": "softmax", 
      "name": "softmax5", 
      "attrs": {"axis": "-1"}, 
      "inputs": [[354, 0, 0]]
    }, 
    {
      "op": "Reshape", 
      "name": "reshape46", 
      "attrs": {"shape": "(0, -1, 8, 64)"}, 
      "inputs": [[345, 2, 0]]
    }, 
    {
      "op": "transpose", 
      "name": "transpose22", 
      "attrs": {"axes": "(0, 2, 1, 3)"}, 
      "inputs": [[356, 0, 0]]
    }, 
    {
      "op": "Reshape", 
      "name": "reshape47", 
      "attrs": {"shape": "(-3, -1, 64)"}, 
      "inputs": [[357, 0, 0]]
    }, 
    {
      "op": "batch_dot", 
      "name": "encoder_transformer_5_att_self_contexts", 
      "inputs": [[355, 0, 0], [358, 0, 0]]
    }, 
    {
      "op": "Reshape", 
      "name": "reshape48", 
      "attrs": {"shape": "(-4, -1, 8, 0, 64)"}, 
      "inputs": [[359, 0, 0]]
    }, 
    {
      "op": "transpose", 
      "name": "transpose23", 
      "attrs": {"axes": "(0, 2, 1, 3)"}, 
      "inputs": [[360, 0, 0]]
    }, 
    {
      "op": "Reshape", 
      "name": "reshape49", 
      "attrs": {"shape": "(-1, 0, 512)"}, 
      "inputs": [[361, 0, 0]]
    }, 
    {
      "op": "null", 
      "name": "encoder_transformer_5_att_self_h2o_weight", 
      "inputs": []
    }, 
    {
      "op": "FullyConnected", 
      "name": "fullyconnected15", 
      "attrs": {
        "flatten": "False", 
        "no_bias": "True", 
        "num_hidden": "512"
      }, 
      "inputs": [[362, 0, 0], [363, 0, 0]]
    }, 
    {
      "op": "elemwise_add", 
      "name": "encoder_transformer_5_att_self_post_residual", 
      "inputs": [[364, 0, 0], [342, 0, 0]]
    }, 
    {
      "op": "mean", 
      "name": "mean20", 
      "attrs": {
        "axis": "-1", 
        "keepdims": "True"
      }, 
      "inputs": [[365, 0, 0]]
    }, 
    {
      "op": "broadcast_sub", 
      "name": "encoder_transformer_5_att_self_post_norminp_minus_mean", 
      "inputs": [[365, 0, 0], [366, 0, 0]]
    }, 
    {
      "op": "broadcast_sub", 
      "name": "broadcast_minus10", 
      "inputs": [[365, 0, 0], [366, 0, 0]]
    }, 
    {
      "op": "square", 
      "name": "square10", 
      "inputs": [[368, 0, 0]]
    }, 
    {
      "op": "mean", 
      "name": "mean21", 
      "attrs": {
        "axis": "-1", 
        "keepdims": "True"
      }, 
      "inputs": [[369, 0, 0]]
    }, 
    {
      "op": "_plus_scalar", 
      "name": "_plusscalar10", 
      "attrs": {"scalar": "1e-06"}, 
      "inputs": [[370, 0, 0]]
    }, 
    {
      "op": "rsqrt", 
      "name": "rsqrt10", 
      "inputs": [[371, 0, 0]]
    }, 
    {
      "op": "broadcast_mul", 
      "name": "encoder_transformer_5_att_self_post_norminp_norm", 
      "inputs": [[367, 0, 0], [372, 0, 0]]
    }, 
    {
      "op": "null", 
      "name": "encoder_transformer_5_att_self_post_norm_gamma", 
      "attrs": {
        "__init__": "[\"constant\", {\"value\": 1.0}]", 
        "__shape__": "(512,)"
      }, 
      "inputs": []
    }, 
    {
      "op": "broadcast_mul", 
      "name": "encoder_transformer_5_att_self_post_norminp_norm_scaled", 
      "inputs": [[373, 0, 0], [374, 0, 0]]
    }, 
    {
      "op": "null", 
      "name": "encoder_transformer_5_att_self_post_norm_beta", 
      "attrs": {
        "__init__": "[\"constant\", {\"value\": 0.0}]", 
        "__shape__": "(512,)"
      }, 
      "inputs": []
    }, 
    {
      "op": "broadcast_add", 
      "name": "encoder_transformer_5_att_self_post_norminp_norm_scaled_shifted", 
      "inputs": [[375, 0, 0], [376, 0, 0]]
    }, 
    {
      "op": "null", 
      "name": "encoder_transformer_5_ff_i2h_weight", 
      "inputs": []
    }, 
    {
      "op": "null", 
      "name": "encoder_transformer_5_ff_i2h_bias", 
      "inputs": []
    }, 
    {
      "op": "FullyConnected", 
      "name": "fullyconnected16", 
      "attrs": {
        "flatten": "False", 
        "num_hidden": "2048"
      }, 
      "inputs": [[377, 0, 0], [378, 0, 0], [379, 0, 0]]
    }, 
    {
      "op": "Activation", 
      "name": "activation5", 
      "attrs": {"act_type": "relu"}, 
      "inputs": [[380, 0, 0]]
    }, 
    {
      "op": "null", 
      "name": "encoder_transformer_5_ff_h2o_weight", 
      "inputs": []
    }, 
    {
      "op": "null", 
      "name": "encoder_transformer_5_ff_h2o_bias", 
      "inputs": []
    }, 
    {
      "op": "FullyConnected", 
      "name": "fullyconnected17", 
      "attrs": {
        "flatten": "False", 
        "num_hidden": "512"
      }, 
      "inputs": [[381, 0, 0], [382, 0, 0], [383, 0, 0]]
    }, 
    {
      "op": "elemwise_add", 
      "name": "encoder_transformer_5_ff_post_residual", 
      "inputs": [[384, 0, 0], [377, 0, 0]]
    }, 
    {
      "op": "mean", 
      "name": "mean22", 
      "attrs": {
        "axis": "-1", 
        "keepdims": "True"
      }, 
      "inputs": [[385, 0, 0]]
    }, 
    {
      "op": "broadcast_sub", 
      "name": "encoder_transformer_5_ff_post_norminp_minus_mean", 
      "inputs": [[385, 0, 0], [386, 0, 0]]
    }, 
    {
      "op": "broadcast_sub", 
      "name": "broadcast_minus11", 
      "inputs": [[385, 0, 0], [386, 0, 0]]
    }, 
    {
      "op": "square", 
      "name": "square11", 
      "inputs": [[388, 0, 0]]
    }, 
    {
      "op": "mean", 
      "name": "mean23", 
      "attrs": {
        "axis": "-1", 
        "keepdims": "True"
      }, 
      "inputs": [[389, 0, 0]]
    }, 
    {
      "op": "_plus_scalar", 
      "name": "_plusscalar11", 
      "attrs": {"scalar": "1e-06"}, 
      "inputs": [[390, 0, 0]]
    }, 
    {
      "op": "rsqrt", 
      "name": "rsqrt11", 
      "inputs": [[391, 0, 0]]
    }, 
    {
      "op": "broadcast_mul", 
      "name": "encoder_transformer_5_ff_post_norminp_norm", 
      "inputs": [[387, 0, 0], [392, 0, 0]]
    }, 
    {
      "op": "null", 
      "name": "encoder_transformer_5_ff_post_norm_gamma", 
      "attrs": {
        "__init__": "[\"constant\", {\"value\": 1.0}]", 
        "__shape__": "(512,)"
      }, 
      "inputs": []
    }, 
    {
      "op": "broadcast_mul", 
      "name": "encoder_transformer_5_ff_post_norminp_norm_scaled", 
      "inputs": [[393, 0, 0], [394, 0, 0]]
    }, 
    {
      "op": "null", 
      "name": "encoder_transformer_5_ff_post_norm_beta", 
      "attrs": {
        "__init__": "[\"constant\", {\"value\": 0.0}]", 
        "__shape__": "(512,)"
      }, 
      "inputs": []
    }, 
    {
      "op": "broadcast_add", 
      "name": "encoder_transformer_5_ff_post_norminp_norm_scaled_shifted", 
      "inputs": [[395, 0, 0], [396, 0, 0]]
    }, 
    {
      "op": "null", 
      "name": "decoder_transformer_0_att_enc_kv2h_weight", 
      "inputs": []
    }, 
    {
      "op": "FullyConnected", 
      "name": "decoder_transformer_0_att_enc_kv_transform", 
      "attrs": {
        "flatten": "False", 
        "no_bias": "True", 
        "num_hidden": "1024"
      }, 
      "inputs": [[397, 0, 0], [398, 0, 0]]
    }, 
    {
      "op": "SliceChannel", 
      "name": "split8", 
      "attrs": {
        "axis": "2", 
        "num_outputs": "2"
      }, 
      "inputs": [[399, 0, 0]]
    }, 
    {
      "op": "Reshape", 
      "name": "reshape61", 
      "attrs": {"shape": "(0, -1, 8, 64)"}, 
      "inputs": [[400, 0, 0]]
    }, 
    {
      "op": "transpose", 
      "name": "transpose29", 
      "attrs": {"axes": "(0, 2, 1, 3)"}, 
      "inputs": [[401, 0, 0]]
    }, 
    {
      "op": "Reshape", 
      "name": "reshape62", 
      "attrs": {"shape": "(-3, -1, 64)"}, 
      "inputs": [[402, 0, 0]]
    }, 
    {
      "op": "batch_dot", 
      "name": "decoder_transformer_0_att_enc_dot", 
      "attrs": {"transpose_b": "True"}, 
      "inputs": [[49, 0, 0], [403, 0, 0]]
    }, 
    {
      "op": "Custom", 
      "name": "custom1", 
      "attrs": {
        "max_length": "100", 
        "op_type": "variable_length_bias"
      }, 
      "inputs": [[72, 0, 0]]
    }, 
    {
      "op": "expand_dims", 
      "name": "expand_dims2", 
      "attrs": {"axis": "1"}, 
      "inputs": [[405, 0, 0]]
    }, 
    {
      "op": "broadcast_to", 
      "name": "broadcast_to1", 
      "attrs": {"shape": "[0, 8, 0]"}, 
      "inputs": [[406, 0, 0]]
    }, 
    {
      "op": "Reshape", 
      "name": "reshape50", 
      "attrs": {"shape": "[-3, 0]"}, 
      "inputs": [[407, 0, 0]]
    }, 
    {
      "op": "BlockGrad", 
      "name": "decoder_transformer_source_biasbias", 
      "inputs": [[408, 0, 0]]
    }, 
    {
      "op": "expand_dims", 
      "name": "expand_dims3", 
      "attrs": {"axis": "1"}, 
      "inputs": [[409, 0, 0]]
    }, 
    {
      "op": "broadcast_add", 
      "name": "decoder_transformer_0_att_enc_bias_add", 
      "inputs": [[404, 0, 0], [410, 0, 0]]
    }, 
    {
      "op": "softmax", 
      "name": "softmax7", 
      "attrs": {"axis": "-1"}, 
      "inputs": [[411, 0, 0]]
    }, 
    {
      "op": "Reshape", 
      "name": "reshape63", 
      "attrs": {"shape": "(0, -1, 8, 64)"}, 
      "inputs": [[400, 1, 0]]
    }, 
    {
      "op": "transpose", 
      "name": "transpose30", 
      "attrs": {"axes": "(0, 2, 1, 3)"}, 
      "inputs": [[413, 0, 0]]
    }, 
    {
      "op": "Reshape", 
      "name": "reshape64", 
      "attrs": {"shape": "(-3, -1, 64)"}, 
      "inputs": [[414, 0, 0]]
    }, 
    {
      "op": "batch_dot", 
      "name": "decoder_transformer_0_att_enc_contexts", 
      "inputs": [[412, 0, 0], [415, 0, 0]]
    }, 
    {
      "op": "Reshape", 
      "name": "reshape65", 
      "attrs": {"shape": "(-4, -1, 8, 0, 64)"}, 
      "inputs": [[416, 0, 0]]
    }, 
    {
      "op": "transpose", 
      "name": "transpose31", 
      "attrs": {"axes": "(0, 2, 1, 3)"}, 
      "inputs": [[417, 0, 0]]
    }, 
    {
      "op": "Reshape", 
      "name": "reshape66", 
      "attrs": {"shape": "(-1, 0, 512)"}, 
      "inputs": [[418, 0, 0]]
    }, 
    {
      "op": "null", 
      "name": "decoder_transformer_0_att_enc_h2o_weight", 
      "inputs": []
    }, 
    {
      "op": "FullyConnected", 
      "name": "fullyconnected19", 
      "attrs": {
        "flatten": "False", 
        "no_bias": "True", 
        "num_hidden": "512"
      }, 
      "inputs": [[419, 0, 0], [420, 0, 0]]
    }, 
    {
      "op": "elemwise_add", 
      "name": "decoder_transformer_0_att_enc_post_residual", 
      "inputs": [[421, 0, 0], [43, 0, 0]]
    }, 
    {
      "op": "mean", 
      "name": "mean26", 
      "attrs": {
        "axis": "-1", 
        "keepdims": "True"
      }, 
      "inputs": [[422, 0, 0]]
    }, 
    {
      "op": "broadcast_sub", 
      "name": "decoder_transformer_0_att_enc_post_norminp_minus_mean", 
      "inputs": [[422, 0, 0], [423, 0, 0]]
    }, 
    {
      "op": "broadcast_sub", 
      "name": "broadcast_minus13", 
      "inputs": [[422, 0, 0], [423, 0, 0]]
    }, 
    {
      "op": "square", 
      "name": "square13", 
      "inputs": [[425, 0, 0]]
    }, 
    {
      "op": "mean", 
      "name": "mean27", 
      "attrs": {
        "axis": "-1", 
        "keepdims": "True"
      }, 
      "inputs": [[426, 0, 0]]
    }, 
    {
      "op": "_plus_scalar", 
      "name": "_plusscalar13", 
      "attrs": {"scalar": "1e-06"}, 
      "inputs": [[427, 0, 0]]
    }, 
    {
      "op": "rsqrt", 
      "name": "rsqrt13", 
      "inputs": [[428, 0, 0]]
    }, 
    {
      "op": "broadcast_mul", 
      "name": "decoder_transformer_0_att_enc_post_norminp_norm", 
      "inputs": [[424, 0, 0], [429, 0, 0]]
    }, 
    {
      "op": "null", 
      "name": "decoder_transformer_0_att_enc_post_norm_gamma", 
      "attrs": {
        "__init__": "[\"constant\", {\"value\": 1.0}]", 
        "__shape__": "(512,)"
      }, 
      "inputs": []
    }, 
    {
      "op": "broadcast_mul", 
      "name": "decoder_transformer_0_att_enc_post_norminp_norm_scaled", 
      "inputs": [[430, 0, 0], [431, 0, 0]]
    }, 
    {
      "op": "null", 
      "name": "decoder_transformer_0_att_enc_post_norm_beta", 
      "attrs": {
        "__init__": "[\"constant\", {\"value\": 0.0}]", 
        "__shape__": "(512,)"
      }, 
      "inputs": []
    }, 
    {
      "op": "broadcast_add", 
      "name": "decoder_transformer_0_att_enc_post_norminp_norm_scaled_shifted", 
      "inputs": [[432, 0, 0], [433, 0, 0]]
    }, 
    {
      "op": "null", 
      "name": "decoder_transformer_0_ff_i2h_weight", 
      "inputs": []
    }, 
    {
      "op": "null", 
      "name": "decoder_transformer_0_ff_i2h_bias", 
      "inputs": []
    }, 
    {
      "op": "FullyConnected", 
      "name": "fullyconnected20", 
      "attrs": {
        "flatten": "False", 
        "num_hidden": "2048"
      }, 
      "inputs": [[434, 0, 0], [435, 0, 0], [436, 0, 0]]
    }, 
    {
      "op": "Activation", 
      "name": "activation6", 
      "attrs": {"act_type": "relu"}, 
      "inputs": [[437, 0, 0]]
    }, 
    {
      "op": "null", 
      "name": "decoder_transformer_0_ff_h2o_weight", 
      "inputs": []
    }, 
    {
      "op": "null", 
      "name": "decoder_transformer_0_ff_h2o_bias", 
      "inputs": []
    }, 
    {
      "op": "FullyConnected", 
      "name": "fullyconnected21", 
      "attrs": {
        "flatten": "False", 
        "num_hidden": "512"
      }, 
      "inputs": [[438, 0, 0], [439, 0, 0], [440, 0, 0]]
    }, 
    {
      "op": "elemwise_add", 
      "name": "decoder_transformer_0_ff_post_residual", 
      "inputs": [[441, 0, 0], [434, 0, 0]]
    }, 
    {
      "op": "mean", 
      "name": "mean28", 
      "attrs": {
        "axis": "-1", 
        "keepdims": "True"
      }, 
      "inputs": [[442, 0, 0]]
    }, 
    {
      "op": "broadcast_sub", 
      "name": "decoder_transformer_0_ff_post_norminp_minus_mean", 
      "inputs": [[442, 0, 0], [443, 0, 0]]
    }, 
    {
      "op": "broadcast_sub", 
      "name": "broadcast_minus14", 
      "inputs": [[442, 0, 0], [443, 0, 0]]
    }, 
    {
      "op": "square", 
      "name": "square14", 
      "inputs": [[445, 0, 0]]
    }, 
    {
      "op": "mean", 
      "name": "mean29", 
      "attrs": {
        "axis": "-1", 
        "keepdims": "True"
      }, 
      "inputs": [[446, 0, 0]]
    }, 
    {
      "op": "_plus_scalar", 
      "name": "_plusscalar14", 
      "attrs": {"scalar": "1e-06"}, 
      "inputs": [[447, 0, 0]]
    }, 
    {
      "op": "rsqrt", 
      "name": "rsqrt14", 
      "inputs": [[448, 0, 0]]
    }, 
    {
      "op": "broadcast_mul", 
      "name": "decoder_transformer_0_ff_post_norminp_norm", 
      "inputs": [[444, 0, 0], [449, 0, 0]]
    }, 
    {
      "op": "null", 
      "name": "decoder_transformer_0_ff_post_norm_gamma", 
      "attrs": {
        "__init__": "[\"constant\", {\"value\": 1.0}]", 
        "__shape__": "(512,)"
      }, 
      "inputs": []
    }, 
    {
      "op": "broadcast_mul", 
      "name": "decoder_transformer_0_ff_post_norminp_norm_scaled", 
      "inputs": [[450, 0, 0], [451, 0, 0]]
    }, 
    {
      "op": "null", 
      "name": "decoder_transformer_0_ff_post_norm_beta", 
      "attrs": {
        "__init__": "[\"constant\", {\"value\": 0.0}]", 
        "__shape__": "(512,)"
      }, 
      "inputs": []
    }, 
    {
      "op": "broadcast_add", 
      "name": "decoder_transformer_0_ff_post_norminp_norm_scaled_shifted", 
      "inputs": [[452, 0, 0], [453, 0, 0]]
    }, 
    {
      "op": "null", 
      "name": "decoder_transformer_1_att_self_i2h_weight", 
      "inputs": []
    }, 
    {
      "op": "FullyConnected", 
      "name": "decoder_transformer_1_att_self_qkv_transform", 
      "attrs": {
        "flatten": "False", 
        "no_bias": "True", 
        "num_hidden": "1536"
      }, 
      "inputs": [[454, 0, 0], [455, 0, 0]]
    }, 
    {
      "op": "SliceChannel", 
      "name": "split9", 
      "attrs": {
        "axis": "2", 
        "num_outputs": "3"
      }, 
      "inputs": [[456, 0, 0]]
    }, 
    {
      "op": "_mul_scalar", 
      "name": "_mulscalar10", 
      "attrs": {"scalar": "0.125"}, 
      "inputs": [[457, 0, 0]]
    }, 
    {
      "op": "Reshape", 
      "name": "reshape67", 
      "attrs": {"shape": "(0, -1, 8, 64)"}, 
      "inputs": [[458, 0, 0]]
    }, 
    {
      "op": "transpose", 
      "name": "transpose32", 
      "attrs": {"axes": "(0, 2, 1, 3)"}, 
      "inputs": [[459, 0, 0]]
    }, 
    {
      "op": "Reshape", 
      "name": "reshape68", 
      "attrs": {"shape": "(-3, -1, 64)"}, 
      "inputs": [[460, 0, 0]]
    }, 
    {
      "op": "Reshape", 
      "name": "reshape69", 
      "attrs": {"shape": "(0, -1, 8, 64)"}, 
      "inputs": [[457, 1, 0]]
    }, 
    {
      "op": "transpose", 
      "name": "transpose33", 
      "attrs": {"axes": "(0, 2, 1, 3)"}, 
      "inputs": [[462, 0, 0]]
    }, 
    {
      "op": "Reshape", 
      "name": "reshape70", 
      "attrs": {"shape": "(-3, -1, 64)"}, 
      "inputs": [[463, 0, 0]]
    }, 
    {
      "op": "batch_dot", 
      "name": "decoder_transformer_1_att_self_dot", 
      "attrs": {"transpose_b": "True"}, 
      "inputs": [[461, 0, 0], [464, 0, 0]]
    }, 
    {
      "op": "broadcast_add", 
      "name": "decoder_transformer_1_att_self_bias_add", 
      "inputs": [[465, 0, 0], [19, 0, 0]]
    }, 
    {
      "op": "softmax", 
      "name": "softmax8", 
      "attrs": {"axis": "-1"}, 
      "inputs": [[466, 0, 0]]
    }, 
    {
      "op": "Reshape", 
      "name": "reshape71", 
      "attrs": {"shape": "(0, -1, 8, 64)"}, 
      "inputs": [[457, 2, 0]]
    }, 
    {
      "op": "transpose", 
      "name": "transpose34", 
      "attrs": {"axes": "(0, 2, 1, 3)"}, 
      "inputs": [[468, 0, 0]]
    }, 
    {
      "op": "Reshape", 
      "name": "reshape72", 
      "attrs": {"shape": "(-3, -1, 64)"}, 
      "inputs": [[469, 0, 0]]
    }, 
    {
      "op": "batch_dot", 
      "name": "decoder_transformer_1_att_self_contexts", 
      "inputs": [[467, 0, 0], [470, 0, 0]]
    }, 
    {
      "op": "Reshape", 
      "name": "reshape73", 
      "attrs": {"shape": "(-4, -1, 8, 0, 64)"}, 
      "inputs": [[471, 0, 0]]
    }, 
    {
      "op": "transpose", 
      "name": "transpose35", 
      "attrs": {"axes": "(0, 2, 1, 3)"}, 
      "inputs": [[472, 0, 0]]
    }, 
    {
      "op": "Reshape", 
      "name": "reshape74", 
      "attrs": {"shape": "(-1, 0, 512)"}, 
      "inputs": [[473, 0, 0]]
    }, 
    {
      "op": "null", 
      "name": "decoder_transformer_1_att_self_h2o_weight", 
      "inputs": []
    }, 
    {
      "op": "FullyConnected", 
      "name": "fullyconnected22", 
      "attrs": {
        "flatten": "False", 
        "no_bias": "True", 
        "num_hidden": "512"
      }, 
      "inputs": [[474, 0, 0], [475, 0, 0]]
    }, 
    {
      "op": "elemwise_add", 
      "name": "decoder_transformer_1_att_self_post_residual", 
      "inputs": [[476, 0, 0], [454, 0, 0]]
    }, 
    {
      "op": "mean", 
      "name": "mean30", 
      "attrs": {
        "axis": "-1", 
        "keepdims": "True"
      }, 
      "inputs": [[477, 0, 0]]
    }, 
    {
      "op": "broadcast_sub", 
      "name": "decoder_transformer_1_att_self_post_norminp_minus_mean", 
      "inputs": [[477, 0, 0], [478, 0, 0]]
    }, 
    {
      "op": "broadcast_sub", 
      "name": "broadcast_minus15", 
      "inputs": [[477, 0, 0], [478, 0, 0]]
    }, 
    {
      "op": "square", 
      "name": "square15", 
      "inputs": [[480, 0, 0]]
    }, 
    {
      "op": "mean", 
      "name": "mean31", 
      "attrs": {
        "axis": "-1", 
        "keepdims": "True"
      }, 
      "inputs": [[481, 0, 0]]
    }, 
    {
      "op": "_plus_scalar", 
      "name": "_plusscalar15", 
      "attrs": {"scalar": "1e-06"}, 
      "inputs": [[482, 0, 0]]
    }, 
    {
      "op": "rsqrt", 
      "name": "rsqrt15", 
      "inputs": [[483, 0, 0]]
    }, 
    {
      "op": "broadcast_mul", 
      "name": "decoder_transformer_1_att_self_post_norminp_norm", 
      "inputs": [[479, 0, 0], [484, 0, 0]]
    }, 
    {
      "op": "null", 
      "name": "decoder_transformer_1_att_self_post_norm_gamma", 
      "attrs": {
        "__init__": "[\"constant\", {\"value\": 1.0}]", 
        "__shape__": "(512,)"
      }, 
      "inputs": []
    }, 
    {
      "op": "broadcast_mul", 
      "name": "decoder_transformer_1_att_self_post_norminp_norm_scaled", 
      "inputs": [[485, 0, 0], [486, 0, 0]]
    }, 
    {
      "op": "null", 
      "name": "decoder_transformer_1_att_self_post_norm_beta", 
      "attrs": {
        "__init__": "[\"constant\", {\"value\": 0.0}]", 
        "__shape__": "(512,)"
      }, 
      "inputs": []
    }, 
    {
      "op": "broadcast_add", 
      "name": "decoder_transformer_1_att_self_post_norminp_norm_scaled_shifted", 
      "inputs": [[487, 0, 0], [488, 0, 0]]
    }, 
    {
      "op": "null", 
      "name": "decoder_transformer_1_att_enc_q2h_weight", 
      "inputs": []
    }, 
    {
      "op": "FullyConnected", 
      "name": "decoder_transformer_1_att_enc_q_transform", 
      "attrs": {
        "flatten": "False", 
        "no_bias": "True", 
        "num_hidden": "512"
      }, 
      "inputs": [[489, 0, 0], [490, 0, 0]]
    }, 
    {
      "op": "_mul_scalar", 
      "name": "_mulscalar11", 
      "attrs": {"scalar": "0.125"}, 
      "inputs": [[491, 0, 0]]
    }, 
    {
      "op": "Reshape", 
      "name": "reshape75", 
      "attrs": {"shape": "(0, -1, 8, 64)"}, 
      "inputs": [[492, 0, 0]]
    }, 
    {
      "op": "transpose", 
      "name": "transpose36", 
      "attrs": {"axes": "(0, 2, 1, 3)"}, 
      "inputs": [[493, 0, 0]]
    }, 
    {
      "op": "Reshape", 
      "name": "reshape76", 
      "attrs": {"shape": "(-3, -1, 64)"}, 
      "inputs": [[494, 0, 0]]
    }, 
    {
      "op": "null", 
      "name": "decoder_transformer_1_att_enc_kv2h_weight", 
      "inputs": []
    }, 
    {
      "op": "FullyConnected", 
      "name": "decoder_transformer_1_att_enc_kv_transform", 
      "attrs": {
        "flatten": "False", 
        "no_bias": "True", 
        "num_hidden": "1024"
      }, 
      "inputs": [[397, 0, 0], [496, 0, 0]]
    }, 
    {
      "op": "SliceChannel", 
      "name": "split10", 
      "attrs": {
        "axis": "2", 
        "num_outputs": "2"
      }, 
      "inputs": [[497, 0, 0]]
    }, 
    {
      "op": "Reshape", 
      "name": "reshape77", 
      "attrs": {"shape": "(0, -1, 8, 64)"}, 
      "inputs": [[498, 0, 0]]
    }, 
    {
      "op": "transpose", 
      "name": "transpose37", 
      "attrs": {"axes": "(0, 2, 1, 3)"}, 
      "inputs": [[499, 0, 0]]
    }, 
    {
      "op": "Reshape", 
      "name": "reshape78", 
      "attrs": {"shape": "(-3, -1, 64)"}, 
      "inputs": [[500, 0, 0]]
    }, 
    {
      "op": "batch_dot", 
      "name": "decoder_transformer_1_att_enc_dot", 
      "attrs": {"transpose_b": "True"}, 
      "inputs": [[495, 0, 0], [501, 0, 0]]
    }, 
    {
      "op": "broadcast_add", 
      "name": "decoder_transformer_1_att_enc_bias_add", 
      "inputs": [[502, 0, 0], [410, 0, 0]]
    }, 
    {
      "op": "softmax", 
      "name": "softmax9", 
      "attrs": {"axis": "-1"}, 
      "inputs": [[503, 0, 0]]
    }, 
    {
      "op": "Reshape", 
      "name": "reshape79", 
      "attrs": {"shape": "(0, -1, 8, 64)"}, 
      "inputs": [[498, 1, 0]]
    }, 
    {
      "op": "transpose", 
      "name": "transpose38", 
      "attrs": {"axes": "(0, 2, 1, 3)"}, 
      "inputs": [[505, 0, 0]]
    }, 
    {
      "op": "Reshape", 
      "name": "reshape80", 
      "attrs": {"shape": "(-3, -1, 64)"}, 
      "inputs": [[506, 0, 0]]
    }, 
    {
      "op": "batch_dot", 
      "name": "decoder_transformer_1_att_enc_contexts", 
      "inputs": [[504, 0, 0], [507, 0, 0]]
    }, 
    {
      "op": "Reshape", 
      "name": "reshape81", 
      "attrs": {"shape": "(-4, -1, 8, 0, 64)"}, 
      "inputs": [[508, 0, 0]]
    }, 
    {
      "op": "transpose", 
      "name": "transpose39", 
      "attrs": {"axes": "(0, 2, 1, 3)"}, 
      "inputs": [[509, 0, 0]]
    }, 
    {
      "op": "Reshape", 
      "name": "reshape82", 
      "attrs": {"shape": "(-1, 0, 512)"}, 
      "inputs": [[510, 0, 0]]
    }, 
    {
      "op": "null", 
      "name": "decoder_transformer_1_att_enc_h2o_weight", 
      "inputs": []
    }, 
    {
      "op": "FullyConnected", 
      "name": "fullyconnected23", 
      "attrs": {
        "flatten": "False", 
        "no_bias": "True", 
        "num_hidden": "512"
      }, 
      "inputs": [[511, 0, 0], [512, 0, 0]]
    }, 
    {
      "op": "elemwise_add", 
      "name": "decoder_transformer_1_att_enc_post_residual", 
      "inputs": [[513, 0, 0], [489, 0, 0]]
    }, 
    {
      "op": "mean", 
      "name": "mean32", 
      "attrs": {
        "axis": "-1", 
        "keepdims": "True"
      }, 
      "inputs": [[514, 0, 0]]
    }, 
    {
      "op": "broadcast_sub", 
      "name": "decoder_transformer_1_att_enc_post_norminp_minus_mean", 
      "inputs": [[514, 0, 0], [515, 0, 0]]
    }, 
    {
      "op": "broadcast_sub", 
      "name": "broadcast_minus16", 
      "inputs": [[514, 0, 0], [515, 0, 0]]
    }, 
    {
      "op": "square", 
      "name": "square16", 
      "inputs": [[517, 0, 0]]
    }, 
    {
      "op": "mean", 
      "name": "mean33", 
      "attrs": {
        "axis": "-1", 
        "keepdims": "True"
      }, 
      "inputs": [[518, 0, 0]]
    }, 
    {
      "op": "_plus_scalar", 
      "name": "_plusscalar16", 
      "attrs": {"scalar": "1e-06"}, 
      "inputs": [[519, 0, 0]]
    }, 
    {
      "op": "rsqrt", 
      "name": "rsqrt16", 
      "inputs": [[520, 0, 0]]
    }, 
    {
      "op": "broadcast_mul", 
      "name": "decoder_transformer_1_att_enc_post_norminp_norm", 
      "inputs": [[516, 0, 0], [521, 0, 0]]
    }, 
    {
      "op": "null", 
      "name": "decoder_transformer_1_att_enc_post_norm_gamma", 
      "attrs": {
        "__init__": "[\"constant\", {\"value\": 1.0}]", 
        "__shape__": "(512,)"
      }, 
      "inputs": []
    }, 
    {
      "op": "broadcast_mul", 
      "name": "decoder_transformer_1_att_enc_post_norminp_norm_scaled", 
      "inputs": [[522, 0, 0], [523, 0, 0]]
    }, 
    {
      "op": "null", 
      "name": "decoder_transformer_1_att_enc_post_norm_beta", 
      "attrs": {
        "__init__": "[\"constant\", {\"value\": 0.0}]", 
        "__shape__": "(512,)"
      }, 
      "inputs": []
    }, 
    {
      "op": "broadcast_add", 
      "name": "decoder_transformer_1_att_enc_post_norminp_norm_scaled_shifted", 
      "inputs": [[524, 0, 0], [525, 0, 0]]
    }, 
    {
      "op": "null", 
      "name": "decoder_transformer_1_ff_i2h_weight", 
      "inputs": []
    }, 
    {
      "op": "null", 
      "name": "decoder_transformer_1_ff_i2h_bias", 
      "inputs": []
    }, 
    {
      "op": "FullyConnected", 
      "name": "fullyconnected24", 
      "attrs": {
        "flatten": "False", 
        "num_hidden": "2048"
      }, 
      "inputs": [[526, 0, 0], [527, 0, 0], [528, 0, 0]]
    }, 
    {
      "op": "Activation", 
      "name": "activation7", 
      "attrs": {"act_type": "relu"}, 
      "inputs": [[529, 0, 0]]
    }, 
    {
      "op": "null", 
      "name": "decoder_transformer_1_ff_h2o_weight", 
      "inputs": []
    }, 
    {
      "op": "null", 
      "name": "decoder_transformer_1_ff_h2o_bias", 
      "inputs": []
    }, 
    {
      "op": "FullyConnected", 
      "name": "fullyconnected25", 
      "attrs": {
        "flatten": "False", 
        "num_hidden": "512"
      }, 
      "inputs": [[530, 0, 0], [531, 0, 0], [532, 0, 0]]
    }, 
    {
      "op": "elemwise_add", 
      "name": "decoder_transformer_1_ff_post_residual", 
      "inputs": [[533, 0, 0], [526, 0, 0]]
    }, 
    {
      "op": "mean", 
      "name": "mean34", 
      "attrs": {
        "axis": "-1", 
        "keepdims": "True"
      }, 
      "inputs": [[534, 0, 0]]
    }, 
    {
      "op": "broadcast_sub", 
      "name": "decoder_transformer_1_ff_post_norminp_minus_mean", 
      "inputs": [[534, 0, 0], [535, 0, 0]]
    }, 
    {
      "op": "broadcast_sub", 
      "name": "broadcast_minus17", 
      "inputs": [[534, 0, 0], [535, 0, 0]]
    }, 
    {
      "op": "square", 
      "name": "square17", 
      "inputs": [[537, 0, 0]]
    }, 
    {
      "op": "mean", 
      "name": "mean35", 
      "attrs": {
        "axis": "-1", 
        "keepdims": "True"
      }, 
      "inputs": [[538, 0, 0]]
    }, 
    {
      "op": "_plus_scalar", 
      "name": "_plusscalar17", 
      "attrs": {"scalar": "1e-06"}, 
      "inputs": [[539, 0, 0]]
    }, 
    {
      "op": "rsqrt", 
      "name": "rsqrt17", 
      "inputs": [[540, 0, 0]]
    }, 
    {
      "op": "broadcast_mul", 
      "name": "decoder_transformer_1_ff_post_norminp_norm", 
      "inputs": [[536, 0, 0], [541, 0, 0]]
    }, 
    {
      "op": "null", 
      "name": "decoder_transformer_1_ff_post_norm_gamma", 
      "attrs": {
        "__init__": "[\"constant\", {\"value\": 1.0}]", 
        "__shape__": "(512,)"
      }, 
      "inputs": []
    }, 
    {
      "op": "broadcast_mul", 
      "name": "decoder_transformer_1_ff_post_norminp_norm_scaled", 
      "inputs": [[542, 0, 0], [543, 0, 0]]
    }, 
    {
      "op": "null", 
      "name": "decoder_transformer_1_ff_post_norm_beta", 
      "attrs": {
        "__init__": "[\"constant\", {\"value\": 0.0}]", 
        "__shape__": "(512,)"
      }, 
      "inputs": []
    }, 
    {
      "op": "broadcast_add", 
      "name": "decoder_transformer_1_ff_post_norminp_norm_scaled_shifted", 
      "inputs": [[544, 0, 0], [545, 0, 0]]
    }, 
    {
      "op": "null", 
      "name": "decoder_transformer_2_att_self_i2h_weight", 
      "inputs": []
    }, 
    {
      "op": "FullyConnected", 
      "name": "decoder_transformer_2_att_self_qkv_transform", 
      "attrs": {
        "flatten": "False", 
        "no_bias": "True", 
        "num_hidden": "1536"
      }, 
      "inputs": [[546, 0, 0], [547, 0, 0]]
    }, 
    {
      "op": "SliceChannel", 
      "name": "split11", 
      "attrs": {
        "axis": "2", 
        "num_outputs": "3"
      }, 
      "inputs": [[548, 0, 0]]
    }, 
    {
      "op": "_mul_scalar", 
      "name": "_mulscalar12", 
      "attrs": {"scalar": "0.125"}, 
      "inputs": [[549, 0, 0]]
    }, 
    {
      "op": "Reshape", 
      "name": "reshape83", 
      "attrs": {"shape": "(0, -1, 8, 64)"}, 
      "inputs": [[550, 0, 0]]
    }, 
    {
      "op": "transpose", 
      "name": "transpose40", 
      "attrs": {"axes": "(0, 2, 1, 3)"}, 
      "inputs": [[551, 0, 0]]
    }, 
    {
      "op": "Reshape", 
      "name": "reshape84", 
      "attrs": {"shape": "(-3, -1, 64)"}, 
      "inputs": [[552, 0, 0]]
    }, 
    {
      "op": "Reshape", 
      "name": "reshape85", 
      "attrs": {"shape": "(0, -1, 8, 64)"}, 
      "inputs": [[549, 1, 0]]
    }, 
    {
      "op": "transpose", 
      "name": "transpose41", 
      "attrs": {"axes": "(0, 2, 1, 3)"}, 
      "inputs": [[554, 0, 0]]
    }, 
    {
      "op": "Reshape", 
      "name": "reshape86", 
      "attrs": {"shape": "(-3, -1, 64)"}, 
      "inputs": [[555, 0, 0]]
    }, 
    {
      "op": "batch_dot", 
      "name": "decoder_transformer_2_att_self_dot", 
      "attrs": {"transpose_b": "True"}, 
      "inputs": [[553, 0, 0], [556, 0, 0]]
    }, 
    {
      "op": "broadcast_add", 
      "name": "decoder_transformer_2_att_self_bias_add", 
      "inputs": [[557, 0, 0], [19, 0, 0]]
    }, 
    {
      "op": "softmax", 
      "name": "softmax10", 
      "attrs": {"axis": "-1"}, 
      "inputs": [[558, 0, 0]]
    }, 
    {
      "op": "Reshape", 
      "name": "reshape87", 
      "attrs": {"shape": "(0, -1, 8, 64)"}, 
      "inputs": [[549, 2, 0]]
    }, 
    {
      "op": "transpose", 
      "name": "transpose42", 
      "attrs": {"axes": "(0, 2, 1, 3)"}, 
      "inputs": [[560, 0, 0]]
    }, 
    {
      "op": "Reshape", 
      "name": "reshape88", 
      "attrs": {"shape": "(-3, -1, 64)"}, 
      "inputs": [[561, 0, 0]]
    }, 
    {
      "op": "batch_dot", 
      "name": "decoder_transformer_2_att_self_contexts", 
      "inputs": [[559, 0, 0], [562, 0, 0]]
    }, 
    {
      "op": "Reshape", 
      "name": "reshape89", 
      "attrs": {"shape": "(-4, -1, 8, 0, 64)"}, 
      "inputs": [[563, 0, 0]]
    }, 
    {
      "op": "transpose", 
      "name": "transpose43", 
      "attrs": {"axes": "(0, 2, 1, 3)"}, 
      "inputs": [[564, 0, 0]]
    }, 
    {
      "op": "Reshape", 
      "name": "reshape90", 
      "attrs": {"shape": "(-1, 0, 512)"}, 
      "inputs": [[565, 0, 0]]
    }, 
    {
      "op": "null", 
      "name": "decoder_transformer_2_att_self_h2o_weight", 
      "inputs": []
    }, 
    {
      "op": "FullyConnected", 
      "name": "fullyconnected26", 
      "attrs": {
        "flatten": "False", 
        "no_bias": "True", 
        "num_hidden": "512"
      }, 
      "inputs": [[566, 0, 0], [567, 0, 0]]
    }, 
    {
      "op": "elemwise_add", 
      "name": "decoder_transformer_2_att_self_post_residual", 
      "inputs": [[568, 0, 0], [546, 0, 0]]
    }, 
    {
      "op": "mean", 
      "name": "mean36", 
      "attrs": {
        "axis": "-1", 
        "keepdims": "True"
      }, 
      "inputs": [[569, 0, 0]]
    }, 
    {
      "op": "broadcast_sub", 
      "name": "decoder_transformer_2_att_self_post_norminp_minus_mean", 
      "inputs": [[569, 0, 0], [570, 0, 0]]
    }, 
    {
      "op": "broadcast_sub", 
      "name": "broadcast_minus18", 
      "inputs": [[569, 0, 0], [570, 0, 0]]
    }, 
    {
      "op": "square", 
      "name": "square18", 
      "inputs": [[572, 0, 0]]
    }, 
    {
      "op": "mean", 
      "name": "mean37", 
      "attrs": {
        "axis": "-1", 
        "keepdims": "True"
      }, 
      "inputs": [[573, 0, 0]]
    }, 
    {
      "op": "_plus_scalar", 
      "name": "_plusscalar18", 
      "attrs": {"scalar": "1e-06"}, 
      "inputs": [[574, 0, 0]]
    }, 
    {
      "op": "rsqrt", 
      "name": "rsqrt18", 
      "inputs": [[575, 0, 0]]
    }, 
    {
      "op": "broadcast_mul", 
      "name": "decoder_transformer_2_att_self_post_norminp_norm", 
      "inputs": [[571, 0, 0], [576, 0, 0]]
    }, 
    {
      "op": "null", 
      "name": "decoder_transformer_2_att_self_post_norm_gamma", 
      "attrs": {
        "__init__": "[\"constant\", {\"value\": 1.0}]", 
        "__shape__": "(512,)"
      }, 
      "inputs": []
    }, 
    {
      "op": "broadcast_mul", 
      "name": "decoder_transformer_2_att_self_post_norminp_norm_scaled", 
      "inputs": [[577, 0, 0], [578, 0, 0]]
    }, 
    {
      "op": "null", 
      "name": "decoder_transformer_2_att_self_post_norm_beta", 
      "attrs": {
        "__init__": "[\"constant\", {\"value\": 0.0}]", 
        "__shape__": "(512,)"
      }, 
      "inputs": []
    }, 
    {
      "op": "broadcast_add", 
      "name": "decoder_transformer_2_att_self_post_norminp_norm_scaled_shifted", 
      "inputs": [[579, 0, 0], [580, 0, 0]]
    }, 
    {
      "op": "null", 
      "name": "decoder_transformer_2_att_enc_q2h_weight", 
      "inputs": []
    }, 
    {
      "op": "FullyConnected", 
      "name": "decoder_transformer_2_att_enc_q_transform", 
      "attrs": {
        "flatten": "False", 
        "no_bias": "True", 
        "num_hidden": "512"
      }, 
      "inputs": [[581, 0, 0], [582, 0, 0]]
    }, 
    {
      "op": "_mul_scalar", 
      "name": "_mulscalar13", 
      "attrs": {"scalar": "0.125"}, 
      "inputs": [[583, 0, 0]]
    }, 
    {
      "op": "Reshape", 
      "name": "reshape91", 
      "attrs": {"shape": "(0, -1, 8, 64)"}, 
      "inputs": [[584, 0, 0]]
    }, 
    {
      "op": "transpose", 
      "name": "transpose44", 
      "attrs": {"axes": "(0, 2, 1, 3)"}, 
      "inputs": [[585, 0, 0]]
    }, 
    {
      "op": "Reshape", 
      "name": "reshape92", 
      "attrs": {"shape": "(-3, -1, 64)"}, 
      "inputs": [[586, 0, 0]]
    }, 
    {
      "op": "null", 
      "name": "decoder_transformer_2_att_enc_kv2h_weight", 
      "inputs": []
    }, 
    {
      "op": "FullyConnected", 
      "name": "decoder_transformer_2_att_enc_kv_transform", 
      "attrs": {
        "flatten": "False", 
        "no_bias": "True", 
        "num_hidden": "1024"
      }, 
      "inputs": [[397, 0, 0], [588, 0, 0]]
    }, 
    {
      "op": "SliceChannel", 
      "name": "split12", 
      "attrs": {
        "axis": "2", 
        "num_outputs": "2"
      }, 
      "inputs": [[589, 0, 0]]
    }, 
    {
      "op": "Reshape", 
      "name": "reshape93", 
      "attrs": {"shape": "(0, -1, 8, 64)"}, 
      "inputs": [[590, 0, 0]]
    }, 
    {
      "op": "transpose", 
      "name": "transpose45", 
      "attrs": {"axes": "(0, 2, 1, 3)"}, 
      "inputs": [[591, 0, 0]]
    }, 
    {
      "op": "Reshape", 
      "name": "reshape94", 
      "attrs": {"shape": "(-3, -1, 64)"}, 
      "inputs": [[592, 0, 0]]
    }, 
    {
      "op": "batch_dot", 
      "name": "decoder_transformer_2_att_enc_dot", 
      "attrs": {"transpose_b": "True"}, 
      "inputs": [[587, 0, 0], [593, 0, 0]]
    }, 
    {
      "op": "broadcast_add", 
      "name": "decoder_transformer_2_att_enc_bias_add", 
      "inputs": [[594, 0, 0], [410, 0, 0]]
    }, 
    {
      "op": "softmax", 
      "name": "softmax11", 
      "attrs": {"axis": "-1"}, 
      "inputs": [[595, 0, 0]]
    }, 
    {
      "op": "Reshape", 
      "name": "reshape95", 
      "attrs": {"shape": "(0, -1, 8, 64)"}, 
      "inputs": [[590, 1, 0]]
    }, 
    {
      "op": "transpose", 
      "name": "transpose46", 
      "attrs": {"axes": "(0, 2, 1, 3)"}, 
      "inputs": [[597, 0, 0]]
    }, 
    {
      "op": "Reshape", 
      "name": "reshape96", 
      "attrs": {"shape": "(-3, -1, 64)"}, 
      "inputs": [[598, 0, 0]]
    }, 
    {
      "op": "batch_dot", 
      "name": "decoder_transformer_2_att_enc_contexts", 
      "inputs": [[596, 0, 0], [599, 0, 0]]
    }, 
    {
      "op": "Reshape", 
      "name": "reshape97", 
      "attrs": {"shape": "(-4, -1, 8, 0, 64)"}, 
      "inputs": [[600, 0, 0]]
    }, 
    {
      "op": "transpose", 
      "name": "transpose47", 
      "attrs": {"axes": "(0, 2, 1, 3)"}, 
      "inputs": [[601, 0, 0]]
    }, 
    {
      "op": "Reshape", 
      "name": "reshape98", 
      "attrs": {"shape": "(-1, 0, 512)"}, 
      "inputs": [[602, 0, 0]]
    }, 
    {
      "op": "null", 
      "name": "decoder_transformer_2_att_enc_h2o_weight", 
      "inputs": []
    }, 
    {
      "op": "FullyConnected", 
      "name": "fullyconnected27", 
      "attrs": {
        "flatten": "False", 
        "no_bias": "True", 
        "num_hidden": "512"
      }, 
      "inputs": [[603, 0, 0], [604, 0, 0]]
    }, 
    {
      "op": "elemwise_add", 
      "name": "decoder_transformer_2_att_enc_post_residual", 
      "inputs": [[605, 0, 0], [581, 0, 0]]
    }, 
    {
      "op": "mean", 
      "name": "mean38", 
      "attrs": {
        "axis": "-1", 
        "keepdims": "True"
      }, 
      "inputs": [[606, 0, 0]]
    }, 
    {
      "op": "broadcast_sub", 
      "name": "decoder_transformer_2_att_enc_post_norminp_minus_mean", 
      "inputs": [[606, 0, 0], [607, 0, 0]]
    }, 
    {
      "op": "broadcast_sub", 
      "name": "broadcast_minus19", 
      "inputs": [[606, 0, 0], [607, 0, 0]]
    }, 
    {
      "op": "square", 
      "name": "square19", 
      "inputs": [[609, 0, 0]]
    }, 
    {
      "op": "mean", 
      "name": "mean39", 
      "attrs": {
        "axis": "-1", 
        "keepdims": "True"
      }, 
      "inputs": [[610, 0, 0]]
    }, 
    {
      "op": "_plus_scalar", 
      "name": "_plusscalar19", 
      "attrs": {"scalar": "1e-06"}, 
      "inputs": [[611, 0, 0]]
    }, 
    {
      "op": "rsqrt", 
      "name": "rsqrt19", 
      "inputs": [[612, 0, 0]]
    }, 
    {
      "op": "broadcast_mul", 
      "name": "decoder_transformer_2_att_enc_post_norminp_norm", 
      "inputs": [[608, 0, 0], [613, 0, 0]]
    }, 
    {
      "op": "null", 
      "name": "decoder_transformer_2_att_enc_post_norm_gamma", 
      "attrs": {
        "__init__": "[\"constant\", {\"value\": 1.0}]", 
        "__shape__": "(512,)"
      }, 
      "inputs": []
    }, 
    {
      "op": "broadcast_mul", 
      "name": "decoder_transformer_2_att_enc_post_norminp_norm_scaled", 
      "inputs": [[614, 0, 0], [615, 0, 0]]
    }, 
    {
      "op": "null", 
      "name": "decoder_transformer_2_att_enc_post_norm_beta", 
      "attrs": {
        "__init__": "[\"constant\", {\"value\": 0.0}]", 
        "__shape__": "(512,)"
      }, 
      "inputs": []
    }, 
    {
      "op": "broadcast_add", 
      "name": "decoder_transformer_2_att_enc_post_norminp_norm_scaled_shifted", 
      "inputs": [[616, 0, 0], [617, 0, 0]]
    }, 
    {
      "op": "null", 
      "name": "decoder_transformer_2_ff_i2h_weight", 
      "inputs": []
    }, 
    {
      "op": "null", 
      "name": "decoder_transformer_2_ff_i2h_bias", 
      "inputs": []
    }, 
    {
      "op": "FullyConnected", 
      "name": "fullyconnected28", 
      "attrs": {
        "flatten": "False", 
        "num_hidden": "2048"
      }, 
      "inputs": [[618, 0, 0], [619, 0, 0], [620, 0, 0]]
    }, 
    {
      "op": "Activation", 
      "name": "activation8", 
      "attrs": {"act_type": "relu"}, 
      "inputs": [[621, 0, 0]]
    }, 
    {
      "op": "null", 
      "name": "decoder_transformer_2_ff_h2o_weight", 
      "inputs": []
    }, 
    {
      "op": "null", 
      "name": "decoder_transformer_2_ff_h2o_bias", 
      "inputs": []
    }, 
    {
      "op": "FullyConnected", 
      "name": "fullyconnected29", 
      "attrs": {
        "flatten": "False", 
        "num_hidden": "512"
      }, 
      "inputs": [[622, 0, 0], [623, 0, 0], [624, 0, 0]]
    }, 
    {
      "op": "elemwise_add", 
      "name": "decoder_transformer_2_ff_post_residual", 
      "inputs": [[625, 0, 0], [618, 0, 0]]
    }, 
    {
      "op": "mean", 
      "name": "mean40", 
      "attrs": {
        "axis": "-1", 
        "keepdims": "True"
      }, 
      "inputs": [[626, 0, 0]]
    }, 
    {
      "op": "broadcast_sub", 
      "name": "decoder_transformer_2_ff_post_norminp_minus_mean", 
      "inputs": [[626, 0, 0], [627, 0, 0]]
    }, 
    {
      "op": "broadcast_sub", 
      "name": "broadcast_minus20", 
      "inputs": [[626, 0, 0], [627, 0, 0]]
    }, 
    {
      "op": "square", 
      "name": "square20", 
      "inputs": [[629, 0, 0]]
    }, 
    {
      "op": "mean", 
      "name": "mean41", 
      "attrs": {
        "axis": "-1", 
        "keepdims": "True"
      }, 
      "inputs": [[630, 0, 0]]
    }, 
    {
      "op": "_plus_scalar", 
      "name": "_plusscalar20", 
      "attrs": {"scalar": "1e-06"}, 
      "inputs": [[631, 0, 0]]
    }, 
    {
      "op": "rsqrt", 
      "name": "rsqrt20", 
      "inputs": [[632, 0, 0]]
    }, 
    {
      "op": "broadcast_mul", 
      "name": "decoder_transformer_2_ff_post_norminp_norm", 
      "inputs": [[628, 0, 0], [633, 0, 0]]
    }, 
    {
      "op": "null", 
      "name": "decoder_transformer_2_ff_post_norm_gamma", 
      "attrs": {
        "__init__": "[\"constant\", {\"value\": 1.0}]", 
        "__shape__": "(512,)"
      }, 
      "inputs": []
    }, 
    {
      "op": "broadcast_mul", 
      "name": "decoder_transformer_2_ff_post_norminp_norm_scaled", 
      "inputs": [[634, 0, 0], [635, 0, 0]]
    }, 
    {
      "op": "null", 
      "name": "decoder_transformer_2_ff_post_norm_beta", 
      "attrs": {
        "__init__": "[\"constant\", {\"value\": 0.0}]", 
        "__shape__": "(512,)"
      }, 
      "inputs": []
    }, 
    {
      "op": "broadcast_add", 
      "name": "decoder_transformer_2_ff_post_norminp_norm_scaled_shifted", 
      "inputs": [[636, 0, 0], [637, 0, 0]]
    }, 
    {
      "op": "null", 
      "name": "decoder_transformer_3_att_self_i2h_weight", 
      "inputs": []
    }, 
    {
      "op": "FullyConnected", 
      "name": "decoder_transformer_3_att_self_qkv_transform", 
      "attrs": {
        "flatten": "False", 
        "no_bias": "True", 
        "num_hidden": "1536"
      }, 
      "inputs": [[638, 0, 0], [639, 0, 0]]
    }, 
    {
      "op": "SliceChannel", 
      "name": "split13", 
      "attrs": {
        "axis": "2", 
        "num_outputs": "3"
      }, 
      "inputs": [[640, 0, 0]]
    }, 
    {
      "op": "_mul_scalar", 
      "name": "_mulscalar14", 
      "attrs": {"scalar": "0.125"}, 
      "inputs": [[641, 0, 0]]
    }, 
    {
      "op": "Reshape", 
      "name": "reshape99", 
      "attrs": {"shape": "(0, -1, 8, 64)"}, 
      "inputs": [[642, 0, 0]]
    }, 
    {
      "op": "transpose", 
      "name": "transpose48", 
      "attrs": {"axes": "(0, 2, 1, 3)"}, 
      "inputs": [[643, 0, 0]]
    }, 
    {
      "op": "Reshape", 
      "name": "reshape100", 
      "attrs": {"shape": "(-3, -1, 64)"}, 
      "inputs": [[644, 0, 0]]
    }, 
    {
      "op": "Reshape", 
      "name": "reshape101", 
      "attrs": {"shape": "(0, -1, 8, 64)"}, 
      "inputs": [[641, 1, 0]]
    }, 
    {
      "op": "transpose", 
      "name": "transpose49", 
      "attrs": {"axes": "(0, 2, 1, 3)"}, 
      "inputs": [[646, 0, 0]]
    }, 
    {
      "op": "Reshape", 
      "name": "reshape102", 
      "attrs": {"shape": "(-3, -1, 64)"}, 
      "inputs": [[647, 0, 0]]
    }, 
    {
      "op": "batch_dot", 
      "name": "decoder_transformer_3_att_self_dot", 
      "attrs": {"transpose_b": "True"}, 
      "inputs": [[645, 0, 0], [648, 0, 0]]
    }, 
    {
      "op": "broadcast_add", 
      "name": "decoder_transformer_3_att_self_bias_add", 
      "inputs": [[649, 0, 0], [19, 0, 0]]
    }, 
    {
      "op": "softmax", 
      "name": "softmax12", 
      "attrs": {"axis": "-1"}, 
      "inputs": [[650, 0, 0]]
    }, 
    {
      "op": "Reshape", 
      "name": "reshape103", 
      "attrs": {"shape": "(0, -1, 8, 64)"}, 
      "inputs": [[641, 2, 0]]
    }, 
    {
      "op": "transpose", 
      "name": "transpose50", 
      "attrs": {"axes": "(0, 2, 1, 3)"}, 
      "inputs": [[652, 0, 0]]
    }, 
    {
      "op": "Reshape", 
      "name": "reshape104", 
      "attrs": {"shape": "(-3, -1, 64)"}, 
      "inputs": [[653, 0, 0]]
    }, 
    {
      "op": "batch_dot", 
      "name": "decoder_transformer_3_att_self_contexts", 
      "inputs": [[651, 0, 0], [654, 0, 0]]
    }, 
    {
      "op": "Reshape", 
      "name": "reshape105", 
      "attrs": {"shape": "(-4, -1, 8, 0, 64)"}, 
      "inputs": [[655, 0, 0]]
    }, 
    {
      "op": "transpose", 
      "name": "transpose51", 
      "attrs": {"axes": "(0, 2, 1, 3)"}, 
      "inputs": [[656, 0, 0]]
    }, 
    {
      "op": "Reshape", 
      "name": "reshape106", 
      "attrs": {"shape": "(-1, 0, 512)"}, 
      "inputs": [[657, 0, 0]]
    }, 
    {
      "op": "null", 
      "name": "decoder_transformer_3_att_self_h2o_weight", 
      "inputs": []
    }, 
    {
      "op": "FullyConnected", 
      "name": "fullyconnected30", 
      "attrs": {
        "flatten": "False", 
        "no_bias": "True", 
        "num_hidden": "512"
      }, 
      "inputs": [[658, 0, 0], [659, 0, 0]]
    }, 
    {
      "op": "elemwise_add", 
      "name": "decoder_transformer_3_att_self_post_residual", 
      "inputs": [[660, 0, 0], [638, 0, 0]]
    }, 
    {
      "op": "mean", 
      "name": "mean42", 
      "attrs": {
        "axis": "-1", 
        "keepdims": "True"
      }, 
      "inputs": [[661, 0, 0]]
    }, 
    {
      "op": "broadcast_sub", 
      "name": "decoder_transformer_3_att_self_post_norminp_minus_mean", 
      "inputs": [[661, 0, 0], [662, 0, 0]]
    }, 
    {
      "op": "broadcast_sub", 
      "name": "broadcast_minus21", 
      "inputs": [[661, 0, 0], [662, 0, 0]]
    }, 
    {
      "op": "square", 
      "name": "square21", 
      "inputs": [[664, 0, 0]]
    }, 
    {
      "op": "mean", 
      "name": "mean43", 
      "attrs": {
        "axis": "-1", 
        "keepdims": "True"
      }, 
      "inputs": [[665, 0, 0]]
    }, 
    {
      "op": "_plus_scalar", 
      "name": "_plusscalar21", 
      "attrs": {"scalar": "1e-06"}, 
      "inputs": [[666, 0, 0]]
    }, 
    {
      "op": "rsqrt", 
      "name": "rsqrt21", 
      "inputs": [[667, 0, 0]]
    }, 
    {
      "op": "broadcast_mul", 
      "name": "decoder_transformer_3_att_self_post_norminp_norm", 
      "inputs": [[663, 0, 0], [668, 0, 0]]
    }, 
    {
      "op": "null", 
      "name": "decoder_transformer_3_att_self_post_norm_gamma", 
      "attrs": {
        "__init__": "[\"constant\", {\"value\": 1.0}]", 
        "__shape__": "(512,)"
      }, 
      "inputs": []
    }, 
    {
      "op": "broadcast_mul", 
      "name": "decoder_transformer_3_att_self_post_norminp_norm_scaled", 
      "inputs": [[669, 0, 0], [670, 0, 0]]
    }, 
    {
      "op": "null", 
      "name": "decoder_transformer_3_att_self_post_norm_beta", 
      "attrs": {
        "__init__": "[\"constant\", {\"value\": 0.0}]", 
        "__shape__": "(512,)"
      }, 
      "inputs": []
    }, 
    {
      "op": "broadcast_add", 
      "name": "decoder_transformer_3_att_self_post_norminp_norm_scaled_shifted", 
      "inputs": [[671, 0, 0], [672, 0, 0]]
    }, 
    {
      "op": "null", 
      "name": "decoder_transformer_3_att_enc_q2h_weight", 
      "inputs": []
    }, 
    {
      "op": "FullyConnected", 
      "name": "decoder_transformer_3_att_enc_q_transform", 
      "attrs": {
        "flatten": "False", 
        "no_bias": "True", 
        "num_hidden": "512"
      }, 
      "inputs": [[673, 0, 0], [674, 0, 0]]
    }, 
    {
      "op": "_mul_scalar", 
      "name": "_mulscalar15", 
      "attrs": {"scalar": "0.125"}, 
      "inputs": [[675, 0, 0]]
    }, 
    {
      "op": "Reshape", 
      "name": "reshape107", 
      "attrs": {"shape": "(0, -1, 8, 64)"}, 
      "inputs": [[676, 0, 0]]
    }, 
    {
      "op": "transpose", 
      "name": "transpose52", 
      "attrs": {"axes": "(0, 2, 1, 3)"}, 
      "inputs": [[677, 0, 0]]
    }, 
    {
      "op": "Reshape", 
      "name": "reshape108", 
      "attrs": {"shape": "(-3, -1, 64)"}, 
      "inputs": [[678, 0, 0]]
    }, 
    {
      "op": "null", 
      "name": "decoder_transformer_3_att_enc_kv2h_weight", 
      "inputs": []
    }, 
    {
      "op": "FullyConnected", 
      "name": "decoder_transformer_3_att_enc_kv_transform", 
      "attrs": {
        "flatten": "False", 
        "no_bias": "True", 
        "num_hidden": "1024"
      }, 
      "inputs": [[397, 0, 0], [680, 0, 0]]
    }, 
    {
      "op": "SliceChannel", 
      "name": "split14", 
      "attrs": {
        "axis": "2", 
        "num_outputs": "2"
      }, 
      "inputs": [[681, 0, 0]]
    }, 
    {
      "op": "Reshape", 
      "name": "reshape109", 
      "attrs": {"shape": "(0, -1, 8, 64)"}, 
      "inputs": [[682, 0, 0]]
    }, 
    {
      "op": "transpose", 
      "name": "transpose53", 
      "attrs": {"axes": "(0, 2, 1, 3)"}, 
      "inputs": [[683, 0, 0]]
    }, 
    {
      "op": "Reshape", 
      "name": "reshape110", 
      "attrs": {"shape": "(-3, -1, 64)"}, 
      "inputs": [[684, 0, 0]]
    }, 
    {
      "op": "batch_dot", 
      "name": "decoder_transformer_3_att_enc_dot", 
      "attrs": {"transpose_b": "True"}, 
      "inputs": [[679, 0, 0], [685, 0, 0]]
    }, 
    {
      "op": "broadcast_add", 
      "name": "decoder_transformer_3_att_enc_bias_add", 
      "inputs": [[686, 0, 0], [410, 0, 0]]
    }, 
    {
      "op": "softmax", 
      "name": "softmax13", 
      "attrs": {"axis": "-1"}, 
      "inputs": [[687, 0, 0]]
    }, 
    {
      "op": "Reshape", 
      "name": "reshape111", 
      "attrs": {"shape": "(0, -1, 8, 64)"}, 
      "inputs": [[682, 1, 0]]
    }, 
    {
      "op": "transpose", 
      "name": "transpose54", 
      "attrs": {"axes": "(0, 2, 1, 3)"}, 
      "inputs": [[689, 0, 0]]
    }, 
    {
      "op": "Reshape", 
      "name": "reshape112", 
      "attrs": {"shape": "(-3, -1, 64)"}, 
      "inputs": [[690, 0, 0]]
    }, 
    {
      "op": "batch_dot", 
      "name": "decoder_transformer_3_att_enc_contexts", 
      "inputs": [[688, 0, 0], [691, 0, 0]]
    }, 
    {
      "op": "Reshape", 
      "name": "reshape113", 
      "attrs": {"shape": "(-4, -1, 8, 0, 64)"}, 
      "inputs": [[692, 0, 0]]
    }, 
    {
      "op": "transpose", 
      "name": "transpose55", 
      "attrs": {"axes": "(0, 2, 1, 3)"}, 
      "inputs": [[693, 0, 0]]
    }, 
    {
      "op": "Reshape", 
      "name": "reshape114", 
      "attrs": {"shape": "(-1, 0, 512)"}, 
      "inputs": [[694, 0, 0]]
    }, 
    {
      "op": "null", 
      "name": "decoder_transformer_3_att_enc_h2o_weight", 
      "inputs": []
    }, 
    {
      "op": "FullyConnected", 
      "name": "fullyconnected31", 
      "attrs": {
        "flatten": "False", 
        "no_bias": "True", 
        "num_hidden": "512"
      }, 
      "inputs": [[695, 0, 0], [696, 0, 0]]
    }, 
    {
      "op": "elemwise_add", 
      "name": "decoder_transformer_3_att_enc_post_residual", 
      "inputs": [[697, 0, 0], [673, 0, 0]]
    }, 
    {
      "op": "mean", 
      "name": "mean44", 
      "attrs": {
        "axis": "-1", 
        "keepdims": "True"
      }, 
      "inputs": [[698, 0, 0]]
    }, 
    {
      "op": "broadcast_sub", 
      "name": "decoder_transformer_3_att_enc_post_norminp_minus_mean", 
      "inputs": [[698, 0, 0], [699, 0, 0]]
    }, 
    {
      "op": "broadcast_sub", 
      "name": "broadcast_minus22", 
      "inputs": [[698, 0, 0], [699, 0, 0]]
    }, 
    {
      "op": "square", 
      "name": "square22", 
      "inputs": [[701, 0, 0]]
    }, 
    {
      "op": "mean", 
      "name": "mean45", 
      "attrs": {
        "axis": "-1", 
        "keepdims": "True"
      }, 
      "inputs": [[702, 0, 0]]
    }, 
    {
      "op": "_plus_scalar", 
      "name": "_plusscalar22", 
      "attrs": {"scalar": "1e-06"}, 
      "inputs": [[703, 0, 0]]
    }, 
    {
      "op": "rsqrt", 
      "name": "rsqrt22", 
      "inputs": [[704, 0, 0]]
    }, 
    {
      "op": "broadcast_mul", 
      "name": "decoder_transformer_3_att_enc_post_norminp_norm", 
      "inputs": [[700, 0, 0], [705, 0, 0]]
    }, 
    {
      "op": "null", 
      "name": "decoder_transformer_3_att_enc_post_norm_gamma", 
      "attrs": {
        "__init__": "[\"constant\", {\"value\": 1.0}]", 
        "__shape__": "(512,)"
      }, 
      "inputs": []
    }, 
    {
      "op": "broadcast_mul", 
      "name": "decoder_transformer_3_att_enc_post_norminp_norm_scaled", 
      "inputs": [[706, 0, 0], [707, 0, 0]]
    }, 
    {
      "op": "null", 
      "name": "decoder_transformer_3_att_enc_post_norm_beta", 
      "attrs": {
        "__init__": "[\"constant\", {\"value\": 0.0}]", 
        "__shape__": "(512,)"
      }, 
      "inputs": []
    }, 
    {
      "op": "broadcast_add", 
      "name": "decoder_transformer_3_att_enc_post_norminp_norm_scaled_shifted", 
      "inputs": [[708, 0, 0], [709, 0, 0]]
    }, 
    {
      "op": "null", 
      "name": "decoder_transformer_3_ff_i2h_weight", 
      "inputs": []
    }, 
    {
      "op": "null", 
      "name": "decoder_transformer_3_ff_i2h_bias", 
      "inputs": []
    }, 
    {
      "op": "FullyConnected", 
      "name": "fullyconnected32", 
      "attrs": {
        "flatten": "False", 
        "num_hidden": "2048"
      }, 
      "inputs": [[710, 0, 0], [711, 0, 0], [712, 0, 0]]
    }, 
    {
      "op": "Activation", 
      "name": "activation9", 
      "attrs": {"act_type": "relu"}, 
      "inputs": [[713, 0, 0]]
    }, 
    {
      "op": "null", 
      "name": "decoder_transformer_3_ff_h2o_weight", 
      "inputs": []
    }, 
    {
      "op": "null", 
      "name": "decoder_transformer_3_ff_h2o_bias", 
      "inputs": []
    }, 
    {
      "op": "FullyConnected", 
      "name": "fullyconnected33", 
      "attrs": {
        "flatten": "False", 
        "num_hidden": "512"
      }, 
      "inputs": [[714, 0, 0], [715, 0, 0], [716, 0, 0]]
    }, 
    {
      "op": "elemwise_add", 
      "name": "decoder_transformer_3_ff_post_residual", 
      "inputs": [[717, 0, 0], [710, 0, 0]]
    }, 
    {
      "op": "mean", 
      "name": "mean46", 
      "attrs": {
        "axis": "-1", 
        "keepdims": "True"
      }, 
      "inputs": [[718, 0, 0]]
    }, 
    {
      "op": "broadcast_sub", 
      "name": "decoder_transformer_3_ff_post_norminp_minus_mean", 
      "inputs": [[718, 0, 0], [719, 0, 0]]
    }, 
    {
      "op": "broadcast_sub", 
      "name": "broadcast_minus23", 
      "inputs": [[718, 0, 0], [719, 0, 0]]
    }, 
    {
      "op": "square", 
      "name": "square23", 
      "inputs": [[721, 0, 0]]
    }, 
    {
      "op": "mean", 
      "name": "mean47", 
      "attrs": {
        "axis": "-1", 
        "keepdims": "True"
      }, 
      "inputs": [[722, 0, 0]]
    }, 
    {
      "op": "_plus_scalar", 
      "name": "_plusscalar23", 
      "attrs": {"scalar": "1e-06"}, 
      "inputs": [[723, 0, 0]]
    }, 
    {
      "op": "rsqrt", 
      "name": "rsqrt23", 
      "inputs": [[724, 0, 0]]
    }, 
    {
      "op": "broadcast_mul", 
      "name": "decoder_transformer_3_ff_post_norminp_norm", 
      "inputs": [[720, 0, 0], [725, 0, 0]]
    }, 
    {
      "op": "null", 
      "name": "decoder_transformer_3_ff_post_norm_gamma", 
      "attrs": {
        "__init__": "[\"constant\", {\"value\": 1.0}]", 
        "__shape__": "(512,)"
      }, 
      "inputs": []
    }, 
    {
      "op": "broadcast_mul", 
      "name": "decoder_transformer_3_ff_post_norminp_norm_scaled", 
      "inputs": [[726, 0, 0], [727, 0, 0]]
    }, 
    {
      "op": "null", 
      "name": "decoder_transformer_3_ff_post_norm_beta", 
      "attrs": {
        "__init__": "[\"constant\", {\"value\": 0.0}]", 
        "__shape__": "(512,)"
      }, 
      "inputs": []
    }, 
    {
      "op": "broadcast_add", 
      "name": "decoder_transformer_3_ff_post_norminp_norm_scaled_shifted", 
      "inputs": [[728, 0, 0], [729, 0, 0]]
    }, 
    {
      "op": "null", 
      "name": "decoder_transformer_4_att_self_i2h_weight", 
      "inputs": []
    }, 
    {
      "op": "FullyConnected", 
      "name": "decoder_transformer_4_att_self_qkv_transform", 
      "attrs": {
        "flatten": "False", 
        "no_bias": "True", 
        "num_hidden": "1536"
      }, 
      "inputs": [[730, 0, 0], [731, 0, 0]]
    }, 
    {
      "op": "SliceChannel", 
      "name": "split15", 
      "attrs": {
        "axis": "2", 
        "num_outputs": "3"
      }, 
      "inputs": [[732, 0, 0]]
    }, 
    {
      "op": "_mul_scalar", 
      "name": "_mulscalar16", 
      "attrs": {"scalar": "0.125"}, 
      "inputs": [[733, 0, 0]]
    }, 
    {
      "op": "Reshape", 
      "name": "reshape115", 
      "attrs": {"shape": "(0, -1, 8, 64)"}, 
      "inputs": [[734, 0, 0]]
    }, 
    {
      "op": "transpose", 
      "name": "transpose56", 
      "attrs": {"axes": "(0, 2, 1, 3)"}, 
      "inputs": [[735, 0, 0]]
    }, 
    {
      "op": "Reshape", 
      "name": "reshape116", 
      "attrs": {"shape": "(-3, -1, 64)"}, 
      "inputs": [[736, 0, 0]]
    }, 
    {
      "op": "Reshape", 
      "name": "reshape117", 
      "attrs": {"shape": "(0, -1, 8, 64)"}, 
      "inputs": [[733, 1, 0]]
    }, 
    {
      "op": "transpose", 
      "name": "transpose57", 
      "attrs": {"axes": "(0, 2, 1, 3)"}, 
      "inputs": [[738, 0, 0]]
    }, 
    {
      "op": "Reshape", 
      "name": "reshape118", 
      "attrs": {"shape": "(-3, -1, 64)"}, 
      "inputs": [[739, 0, 0]]
    }, 
    {
      "op": "batch_dot", 
      "name": "decoder_transformer_4_att_self_dot", 
      "attrs": {"transpose_b": "True"}, 
      "inputs": [[737, 0, 0], [740, 0, 0]]
    }, 
    {
      "op": "broadcast_add", 
      "name": "decoder_transformer_4_att_self_bias_add", 
      "inputs": [[741, 0, 0], [19, 0, 0]]
    }, 
    {
      "op": "softmax", 
      "name": "softmax14", 
      "attrs": {"axis": "-1"}, 
      "inputs": [[742, 0, 0]]
    }, 
    {
      "op": "Reshape", 
      "name": "reshape119", 
      "attrs": {"shape": "(0, -1, 8, 64)"}, 
      "inputs": [[733, 2, 0]]
    }, 
    {
      "op": "transpose", 
      "name": "transpose58", 
      "attrs": {"axes": "(0, 2, 1, 3)"}, 
      "inputs": [[744, 0, 0]]
    }, 
    {
      "op": "Reshape", 
      "name": "reshape120", 
      "attrs": {"shape": "(-3, -1, 64)"}, 
      "inputs": [[745, 0, 0]]
    }, 
    {
      "op": "batch_dot", 
      "name": "decoder_transformer_4_att_self_contexts", 
      "inputs": [[743, 0, 0], [746, 0, 0]]
    }, 
    {
      "op": "Reshape", 
      "name": "reshape121", 
      "attrs": {"shape": "(-4, -1, 8, 0, 64)"}, 
      "inputs": [[747, 0, 0]]
    }, 
    {
      "op": "transpose", 
      "name": "transpose59", 
      "attrs": {"axes": "(0, 2, 1, 3)"}, 
      "inputs": [[748, 0, 0]]
    }, 
    {
      "op": "Reshape", 
      "name": "reshape122", 
      "attrs": {"shape": "(-1, 0, 512)"}, 
      "inputs": [[749, 0, 0]]
    }, 
    {
      "op": "null", 
      "name": "decoder_transformer_4_att_self_h2o_weight", 
      "inputs": []
    }, 
    {
      "op": "FullyConnected", 
      "name": "fullyconnected34", 
      "attrs": {
        "flatten": "False", 
        "no_bias": "True", 
        "num_hidden": "512"
      }, 
      "inputs": [[750, 0, 0], [751, 0, 0]]
    }, 
    {
      "op": "elemwise_add", 
      "name": "decoder_transformer_4_att_self_post_residual", 
      "inputs": [[752, 0, 0], [730, 0, 0]]
    }, 
    {
      "op": "mean", 
      "name": "mean48", 
      "attrs": {
        "axis": "-1", 
        "keepdims": "True"
      }, 
      "inputs": [[753, 0, 0]]
    }, 
    {
      "op": "broadcast_sub", 
      "name": "decoder_transformer_4_att_self_post_norminp_minus_mean", 
      "inputs": [[753, 0, 0], [754, 0, 0]]
    }, 
    {
      "op": "broadcast_sub", 
      "name": "broadcast_minus24", 
      "inputs": [[753, 0, 0], [754, 0, 0]]
    }, 
    {
      "op": "square", 
      "name": "square24", 
      "inputs": [[756, 0, 0]]
    }, 
    {
      "op": "mean", 
      "name": "mean49", 
      "attrs": {
        "axis": "-1", 
        "keepdims": "True"
      }, 
      "inputs": [[757, 0, 0]]
    }, 
    {
      "op": "_plus_scalar", 
      "name": "_plusscalar24", 
      "attrs": {"scalar": "1e-06"}, 
      "inputs": [[758, 0, 0]]
    }, 
    {
      "op": "rsqrt", 
      "name": "rsqrt24", 
      "inputs": [[759, 0, 0]]
    }, 
    {
      "op": "broadcast_mul", 
      "name": "decoder_transformer_4_att_self_post_norminp_norm", 
      "inputs": [[755, 0, 0], [760, 0, 0]]
    }, 
    {
      "op": "null", 
      "name": "decoder_transformer_4_att_self_post_norm_gamma", 
      "attrs": {
        "__init__": "[\"constant\", {\"value\": 1.0}]", 
        "__shape__": "(512,)"
      }, 
      "inputs": []
    }, 
    {
      "op": "broadcast_mul", 
      "name": "decoder_transformer_4_att_self_post_norminp_norm_scaled", 
      "inputs": [[761, 0, 0], [762, 0, 0]]
    }, 
    {
      "op": "null", 
      "name": "decoder_transformer_4_att_self_post_norm_beta", 
      "attrs": {
        "__init__": "[\"constant\", {\"value\": 0.0}]", 
        "__shape__": "(512,)"
      }, 
      "inputs": []
    }, 
    {
      "op": "broadcast_add", 
      "name": "decoder_transformer_4_att_self_post_norminp_norm_scaled_shifted", 
      "inputs": [[763, 0, 0], [764, 0, 0]]
    }, 
    {
      "op": "null", 
      "name": "decoder_transformer_4_att_enc_q2h_weight", 
      "inputs": []
    }, 
    {
      "op": "FullyConnected", 
      "name": "decoder_transformer_4_att_enc_q_transform", 
      "attrs": {
        "flatten": "False", 
        "no_bias": "True", 
        "num_hidden": "512"
      }, 
      "inputs": [[765, 0, 0], [766, 0, 0]]
    }, 
    {
      "op": "_mul_scalar", 
      "name": "_mulscalar17", 
      "attrs": {"scalar": "0.125"}, 
      "inputs": [[767, 0, 0]]
    }, 
    {
      "op": "Reshape", 
      "name": "reshape123", 
      "attrs": {"shape": "(0, -1, 8, 64)"}, 
      "inputs": [[768, 0, 0]]
    }, 
    {
      "op": "transpose", 
      "name": "transpose60", 
      "attrs": {"axes": "(0, 2, 1, 3)"}, 
      "inputs": [[769, 0, 0]]
    }, 
    {
      "op": "Reshape", 
      "name": "reshape124", 
      "attrs": {"shape": "(-3, -1, 64)"}, 
      "inputs": [[770, 0, 0]]
    }, 
    {
      "op": "null", 
      "name": "decoder_transformer_4_att_enc_kv2h_weight", 
      "inputs": []
    }, 
    {
      "op": "FullyConnected", 
      "name": "decoder_transformer_4_att_enc_kv_transform", 
      "attrs": {
        "flatten": "False", 
        "no_bias": "True", 
        "num_hidden": "1024"
      }, 
      "inputs": [[397, 0, 0], [772, 0, 0]]
    }, 
    {
      "op": "SliceChannel", 
      "name": "split16", 
      "attrs": {
        "axis": "2", 
        "num_outputs": "2"
      }, 
      "inputs": [[773, 0, 0]]
    }, 
    {
      "op": "Reshape", 
      "name": "reshape125", 
      "attrs": {"shape": "(0, -1, 8, 64)"}, 
      "inputs": [[774, 0, 0]]
    }, 
    {
      "op": "transpose", 
      "name": "transpose61", 
      "attrs": {"axes": "(0, 2, 1, 3)"}, 
      "inputs": [[775, 0, 0]]
    }, 
    {
      "op": "Reshape", 
      "name": "reshape126", 
      "attrs": {"shape": "(-3, -1, 64)"}, 
      "inputs": [[776, 0, 0]]
    }, 
    {
      "op": "batch_dot", 
      "name": "decoder_transformer_4_att_enc_dot", 
      "attrs": {"transpose_b": "True"}, 
      "inputs": [[771, 0, 0], [777, 0, 0]]
    }, 
    {
      "op": "broadcast_add", 
      "name": "decoder_transformer_4_att_enc_bias_add", 
      "inputs": [[778, 0, 0], [410, 0, 0]]
    }, 
    {
      "op": "softmax", 
      "name": "softmax15", 
      "attrs": {"axis": "-1"}, 
      "inputs": [[779, 0, 0]]
    }, 
    {
      "op": "Reshape", 
      "name": "reshape127", 
      "attrs": {"shape": "(0, -1, 8, 64)"}, 
      "inputs": [[774, 1, 0]]
    }, 
    {
      "op": "transpose", 
      "name": "transpose62", 
      "attrs": {"axes": "(0, 2, 1, 3)"}, 
      "inputs": [[781, 0, 0]]
    }, 
    {
      "op": "Reshape", 
      "name": "reshape128", 
      "attrs": {"shape": "(-3, -1, 64)"}, 
      "inputs": [[782, 0, 0]]
    }, 
    {
      "op": "batch_dot", 
      "name": "decoder_transformer_4_att_enc_contexts", 
      "inputs": [[780, 0, 0], [783, 0, 0]]
    }, 
    {
      "op": "Reshape", 
      "name": "reshape129", 
      "attrs": {"shape": "(-4, -1, 8, 0, 64)"}, 
      "inputs": [[784, 0, 0]]
    }, 
    {
      "op": "transpose", 
      "name": "transpose63", 
      "attrs": {"axes": "(0, 2, 1, 3)"}, 
      "inputs": [[785, 0, 0]]
    }, 
    {
      "op": "Reshape", 
      "name": "reshape130", 
      "attrs": {"shape": "(-1, 0, 512)"}, 
      "inputs": [[786, 0, 0]]
    }, 
    {
      "op": "null", 
      "name": "decoder_transformer_4_att_enc_h2o_weight", 
      "inputs": []
    }, 
    {
      "op": "FullyConnected", 
      "name": "fullyconnected35", 
      "attrs": {
        "flatten": "False", 
        "no_bias": "True", 
        "num_hidden": "512"
      }, 
      "inputs": [[787, 0, 0], [788, 0, 0]]
    }, 
    {
      "op": "elemwise_add", 
      "name": "decoder_transformer_4_att_enc_post_residual", 
      "inputs": [[789, 0, 0], [765, 0, 0]]
    }, 
    {
      "op": "mean", 
      "name": "mean50", 
      "attrs": {
        "axis": "-1", 
        "keepdims": "True"
      }, 
      "inputs": [[790, 0, 0]]
    }, 
    {
      "op": "broadcast_sub", 
      "name": "decoder_transformer_4_att_enc_post_norminp_minus_mean", 
      "inputs": [[790, 0, 0], [791, 0, 0]]
    }, 
    {
      "op": "broadcast_sub", 
      "name": "broadcast_minus25", 
      "inputs": [[790, 0, 0], [791, 0, 0]]
    }, 
    {
      "op": "square", 
      "name": "square25", 
      "inputs": [[793, 0, 0]]
    }, 
    {
      "op": "mean", 
      "name": "mean51", 
      "attrs": {
        "axis": "-1", 
        "keepdims": "True"
      }, 
      "inputs": [[794, 0, 0]]
    }, 
    {
      "op": "_plus_scalar", 
      "name": "_plusscalar25", 
      "attrs": {"scalar": "1e-06"}, 
      "inputs": [[795, 0, 0]]
    }, 
    {
      "op": "rsqrt", 
      "name": "rsqrt25", 
      "inputs": [[796, 0, 0]]
    }, 
    {
      "op": "broadcast_mul", 
      "name": "decoder_transformer_4_att_enc_post_norminp_norm", 
      "inputs": [[792, 0, 0], [797, 0, 0]]
    }, 
    {
      "op": "null", 
      "name": "decoder_transformer_4_att_enc_post_norm_gamma", 
      "attrs": {
        "__init__": "[\"constant\", {\"value\": 1.0}]", 
        "__shape__": "(512,)"
      }, 
      "inputs": []
    }, 
    {
      "op": "broadcast_mul", 
      "name": "decoder_transformer_4_att_enc_post_norminp_norm_scaled", 
      "inputs": [[798, 0, 0], [799, 0, 0]]
    }, 
    {
      "op": "null", 
      "name": "decoder_transformer_4_att_enc_post_norm_beta", 
      "attrs": {
        "__init__": "[\"constant\", {\"value\": 0.0}]", 
        "__shape__": "(512,)"
      }, 
      "inputs": []
    }, 
    {
      "op": "broadcast_add", 
      "name": "decoder_transformer_4_att_enc_post_norminp_norm_scaled_shifted", 
      "inputs": [[800, 0, 0], [801, 0, 0]]
    }, 
    {
      "op": "null", 
      "name": "decoder_transformer_4_ff_i2h_weight", 
      "inputs": []
    }, 
    {
      "op": "null", 
      "name": "decoder_transformer_4_ff_i2h_bias", 
      "inputs": []
    }, 
    {
      "op": "FullyConnected", 
      "name": "fullyconnected36", 
      "attrs": {
        "flatten": "False", 
        "num_hidden": "2048"
      }, 
      "inputs": [[802, 0, 0], [803, 0, 0], [804, 0, 0]]
    }, 
    {
      "op": "Activation", 
      "name": "activation10", 
      "attrs": {"act_type": "relu"}, 
      "inputs": [[805, 0, 0]]
    }, 
    {
      "op": "null", 
      "name": "decoder_transformer_4_ff_h2o_weight", 
      "inputs": []
    }, 
    {
      "op": "null", 
      "name": "decoder_transformer_4_ff_h2o_bias", 
      "inputs": []
    }, 
    {
      "op": "FullyConnected", 
      "name": "fullyconnected37", 
      "attrs": {
        "flatten": "False", 
        "num_hidden": "512"
      }, 
      "inputs": [[806, 0, 0], [807, 0, 0], [808, 0, 0]]
    }, 
    {
      "op": "elemwise_add", 
      "name": "decoder_transformer_4_ff_post_residual", 
      "inputs": [[809, 0, 0], [802, 0, 0]]
    }, 
    {
      "op": "mean", 
      "name": "mean52", 
      "attrs": {
        "axis": "-1", 
        "keepdims": "True"
      }, 
      "inputs": [[810, 0, 0]]
    }, 
    {
      "op": "broadcast_sub", 
      "name": "decoder_transformer_4_ff_post_norminp_minus_mean", 
      "inputs": [[810, 0, 0], [811, 0, 0]]
    }, 
    {
      "op": "broadcast_sub", 
      "name": "broadcast_minus26", 
      "inputs": [[810, 0, 0], [811, 0, 0]]
    }, 
    {
      "op": "square", 
      "name": "square26", 
      "inputs": [[813, 0, 0]]
    }, 
    {
      "op": "mean", 
      "name": "mean53", 
      "attrs": {
        "axis": "-1", 
        "keepdims": "True"
      }, 
      "inputs": [[814, 0, 0]]
    }, 
    {
      "op": "_plus_scalar", 
      "name": "_plusscalar26", 
      "attrs": {"scalar": "1e-06"}, 
      "inputs": [[815, 0, 0]]
    }, 
    {
      "op": "rsqrt", 
      "name": "rsqrt26", 
      "inputs": [[816, 0, 0]]
    }, 
    {
      "op": "broadcast_mul", 
      "name": "decoder_transformer_4_ff_post_norminp_norm", 
      "inputs": [[812, 0, 0], [817, 0, 0]]
    }, 
    {
      "op": "null", 
      "name": "decoder_transformer_4_ff_post_norm_gamma", 
      "attrs": {
        "__init__": "[\"constant\", {\"value\": 1.0}]", 
        "__shape__": "(512,)"
      }, 
      "inputs": []
    }, 
    {
      "op": "broadcast_mul", 
      "name": "decoder_transformer_4_ff_post_norminp_norm_scaled", 
      "inputs": [[818, 0, 0], [819, 0, 0]]
    }, 
    {
      "op": "null", 
      "name": "decoder_transformer_4_ff_post_norm_beta", 
      "attrs": {
        "__init__": "[\"constant\", {\"value\": 0.0}]", 
        "__shape__": "(512,)"
      }, 
      "inputs": []
    }, 
    {
      "op": "broadcast_add", 
      "name": "decoder_transformer_4_ff_post_norminp_norm_scaled_shifted", 
      "inputs": [[820, 0, 0], [821, 0, 0]]
    }, 
    {
      "op": "null", 
      "name": "decoder_transformer_5_att_self_i2h_weight", 
      "inputs": []
    }, 
    {
      "op": "FullyConnected", 
      "name": "decoder_transformer_5_att_self_qkv_transform", 
      "attrs": {
        "flatten": "False", 
        "no_bias": "True", 
        "num_hidden": "1536"
      }, 
      "inputs": [[822, 0, 0], [823, 0, 0]]
    }, 
    {
      "op": "SliceChannel", 
      "name": "split17", 
      "attrs": {
        "axis": "2", 
        "num_outputs": "3"
      }, 
      "inputs": [[824, 0, 0]]
    }, 
    {
      "op": "_mul_scalar", 
      "name": "_mulscalar18", 
      "attrs": {"scalar": "0.125"}, 
      "inputs": [[825, 0, 0]]
    }, 
    {
      "op": "Reshape", 
      "name": "reshape131", 
      "attrs": {"shape": "(0, -1, 8, 64)"}, 
      "inputs": [[826, 0, 0]]
    }, 
    {
      "op": "transpose", 
      "name": "transpose64", 
      "attrs": {"axes": "(0, 2, 1, 3)"}, 
      "inputs": [[827, 0, 0]]
    }, 
    {
      "op": "Reshape", 
      "name": "reshape132", 
      "attrs": {"shape": "(-3, -1, 64)"}, 
      "inputs": [[828, 0, 0]]
    }, 
    {
      "op": "Reshape", 
      "name": "reshape133", 
      "attrs": {"shape": "(0, -1, 8, 64)"}, 
      "inputs": [[825, 1, 0]]
    }, 
    {
      "op": "transpose", 
      "name": "transpose65", 
      "attrs": {"axes": "(0, 2, 1, 3)"}, 
      "inputs": [[830, 0, 0]]
    }, 
    {
      "op": "Reshape", 
      "name": "reshape134", 
      "attrs": {"shape": "(-3, -1, 64)"}, 
      "inputs": [[831, 0, 0]]
    }, 
    {
      "op": "batch_dot", 
      "name": "decoder_transformer_5_att_self_dot", 
      "attrs": {"transpose_b": "True"}, 
      "inputs": [[829, 0, 0], [832, 0, 0]]
    }, 
    {
      "op": "broadcast_add", 
      "name": "decoder_transformer_5_att_self_bias_add", 
      "inputs": [[833, 0, 0], [19, 0, 0]]
    }, 
    {
      "op": "softmax", 
      "name": "softmax16", 
      "attrs": {"axis": "-1"}, 
      "inputs": [[834, 0, 0]]
    }, 
    {
      "op": "Reshape", 
      "name": "reshape135", 
      "attrs": {"shape": "(0, -1, 8, 64)"}, 
      "inputs": [[825, 2, 0]]
    }, 
    {
      "op": "transpose", 
      "name": "transpose66", 
      "attrs": {"axes": "(0, 2, 1, 3)"}, 
      "inputs": [[836, 0, 0]]
    }, 
    {
      "op": "Reshape", 
      "name": "reshape136", 
      "attrs": {"shape": "(-3, -1, 64)"}, 
      "inputs": [[837, 0, 0]]
    }, 
    {
      "op": "batch_dot", 
      "name": "decoder_transformer_5_att_self_contexts", 
      "inputs": [[835, 0, 0], [838, 0, 0]]
    }, 
    {
      "op": "Reshape", 
      "name": "reshape137", 
      "attrs": {"shape": "(-4, -1, 8, 0, 64)"}, 
      "inputs": [[839, 0, 0]]
    }, 
    {
      "op": "transpose", 
      "name": "transpose67", 
      "attrs": {"axes": "(0, 2, 1, 3)"}, 
      "inputs": [[840, 0, 0]]
    }, 
    {
      "op": "Reshape", 
      "name": "reshape138", 
      "attrs": {"shape": "(-1, 0, 512)"}, 
      "inputs": [[841, 0, 0]]
    }, 
    {
      "op": "null", 
      "name": "decoder_transformer_5_att_self_h2o_weight", 
      "inputs": []
    }, 
    {
      "op": "FullyConnected", 
      "name": "fullyconnected38", 
      "attrs": {
        "flatten": "False", 
        "no_bias": "True", 
        "num_hidden": "512"
      }, 
      "inputs": [[842, 0, 0], [843, 0, 0]]
    }, 
    {
      "op": "elemwise_add", 
      "name": "decoder_transformer_5_att_self_post_residual", 
      "inputs": [[844, 0, 0], [822, 0, 0]]
    }, 
    {
      "op": "mean", 
      "name": "mean54", 
      "attrs": {
        "axis": "-1", 
        "keepdims": "True"
      }, 
      "inputs": [[845, 0, 0]]
    }, 
    {
      "op": "broadcast_sub", 
      "name": "decoder_transformer_5_att_self_post_norminp_minus_mean", 
      "inputs": [[845, 0, 0], [846, 0, 0]]
    }, 
    {
      "op": "broadcast_sub", 
      "name": "broadcast_minus27", 
      "inputs": [[845, 0, 0], [846, 0, 0]]
    }, 
    {
      "op": "square", 
      "name": "square27", 
      "inputs": [[848, 0, 0]]
    }, 
    {
      "op": "mean", 
      "name": "mean55", 
      "attrs": {
        "axis": "-1", 
        "keepdims": "True"
      }, 
      "inputs": [[849, 0, 0]]
    }, 
    {
      "op": "_plus_scalar", 
      "name": "_plusscalar27", 
      "attrs": {"scalar": "1e-06"}, 
      "inputs": [[850, 0, 0]]
    }, 
    {
      "op": "rsqrt", 
      "name": "rsqrt27", 
      "inputs": [[851, 0, 0]]
    }, 
    {
      "op": "broadcast_mul", 
      "name": "decoder_transformer_5_att_self_post_norminp_norm", 
      "inputs": [[847, 0, 0], [852, 0, 0]]
    }, 
    {
      "op": "null", 
      "name": "decoder_transformer_5_att_self_post_norm_gamma", 
      "attrs": {
        "__init__": "[\"constant\", {\"value\": 1.0}]", 
        "__shape__": "(512,)"
      }, 
      "inputs": []
    }, 
    {
      "op": "broadcast_mul", 
      "name": "decoder_transformer_5_att_self_post_norminp_norm_scaled", 
      "inputs": [[853, 0, 0], [854, 0, 0]]
    }, 
    {
      "op": "null", 
      "name": "decoder_transformer_5_att_self_post_norm_beta", 
      "attrs": {
        "__init__": "[\"constant\", {\"value\": 0.0}]", 
        "__shape__": "(512,)"
      }, 
      "inputs": []
    }, 
    {
      "op": "broadcast_add", 
      "name": "decoder_transformer_5_att_self_post_norminp_norm_scaled_shifted", 
      "inputs": [[855, 0, 0], [856, 0, 0]]
    }, 
    {
      "op": "null", 
      "name": "decoder_transformer_5_att_enc_q2h_weight", 
      "inputs": []
    }, 
    {
      "op": "FullyConnected", 
      "name": "decoder_transformer_5_att_enc_q_transform", 
      "attrs": {
        "flatten": "False", 
        "no_bias": "True", 
        "num_hidden": "512"
      }, 
      "inputs": [[857, 0, 0], [858, 0, 0]]
    }, 
    {
      "op": "_mul_scalar", 
      "name": "_mulscalar19", 
      "attrs": {"scalar": "0.125"}, 
      "inputs": [[859, 0, 0]]
    }, 
    {
      "op": "Reshape", 
      "name": "reshape139", 
      "attrs": {"shape": "(0, -1, 8, 64)"}, 
      "inputs": [[860, 0, 0]]
    }, 
    {
      "op": "transpose", 
      "name": "transpose68", 
      "attrs": {"axes": "(0, 2, 1, 3)"}, 
      "inputs": [[861, 0, 0]]
    }, 
    {
      "op": "Reshape", 
      "name": "reshape140", 
      "attrs": {"shape": "(-3, -1, 64)"}, 
      "inputs": [[862, 0, 0]]
    }, 
    {
      "op": "null", 
      "name": "decoder_transformer_5_att_enc_kv2h_weight", 
      "inputs": []
    }, 
    {
      "op": "FullyConnected", 
      "name": "decoder_transformer_5_att_enc_kv_transform", 
      "attrs": {
        "flatten": "False", 
        "no_bias": "True", 
        "num_hidden": "1024"
      }, 
      "inputs": [[397, 0, 0], [864, 0, 0]]
    }, 
    {
      "op": "SliceChannel", 
      "name": "split18", 
      "attrs": {
        "axis": "2", 
        "num_outputs": "2"
      }, 
      "inputs": [[865, 0, 0]]
    }, 
    {
      "op": "Reshape", 
      "name": "reshape141", 
      "attrs": {"shape": "(0, -1, 8, 64)"}, 
      "inputs": [[866, 0, 0]]
    }, 
    {
      "op": "transpose", 
      "name": "transpose69", 
      "attrs": {"axes": "(0, 2, 1, 3)"}, 
      "inputs": [[867, 0, 0]]
    }, 
    {
      "op": "Reshape", 
      "name": "reshape142", 
      "attrs": {"shape": "(-3, -1, 64)"}, 
      "inputs": [[868, 0, 0]]
    }, 
    {
      "op": "batch_dot", 
      "name": "decoder_transformer_5_att_enc_dot", 
      "attrs": {"transpose_b": "True"}, 
      "inputs": [[863, 0, 0], [869, 0, 0]]
    }, 
    {
      "op": "broadcast_add", 
      "name": "decoder_transformer_5_att_enc_bias_add", 
      "inputs": [[870, 0, 0], [410, 0, 0]]
    }, 
    {
      "op": "softmax", 
      "name": "softmax17", 
      "attrs": {"axis": "-1"}, 
      "inputs": [[871, 0, 0]]
    }, 
    {
      "op": "Reshape", 
      "name": "reshape143", 
      "attrs": {"shape": "(0, -1, 8, 64)"}, 
      "inputs": [[866, 1, 0]]
    }, 
    {
      "op": "transpose", 
      "name": "transpose70", 
      "attrs": {"axes": "(0, 2, 1, 3)"}, 
      "inputs": [[873, 0, 0]]
    }, 
    {
      "op": "Reshape", 
      "name": "reshape144", 
      "attrs": {"shape": "(-3, -1, 64)"}, 
      "inputs": [[874, 0, 0]]
    }, 
    {
      "op": "batch_dot", 
      "name": "decoder_transformer_5_att_enc_contexts", 
      "inputs": [[872, 0, 0], [875, 0, 0]]
    }, 
    {
      "op": "Reshape", 
      "name": "reshape145", 
      "attrs": {"shape": "(-4, -1, 8, 0, 64)"}, 
      "inputs": [[876, 0, 0]]
    }, 
    {
      "op": "transpose", 
      "name": "transpose71", 
      "attrs": {"axes": "(0, 2, 1, 3)"}, 
      "inputs": [[877, 0, 0]]
    }, 
    {
      "op": "Reshape", 
      "name": "reshape146", 
      "attrs": {"shape": "(-1, 0, 512)"}, 
      "inputs": [[878, 0, 0]]
    }, 
    {
      "op": "null", 
      "name": "decoder_transformer_5_att_enc_h2o_weight", 
      "inputs": []
    }, 
    {
      "op": "FullyConnected", 
      "name": "fullyconnected39", 
      "attrs": {
        "flatten": "False", 
        "no_bias": "True", 
        "num_hidden": "512"
      }, 
      "inputs": [[879, 0, 0], [880, 0, 0]]
    }, 
    {
      "op": "elemwise_add", 
      "name": "decoder_transformer_5_att_enc_post_residual", 
      "inputs": [[881, 0, 0], [857, 0, 0]]
    }, 
    {
      "op": "mean", 
      "name": "mean56", 
      "attrs": {
        "axis": "-1", 
        "keepdims": "True"
      }, 
      "inputs": [[882, 0, 0]]
    }, 
    {
      "op": "broadcast_sub", 
      "name": "decoder_transformer_5_att_enc_post_norminp_minus_mean", 
      "inputs": [[882, 0, 0], [883, 0, 0]]
    }, 
    {
      "op": "broadcast_sub", 
      "name": "broadcast_minus28", 
      "inputs": [[882, 0, 0], [883, 0, 0]]
    }, 
    {
      "op": "square", 
      "name": "square28", 
      "inputs": [[885, 0, 0]]
    }, 
    {
      "op": "mean", 
      "name": "mean57", 
      "attrs": {
        "axis": "-1", 
        "keepdims": "True"
      }, 
      "inputs": [[886, 0, 0]]
    }, 
    {
      "op": "_plus_scalar", 
      "name": "_plusscalar28", 
      "attrs": {"scalar": "1e-06"}, 
      "inputs": [[887, 0, 0]]
    }, 
    {
      "op": "rsqrt", 
      "name": "rsqrt28", 
      "inputs": [[888, 0, 0]]
    }, 
    {
      "op": "broadcast_mul", 
      "name": "decoder_transformer_5_att_enc_post_norminp_norm", 
      "inputs": [[884, 0, 0], [889, 0, 0]]
    }, 
    {
      "op": "null", 
      "name": "decoder_transformer_5_att_enc_post_norm_gamma", 
      "attrs": {
        "__init__": "[\"constant\", {\"value\": 1.0}]", 
        "__shape__": "(512,)"
      }, 
      "inputs": []
    }, 
    {
      "op": "broadcast_mul", 
      "name": "decoder_transformer_5_att_enc_post_norminp_norm_scaled", 
      "inputs": [[890, 0, 0], [891, 0, 0]]
    }, 
    {
      "op": "null", 
      "name": "decoder_transformer_5_att_enc_post_norm_beta", 
      "attrs": {
        "__init__": "[\"constant\", {\"value\": 0.0}]", 
        "__shape__": "(512,)"
      }, 
      "inputs": []
    }, 
    {
      "op": "broadcast_add", 
      "name": "decoder_transformer_5_att_enc_post_norminp_norm_scaled_shifted", 
      "inputs": [[892, 0, 0], [893, 0, 0]]
    }, 
    {
      "op": "null", 
      "name": "decoder_transformer_5_ff_i2h_weight", 
      "inputs": []
    }, 
    {
      "op": "null", 
      "name": "decoder_transformer_5_ff_i2h_bias", 
      "inputs": []
    }, 
    {
      "op": "FullyConnected", 
      "name": "fullyconnected40", 
      "attrs": {
        "flatten": "False", 
        "num_hidden": "2048"
      }, 
      "inputs": [[894, 0, 0], [895, 0, 0], [896, 0, 0]]
    }, 
    {
      "op": "Activation", 
      "name": "activation11", 
      "attrs": {"act_type": "relu"}, 
      "inputs": [[897, 0, 0]]
    }, 
    {
      "op": "null", 
      "name": "decoder_transformer_5_ff_h2o_weight", 
      "inputs": []
    }, 
    {
      "op": "null", 
      "name": "decoder_transformer_5_ff_h2o_bias", 
      "inputs": []
    }, 
    {
      "op": "FullyConnected", 
      "name": "fullyconnected41", 
      "attrs": {
        "flatten": "False", 
        "num_hidden": "512"
      }, 
      "inputs": [[898, 0, 0], [899, 0, 0], [900, 0, 0]]
    }, 
    {
      "op": "elemwise_add", 
      "name": "decoder_transformer_5_ff_post_residual", 
      "inputs": [[901, 0, 0], [894, 0, 0]]
    }, 
    {
      "op": "mean", 
      "name": "mean58", 
      "attrs": {
        "axis": "-1", 
        "keepdims": "True"
      }, 
      "inputs": [[902, 0, 0]]
    }, 
    {
      "op": "broadcast_sub", 
      "name": "decoder_transformer_5_ff_post_norminp_minus_mean", 
      "inputs": [[902, 0, 0], [903, 0, 0]]
    }, 
    {
      "op": "broadcast_sub", 
      "name": "broadcast_minus29", 
      "inputs": [[902, 0, 0], [903, 0, 0]]
    }, 
    {
      "op": "square", 
      "name": "square29", 
      "inputs": [[905, 0, 0]]
    }, 
    {
      "op": "mean", 
      "name": "mean59", 
      "attrs": {
        "axis": "-1", 
        "keepdims": "True"
      }, 
      "inputs": [[906, 0, 0]]
    }, 
    {
      "op": "_plus_scalar", 
      "name": "_plusscalar29", 
      "attrs": {"scalar": "1e-06"}, 
      "inputs": [[907, 0, 0]]
    }, 
    {
      "op": "rsqrt", 
      "name": "rsqrt29", 
      "inputs": [[908, 0, 0]]
    }, 
    {
      "op": "broadcast_mul", 
      "name": "decoder_transformer_5_ff_post_norminp_norm", 
      "inputs": [[904, 0, 0], [909, 0, 0]]
    }, 
    {
      "op": "null", 
      "name": "decoder_transformer_5_ff_post_norm_gamma", 
      "attrs": {
        "__init__": "[\"constant\", {\"value\": 1.0}]", 
        "__shape__": "(512,)"
      }, 
      "inputs": []
    }, 
    {
      "op": "broadcast_mul", 
      "name": "decoder_transformer_5_ff_post_norminp_norm_scaled", 
      "inputs": [[910, 0, 0], [911, 0, 0]]
    }, 
    {
      "op": "null", 
      "name": "decoder_transformer_5_ff_post_norm_beta", 
      "attrs": {
        "__init__": "[\"constant\", {\"value\": 0.0}]", 
        "__shape__": "(512,)"
      }, 
      "inputs": []
    }, 
    {
      "op": "broadcast_add", 
      "name": "decoder_transformer_5_ff_post_norminp_norm_scaled_shifted", 
      "inputs": [[912, 0, 0], [913, 0, 0]]
    }, 
    {
      "op": "Reshape", 
      "name": "reshape147", 
      "attrs": {"shape": "(-3, 0)"}, 
      "inputs": [[914, 0, 0]]
    }, 
    {
      "op": "null", 
      "name": "target_output_weight", 
      "attrs": {"__shape__": "(22666, 512)"}, 
      "inputs": []
    }, 
    {
      "op": "null", 
      "name": "target_output_bias", 
      "inputs": []
    }, 
    {
      "op": "FullyConnected", 
      "name": "logits", 
      "attrs": {
        "flatten": "False", 
        "num_hidden": "22666"
      }, 
      "inputs": [[915, 0, 0], [916, 0, 0], [917, 0, 0]]
    }, 
    {
      "op": "null", 
      "name": "target_label", 
      "inputs": []
    }, 
    {
      "op": "Reshape", 
      "name": "reshape0", 
      "attrs": {"shape": "(-1,)"}, 
      "inputs": [[919, 0, 0]]
    }, 
    {
      "op": "SoftmaxOutput", 
      "name": "softmax", 
      "attrs": {
        "ignore_label": "0", 
        "normalization": "valid", 
        "smooth_alpha": "0.0", 
        "use_ignore": "True"
      }, 
      "inputs": [[918, 0, 0], [920, 0, 0]]
    }
  ], 
  "arg_nodes": [
    0, 
    1, 
    7, 
    29, 
    40, 
    42, 
    44, 
    50, 
    52, 
    58, 
    88, 
    99, 
    101, 
    103, 
    104, 
    107, 
    108, 
    119, 
    121, 
    123, 
    143, 
    154, 
    156, 
    158, 
    159, 
    162, 
    163, 
    174, 
    176, 
    178, 
    198, 
    209, 
    211, 
    213, 
    214, 
    217, 
    218, 
    229, 
    231, 
    233, 
    253, 
    264, 
    266, 
    268, 
    269, 
    272, 
    273, 
    284, 
    286, 
    288, 
    308, 
    319, 
    321, 
    323, 
    324, 
    327, 
    328, 
    339, 
    341, 
    343, 
    363, 
    374, 
    376, 
    378, 
    379, 
    382, 
    383, 
    394, 
    396, 
    398, 
    420, 
    431, 
    433, 
    435, 
    436, 
    439, 
    440, 
    451, 
    453, 
    455, 
    475, 
    486, 
    488, 
    490, 
    496, 
    512, 
    523, 
    525, 
    527, 
    528, 
    531, 
    532, 
    543, 
    545, 
    547, 
    567, 
    578, 
    580, 
    582, 
    588, 
    604, 
    615, 
    617, 
    619, 
    620, 
    623, 
    624, 
    635, 
    637, 
    639, 
    659, 
    670, 
    672, 
    674, 
    680, 
    696, 
    707, 
    709, 
    711, 
    712, 
    715, 
    716, 
    727, 
    729, 
    731, 
    751, 
    762, 
    764, 
    766, 
    772, 
    788, 
    799, 
    801, 
    803, 
    804, 
    807, 
    808, 
    819, 
    821, 
    823, 
    843, 
    854, 
    856, 
    858, 
    864, 
    880, 
    891, 
    893, 
    895, 
    896, 
    899, 
    900, 
    911, 
    913, 
    916, 
    917, 
    919
  ], 
  "node_row_ptr": [
    0, 
    1, 
    2, 
    3, 
    4, 
    5, 
    6, 
    7, 
    8, 
    9, 
    12, 
    13, 
    14, 
    15, 
    16, 
    17, 
    18, 
    19, 
    20, 
    21, 
    22, 
    23, 
    24, 
    25, 
    26, 
    27, 
    28, 
    29, 
    30, 
    31, 
    32, 
    33, 
    34, 
    35, 
    36, 
    37, 
    38, 
    39, 
    40, 
    41, 
    42, 
    43, 
    44, 
    45, 
    46, 
    47, 
    48, 
    49, 
    50, 
    51, 
    52, 
    53, 
    54, 
    55, 
    56, 
    57, 
    58, 
    59, 
    60, 
    61, 
    62, 
    65, 
    66, 
    67, 
    68, 
    69, 
    70, 
    71, 
    72, 
    73, 
    74, 
    75, 
    76, 
    77, 
    78, 
    79, 
    80, 
    81, 
    82, 
    83, 
    84, 
    85, 
    86, 
    87, 
    88, 
    89, 
    90, 
    91, 
    92, 
    93, 
    94, 
    95, 
    96, 
    97, 
    98, 
    99, 
    100, 
    101, 
    102, 
    103, 
    104, 
    105, 
    106, 
    107, 
    108, 
    109, 
    110, 
    111, 
    112, 
    113, 
    114, 
    115, 
    116, 
    117, 
    118, 
    119, 
    120, 
    121, 
    122, 
    123, 
    124, 
    125, 
    126, 
    127, 
    128, 
    129, 
    132, 
    133, 
    134, 
    135, 
    136, 
    137, 
    138, 
    139, 
    140, 
    141, 
    142, 
    143, 
    144, 
    145, 
    146, 
    147, 
    148, 
    149, 
    150, 
    151, 
    152, 
    153, 
    154, 
    155, 
    156, 
    157, 
    158, 
    159, 
    160, 
    161, 
    162, 
    163, 
    164, 
    165, 
    166, 
    167, 
    168, 
    169, 
    170, 
    171, 
    172, 
    173, 
    174, 
    175, 
    176, 
    177, 
    178, 
    179, 
    180, 
    181, 
    182, 
    183, 
    184, 
    185, 
    186, 
    189, 
    190, 
    191, 
    192, 
    193, 
    194, 
    195, 
    196, 
    197, 
    198, 
    199, 
    200, 
    201, 
    202, 
    203, 
    204, 
    205, 
    206, 
    207, 
    208, 
    209, 
    210, 
    211, 
    212, 
    213, 
    214, 
    215, 
    216, 
    217, 
    218, 
    219, 
    220, 
    221, 
    222, 
    223, 
    224, 
    225, 
    226, 
    227, 
    228, 
    229, 
    230, 
    231, 
    232, 
    233, 
    234, 
    235, 
    236, 
    237, 
    238, 
    239, 
    240, 
    241, 
    242, 
    243, 
    246, 
    247, 
    248, 
    249, 
    250, 
    251, 
    252, 
    253, 
    254, 
    255, 
    256, 
    257, 
    258, 
    259, 
    260, 
    261, 
    262, 
    263, 
    264, 
    265, 
    266, 
    267, 
    268, 
    269, 
    270, 
    271, 
    272, 
    273, 
    274, 
    275, 
    276, 
    277, 
    278, 
    279, 
    280, 
    281, 
    282, 
    283, 
    284, 
    285, 
    286, 
    287, 
    288, 
    289, 
    290, 
    291, 
    292, 
    293, 
    294, 
    295, 
    296, 
    297, 
    298, 
    299, 
    300, 
    303, 
    304, 
    305, 
    306, 
    307, 
    308, 
    309, 
    310, 
    311, 
    312, 
    313, 
    314, 
    315, 
    316, 
    317, 
    318, 
    319, 
    320, 
    321, 
    322, 
    323, 
    324, 
    325, 
    326, 
    327, 
    328, 
    329, 
    330, 
    331, 
    332, 
    333, 
    334, 
    335, 
    336, 
    337, 
    338, 
    339, 
    340, 
    341, 
    342, 
    343, 
    344, 
    345, 
    346, 
    347, 
    348, 
    349, 
    350, 
    351, 
    352, 
    353, 
    354, 
    355, 
    356, 
    357, 
    360, 
    361, 
    362, 
    363, 
    364, 
    365, 
    366, 
    367, 
    368, 
    369, 
    370, 
    371, 
    372, 
    373, 
    374, 
    375, 
    376, 
    377, 
    378, 
    379, 
    380, 
    381, 
    382, 
    383, 
    384, 
    385, 
    386, 
    387, 
    388, 
    389, 
    390, 
    391, 
    392, 
    393, 
    394, 
    395, 
    396, 
    397, 
    398, 
    399, 
    400, 
    401, 
    402, 
    403, 
    404, 
    405, 
    406, 
    407, 
    408, 
    409, 
    410, 
    411, 
    412, 
    413, 
    414, 
    416, 
    417, 
    418, 
    419, 
    420, 
    421, 
    422, 
    423, 
    424, 
    425, 
    426, 
    427, 
    428, 
    429, 
    430, 
    431, 
    432, 
    433, 
    434, 
    435, 
    436, 
    437, 
    438, 
    439, 
    440, 
    441, 
    442, 
    443, 
    444, 
    445, 
    446, 
    447, 
    448, 
    449, 
    450, 
    451, 
    452, 
    453, 
    454, 
    455, 
    456, 
    457, 
    458, 
    459, 
    460, 
    461, 
    462, 
    463, 
    464, 
    465, 
    466, 
    467, 
    468, 
    469, 
    470, 
    471, 
    472, 
    475, 
    476, 
    477, 
    478, 
    479, 
    480, 
    481, 
    482, 
    483, 
    484, 
    485, 
    486, 
    487, 
    488, 
    489, 
    490, 
    491, 
    492, 
    493, 
    494, 
    495, 
    496, 
    497, 
    498, 
    499, 
    500, 
    501, 
    502, 
    503, 
    504, 
    505, 
    506, 
    507, 
    508, 
    509, 
    510, 
    511, 
    512, 
    513, 
    514, 
    515, 
    517, 
    518, 
    519, 
    520, 
    521, 
    522, 
    523, 
    524, 
    525, 
    526, 
    527, 
    528, 
    529, 
    530, 
    531, 
    532, 
    533, 
    534, 
    535, 
    536, 
    537, 
    538, 
    539, 
    540, 
    541, 
    542, 
    543, 
    544, 
    545, 
    546, 
    547, 
    548, 
    549, 
    550, 
    551, 
    552, 
    553, 
    554, 
    555, 
    556, 
    557, 
    558, 
    559, 
    560, 
    561, 
    562, 
    563, 
    564, 
    565, 
    566, 
    567, 
    570, 
    571, 
    572, 
    573, 
    574, 
    575, 
    576, 
    577, 
    578, 
    579, 
    580, 
    581, 
    582, 
    583, 
    584, 
    585, 
    586, 
    587, 
    588, 
    589, 
    590, 
    591, 
    592, 
    593, 
    594, 
    595, 
    596, 
    597, 
    598, 
    599, 
    600, 
    601, 
    602, 
    603, 
    604, 
    605, 
    606, 
    607, 
    608, 
    609, 
    610, 
    612, 
    613, 
    614, 
    615, 
    616, 
    617, 
    618, 
    619, 
    620, 
    621, 
    622, 
    623, 
    624, 
    625, 
    626, 
    627, 
    628, 
    629, 
    630, 
    631, 
    632, 
    633, 
    634, 
    635, 
    636, 
    637, 
    638, 
    639, 
    640, 
    641, 
    642, 
    643, 
    644, 
    645, 
    646, 
    647, 
    648, 
    649, 
    650, 
    651, 
    652, 
    653, 
    654, 
    655, 
    656, 
    657, 
    658, 
    659, 
    660, 
    661, 
    662, 
    665, 
    666, 
    667, 
    668, 
    669, 
    670, 
    671, 
    672, 
    673, 
    674, 
    675, 
    676, 
    677, 
    678, 
    679, 
    680, 
    681, 
    682, 
    683, 
    684, 
    685, 
    686, 
    687, 
    688, 
    689, 
    690, 
    691, 
    692, 
    693, 
    694, 
    695, 
    696, 
    697, 
    698, 
    699, 
    700, 
    701, 
    702, 
    703, 
    704, 
    705, 
    707, 
    708, 
    709, 
    710, 
    711, 
    712, 
    713, 
    714, 
    715, 
    716, 
    717, 
    718, 
    719, 
    720, 
    721, 
    722, 
    723, 
    724, 
    725, 
    726, 
    727, 
    728, 
    729, 
    730, 
    731, 
    732, 
    733, 
    734, 
    735, 
    736, 
    737, 
    738, 
    739, 
    740, 
    741, 
    742, 
    743, 
    744, 
    745, 
    746, 
    747, 
    748, 
    749, 
    750, 
    751, 
    752, 
    753, 
    754, 
    755, 
    756, 
    757, 
    760, 
    761, 
    762, 
    763, 
    764, 
    765, 
    766, 
    767, 
    768, 
    769, 
    770, 
    771, 
    772, 
    773, 
    774, 
    775, 
    776, 
    777, 
    778, 
    779, 
    780, 
    781, 
    782, 
    783, 
    784, 
    785, 
    786, 
    787, 
    788, 
    789, 
    790, 
    791, 
    792, 
    793, 
    794, 
    795, 
    796, 
    797, 
    798, 
    799, 
    800, 
    802, 
    803, 
    804, 
    805, 
    806, 
    807, 
    808, 
    809, 
    810, 
    811, 
    812, 
    813, 
    814, 
    815, 
    816, 
    817, 
    818, 
    819, 
    820, 
    821, 
    822, 
    823, 
    824, 
    825, 
    826, 
    827, 
    828, 
    829, 
    830, 
    831, 
    832, 
    833, 
    834, 
    835, 
    836, 
    837, 
    838, 
    839, 
    840, 
    841, 
    842, 
    843, 
    844, 
    845, 
    846, 
    847, 
    848, 
    849, 
    850, 
    851, 
    852, 
    855, 
    856, 
    857, 
    858, 
    859, 
    860, 
    861, 
    862, 
    863, 
    864, 
    865, 
    866, 
    867, 
    868, 
    869, 
    870, 
    871, 
    872, 
    873, 
    874, 
    875, 
    876, 
    877, 
    878, 
    879, 
    880, 
    881, 
    882, 
    883, 
    884, 
    885, 
    886, 
    887, 
    888, 
    889, 
    890, 
    891, 
    892, 
    893, 
    894, 
    895, 
    897, 
    898, 
    899, 
    900, 
    901, 
    902, 
    903, 
    904, 
    905, 
    906, 
    907, 
    908, 
    909, 
    910, 
    911, 
    912, 
    913, 
    914, 
    915, 
    916, 
    917, 
    918, 
    919, 
    920, 
    921, 
    922, 
    923, 
    924, 
    925, 
    926, 
    927, 
    928, 
    929, 
    930, 
    931, 
    932, 
    933, 
    934, 
    935, 
    936, 
    937, 
    938, 
    939, 
    940, 
    941, 
    942, 
    943, 
    944, 
    945, 
    946, 
    947, 
    948, 
    949, 
    950, 
    951, 
    952
  ], 
  "heads": [[921, 0, 0]], 
  "attrs": {"mxnet_version": ["int", 10300]}
}